Unity/RL-Framework/Assets/ML-Agents/Models/Experiment_4/DefenderBehavior.onnx (onnx, 327093 bytes, 13 tensors)

discrete_act_size_vector f4 [1, 3]
00000000: 0000 4040 0000 1041 0000 6143
3.0 9.0 225.0

network_body.observation_encoder.processors.0.normalizer.running_mean f4 [246]
00000000: b30b 843f 2bf1 9b3f bc95 8c3f c41e 8e3f
00000010: 455c 983f 74c8 903f e44b 8e3f c792 863f
00000020: afe1 843f a2b9 973f e8d1 8b3f 7c2f 873f
00000030: 181c 8a3f a9d3 843f 23c0 883f 0be8 853f
00000040: 245a 8c3f 20ff a63f c6dd b83f 44a8 c23f
00000050: dd17 c83f 689c bf3f 6bc4 bd3f d640 c43f
00000060: f066 d63f 9bcb be3f adb6 ca3f c0da c63f
00000070: 405c 0440 be05 8a3f 0a23 873f 8109 883f
00000080: 3cbd a93f 565f d33f bb06 ad3f 330e b73f
00000090: 8901 ad3f 7420 ae3f a12d aa3f 881f b53f
000000a0: d517 b13f 2441 ac3f 0b9a b93f 1adf 963f
000000b0: b161 873f 1383 853f 696e 853f 0097 a73f
000000c0: 3b94 a83f 66cf aa3f a8e1 b23f df50 ae3f
000000d0: dfad a93f 8887 ab3f 3092 dd3f 1f44 be3f
000000e0: fd08 c13f 72f4 b13f 8b4c bc3f f1b9 863f
000000f0: 0324 943f a430 0e40 84da 0540 8548 c13f
00000100: 0b32 3240 ce8c d03f 358b aa3f 4f13 ad3f
00000110: 7c52 ab3f 6fd5 c13f 5d34 d63f 6f36 ae3f
00000120: cd8b b23f a6eb 923f 0e10 893f 2f10 1740
00000130: 1f37 833f 5beb 2f40 ac12 cb3f 0f73 c63f
00000140: 43fc b83f dc24 be3f 2593 b23f 7d21 ab3f
00000150: 6819 b23f d502 ad3f 3e02 ac3f 0dcc b13f
00000160: 8ea7 963f 3e85 873f c48b 7140 bfce 0240
00000170: 192c 4c40 781b fe3f b70c b53f 91cf b63f
00000180: 9995 b83f ffe0 d13f 1af7 ad3f 8b63 b63f
00000190: e37c b03f d256 b43f cddd ab3f e45c 933f
000001a0: 62fd 8a3f cce4 903f d3fe 3f40 df32 4440
000001b0: d87e 5340 9910 b83f 3fb2 cb3f 76e2 b13f
000001c0: b7ed c13f d721 ac3f e368 b33f 2d4e 0540
000001d0: e7cc c63f c1d0 bf3f 5e92 923f dc4d 903f
000001e0: 5548 0140 a0fe ff3f 2853 b83f d477 6c40
000001f0: ce54 2640 dedb 1440 2a5e 0140 cdf3 b23f
00000200: 29e9 b03f 9404 b43f b1dc b53f fcca e83f
00000210: 9bf9 ab3f 773b 913f 6f53 8a3f 1521 9a40
00000220: c49b fb3f 8022 3b40 4796 4940 e13b 1f40
00000230: 5a0f fa3f 80d3 ac3f 6d68 b53f 86d8 ae3f
00000240: 2879 bb3f 57af ee3f 9b63 b03f e02b ab3f
00000250: e498 963f a095 893f dfeb 9840 72f4 f43f
00000260: af7a 2340 f7fe c53f 8412 4940 49b9 bb3f
00000270: 5133 b23f 4938 af3f 8c78 aa3f 87d0 bc3f
00000280: d1e4 af3f 7927 ac3f 17f1 aa3f 3b41 913f
00000290: 34ec 893f fcbb 8f3f 450a f83f 068f ff3f
000002a0: 4fd4 3e40 a21a bb3f 8718 b43f 2d50 b13f
000002b0: cfa9 af3f 539f b33f 36df b93f ccf4 ae3f
000002c0: 2936 b33f 7bdc a93f 022c 933f 3c12 833f
000002d0: 92d2 9d3f 4e21 ea3f 2fee cf3f dbae bc3f
000002e0: 5d09 0440 405c d03f 05a4 aa3f e419 ac3f
000002f0: d917 aa3f 3497 b63f 5d18 b23f 957f aa3f
00000300: a91e aa3f 8179 943f 7ac4 893f 6888 833f
00000310: 1e98 e93f d175 ea3f ef27 d33f 7855 c73f
00000320: c9fb c23f 1155 c03f be01 c43f 3988 bd3f
00000330: 4823 c13f 4cff be3f a276 be3f 107a c73f
00000340: 122f ff3f 0468 853f 1fba 853f 0579 8c3f
00000350: cee4 903f 5357 983f 93a8 a03f 2d56 893f
00000360: a8b0 8e3f dd32 b23f 6d07 8a3f 481b c63f
00000370: 715d 8b3f 9b9e 873f 64f1 8a3f 0f5b 8a3f
00000380: 19fe 993f fd02 5e3e dfa7 1b3d 0000 0000
00000390: 62c3 de3e 3fc4 2b3e 0000 0000 f9ae 3b3e
000003a0: 5408 c13d 0000 0000 7d79 353e 8e4e 163f
000003b0: 0000 0000 770e f13e 6144 8e3f 0000 0000
000003c0: 66c4 a53e e0a8 c83e 0000 0000 f0ce f13c
000003d0: 75be bc3b ed08 1f3c
1.031607 1.2182974 1.0983195 1.1103139 1.1903158 1.1311173 1.111691 1.0513543
1.0381373 1.1853526 1.0923433 1.0561366 1.0789824 1.0377094 1.0683635 1.0461439
1.0965009 1.3046608 1.444268 1.52076 1.5632282 1.4969606 1.4825567 1.5332286
1.6750164 1.4905885 1.5836998 1.5535507 2.0681305 1.0783002 1.0557568 1.06279
1.3260875 1.6513469 1.3517679 1.4301208 1.3516093 1.3603654 1.3295175 1.4150248
1.3835398 1.3457379 1.4500135 1.1786835 1.0576688 1.0430626 1.042432 1.3092957
1.3170236 1.3344543 1.3975115 1.361843 1.3256186 1.3400736 1.7310238 1.4864539
1.5080868 1.3902724 1.4710859 1.0525495 1.157349 2.2217188 2.0914621 1.5100256
2.7843044 1.629297 1.3323733 1.3521518 1.3384547 1.514326 1.673473 1.3610362
1.3948914 1.1478164 1.0708025 2.3603628 1.0251197 2.74874 1.5865073 1.5503863
1.4451984 1.4854999 1.3951155 1.3369595 1.3914003 1.3516489 1.3438184 1.3890396
1.1769884 1.0587537 3.7741556 2.0438688 3.1901915 1.9852133 1.4144505 1.4282094
1.4420654 1.6396788 1.3591034 1.4249128 1.3788112 1.4088995 1.3427063 1.1512723
1.0858576 1.1319823 2.9999282 3.065605 3.304617 1.4380065 1.5913771 1.3897235
1.515067 1.3447827 1.4016384 2.0828965 1.5531281 1.4985582 1.1450918 1.1273761
2.0200398 1.999958 1.4400377 3.6948137 2.598926 2.3259196 2.0213723 1.3980652
1.3821155 1.4063897 1.4207975 1.8186946 1.3435549 1.1346272 1.0806712 4.8165383
1.9656911 2.9239807 3.1497972 2.4880297 1.9535935 1.3502045 1.4172493 1.3659828
1.4646349 1.864726 1.3780397 1.3372765 1.1765409 1.0748787 4.778793 1.9137099
2.554363 1.5468434 3.141755 1.466592 1.392191 1.3689052 1.3318038 1.4751137
1.3741704 1.3449546 1.3354825 1.1348032 1.0775208 1.1229243 1.9378134 1.9965522
2.9817083 1.4617503 1.4069985 1.3852593 1.3723696 1.4032997 1.4521244 1.3668456
1.4000903 1.327041 1.1497805 1.023994 1.2329886 1.8291414 1.6244563 1.4740862
2.0630715 1.6278152 1.3331305 1.3445401 1.3288528 1.4264894 1.3913685 1.3320185
1.3290607 1.159958 1.0763085 1.0276003 1.8249547 1.8317205 1.6496562 1.5572958
1.5233089 1.502596 1.5313032 1.4807197 1.5088892 1.492166 1.4879954 1.5584126
1.993624 1.0422368 1.0447425 1.0974432 1.1319826 1.1901649 1.2551445 1.0729424
1.1147661 1.3921772 1.0783516 1.5477076 1.0887891 1.0595278 1.0854917 1.0809039
1.203067 0.21680827 0.03800189 0.0 0.4350844 0.1677408 0.0 0.18328466
0.094254166 0.0 0.17722125 0.58713615 0.0 0.47081348 1.1114618 0.0
0.32376403 0.3919134 0.0 0.02951762 0.005760009 0.009706718

network_body._body_endoder.seq_layers.0.weight f4 [128, 246]
00000000: c231 85bc f8ee 753d 0ed0 9bbd da52 1dbe
00000010: 95bd 3f3d b5b7 dc3c 31cb e93c 4a5f 6c3c
00000020: eaab 153d 84c3 323d 5897 15be 1b28 063e
00000030: 0d11 febc 9985 b03d 7e60 07be 89a4 a7bd
00000040: 64a8 163e 4ec6 873d c0a2 933d 8283 a93d
00000050: 0b7e 21bd 89b0 4cbd 6bab c9bd 97b4 a9bd
00000060: cf4b 6fbd 3b04 cbbd c2d6 9b3c e023 8dbd
00000070: 280e 00be e3d4 e23c d982 07be 5e26 ea3c
00000080: acdd b3bc cd2e 8c3d 3f53 b83d 1f53 65bd
00000090: bd7b b13c a572 7d3d 6904 933b d8f9 0b3c
000000a0: 7903 733d ceb8 6b3d a165 213d 4d2a f4ba
000000b0: a66f 9e3d 40e9 5bbd 9192 dc3c c978 653d
000000c0: 5f08 863d 2f31 9a3c 84a4 43bd 872f 3b3c
000000d0: 1dc0 b63b aa56 72bd 102b ae3d f68d 5fbd
000000e0: 9a54 e33c b8da efbc bbaa 103d c574 073d
000000f0: 5001 d5bb 3aef 7cbc 1f3f 9a3d 5d0b bfbd
00000100: 8d9f 36bc e995 a23c 3d7b 693c 431e babd
00000110: d10e ce3d db0c f8bc 0ba7 813c 42b7 29be
00000120: ae33 ec3c 1c46 c0bd 6c8c 1ebe bcef b83d
00000130: e942 aebc 3cfc 4fbe 455e 403d 8a49 04bd
00000140: dd4a 6e3d 94d3 633d 2a98 b3bd 0806 523d
00000150: 5224 8d3c 4324 c0bc 8b6b 94bd a509 183e
00000160: 067e 08bd f596 b2bc 43ec 07bd 0906 933a
00000170: 25ae df3d a6ff e43b 15c2 183d bf8a f03d
00000180: 4138 ddbc 1ca9 d3bd 7b3c a13d 3b6f f7bc
00000190: 0f93 683d acb2 b0bb 39e6 edbd 6c4b 853d
000001a0: 77ab b03d 809a 753d e38d 42bd 4c1a 933b
000001b0: 01a9 6b3b 4e71 c43d ec83 63bc b2df 92bd
000001c0: 76e5 fcbd 70be 9cbd 6c8a 8e3d f43c 113c
000001d0: 4312 5ebd abab 373e 6801 67bd 8a2a edbd
000001e0: 56f6 bfbb 63d8 913d 0884 33bc 878f e8bd
000001f0: cd5c 823d eea3 c13d 9dc2 1ebe ca9d a5bd
00000200: 9253 17bc 971d a53b 875a c6bd 8fd4 56bd
00000210: 9fec 603c e5d7 97bd 89d9 9bbb f217 86bd
00000220: ae67 b93d 706e 50bd be55 05bd 3142 933d
00000230: 3a1c e63d 7a4d 4b3d 4b37 b1bc 3216 70bc
00000240: 6388 123d 8470 193d 1ff7 1ebc 8496 abbd
00000250: 6a40 b6bd 9dec 8b3d ef75 d73c 779f 523d
00000260: 5efb 67bd 620c 053e e2cf 21be 6bde 143e
00000270: 69d3 84bc 8906 a13d 9faa 0fbd 2130 19bd
00000280: b280 203d 423b b73c 2684 4cbe e8e7 80bd
00000290: e19e 593d e70c f23c db2c d13c 7f5a 22be
000002a0: 6623 aabc ee2f 443c 2960 57bd ebe0 bb3d
000002b0: 71b3 4cbc 1cdd 363d 00fd 8abd 7c87 fbbc
000002c0: 25f4 eebd d130 bbbc 9e35 a2bc d08c b23d
000002d0: d350 bebc d6ed 02be 4aa9 073e cb26 b73d
000002e0: 70d6 fc3d eb5b 01be 8507 9cba 2277 bbbd
000002f0: 5b83 61bc e183 ecbc ae1a 2e3d 5db7 dbbd
00000300: c552 323d 95e2 193e 78b4 babb a92b 7ebb
00000310: 7822 0abe c4d5 bcbd 8404 073e 4b89 99bd
00000320: 1033 8cbd c2bf fc3c 61ce 7d3d 6be7 903d
00000330: 0035 2f3d b7e4 eebd c35f 5e3b 2c5c 7ebb
00000340: 07de 73bd cbf4 2dbe 0241 bd3d 59c1 bb3c
00000350: 1eea 123d d0f3 da3c bc6e 9a3c 490c c93d
00000360: 2626 2dbd 100e 8c3d 2ab5 f43d 6291 a5bb
00000370: 67a4 5f3c a136 b23d 72c1 65bd e654 a83d
00000380: cbf7 9abc 72d8 443c 192d d6bd 8aca dfbd
00000390: 6bdc d5bc 90c8 b6bd b454 96bd b8a2 3c3e
000003a0: e359 23bc 9471 5b3d b099 4cbd 7afd 1ebe
000003b0: 4735 05bd 9b34 babd 467d 6a3c e231 aa3d
000003c0: 43ef 02bd 786b 08be 2d56 25bd c2c2 e9bd
000003d0: 0b17 883d 23ef e13d 9b62 02bd a4ca b13d
000003e0: c061 be3d f6dd d8bc f45a bd3c fd3a acbc
000003f0: a9db cbbc 3dbf f73d 965c 59bd d4db b3bd
-0.016259078 0.06004235 -0.07608043 -0.15363637 0.04681166 0.026943067 0.028539272 0.014427016
0.036540903 0.04364349 -0.14608514 0.13101237 -0.03101399 0.08619232 -0.13220403 -0.081856795
0.14712673 0.066296205 0.072087765 0.08277036 -0.039426845 -0.049973045 -0.098471485 -0.08286398
-0.058421906 -0.09912916 0.019023303 -0.06891608 -0.125054 0.027689403 -0.13233508 0.028582748
-0.021956287 0.06844864 0.09000253 -0.055987474 0.021665448 0.06187691 0.0044866097 0.008543454
0.059329484 0.05754929 0.03940356 -0.0018628329 0.07736139 -0.05368924 0.026925357 0.056023393
0.065445654 0.01882228 -0.047764316 0.011424906 0.005577101 -0.05916468 0.08504307 -0.054578744
0.027750302 -0.029279098 0.03531907 0.033070344 -0.0065004006 -0.015437895 0.07531571 -0.09328339
-0.011146438 0.019846873 0.014250574 -0.09087803 0.1006142 -0.030279567 0.015826723 -0.16573814
0.028833237 -0.09388372 -0.15483254 0.09030101 -0.02127214 -0.20311064 0.046964902 -0.032296695
0.058176864 0.0556217 -0.08769257 0.051275283 0.017229233 -0.023454791 -0.07247075 0.14847429
-0.03332331 -0.021800498 -0.0331843 0.0011217009 0.10921887 0.0069884835 0.037294466 0.11745214
-0.027004363 -0.103349894 0.07872864 -0.030204406 0.05678087 -0.005392393 -0.11616177 0.06508526
0.08626454 0.059961796 -0.047498595 0.004489219 0.0035958888 0.09591924 -0.013886433 -0.07171573
-0.12348454 -0.076535106 0.069599956 0.00886463 -0.054216634 0.1793658 -0.056397825 -0.11580379
-0.005858223 0.071213506 -0.010956772 -0.11355501 0.063653566 0.09455095 -0.15503927 -0.080867365
-0.009236233 0.005038928 -0.096852355 -0.052448805 0.01372829 -0.074142255 -0.004756157 -0.06547536
0.090529785 -0.05088657 -0.032552473 0.071903594 0.112358525 0.049634434 -0.021632811 -0.014653729
0.0357746 0.03746082 -0.009702473 -0.08378318 -0.08899005 0.0683224 0.026301352 0.05142161
-0.056636207 0.12993005 -0.15801957 0.1453797 -0.01621409 0.078625746 -0.035074826 -0.037399415
0.039185233 0.022367124 -0.19972286 -0.062942326 0.053130034 0.029547168 0.025534084 -0.15854834
-0.020768832 0.011974318 -0.05258194 0.09173759 -0.012493954 0.04464446 -0.06786537 -0.030704252
-0.116676606 -0.022850426 -0.019800957 0.08718264 -0.0232319 -0.1278604 0.13248172 0.08942946
0.12345588 -0.1263272 -0.0011904096 -0.09153582 -0.013764228 -0.028871479 0.042505912 -0.10728333
0.043535966 0.1502784 -0.005697783 -0.0038783348 -0.13489711 -0.0922046 0.13185316 -0.0749689
-0.06845677 0.030853156 0.061964396 0.070753895 0.042775154 -0.11664718 0.003393159 -0.0038812263
-0.059537914 -0.16987912 0.09240915 0.022919344 0.035867803 0.026727587 0.01885163 0.09816796
-0.04227271 0.0683862 0.11948617 -0.0050527314 0.013650036 0.08701826 -0.056092687 0.08219318
-0.018916985 0.012014495 -0.104578204 -0.10927303 -0.02610608 -0.08924973 -0.073403746 0.18421447
-0.009970161 0.053575113 -0.049951255 -0.15526381 -0.032521512 -0.09092065 0.014312094 0.08310296
-0.03196646 -0.13322246 -0.040365387 -0.114141 0.0664502 0.1103194 -0.03183232 0.08681229
0.09295988 -0.026473027 0.023114659 -0.021024222 -0.024885016 0.12097023 -0.053066812 -0.08782163

network_body._body_endoder.seq_layers.0.bias f4 [128]
00000000: 3a94 a73a d340 243d 9f71 983d 0005 b33d
00000010: 8da6 133d f700 8f3d 471a 4e3d f0cb 363d
00000020: e962 0f3c 27f6 113d c99a 343d 99e4 193d
00000030: 7de1 303d 5d5b 4e3d 7a91 193d 2cf4 d73b
00000040: 1f79 623d e6dc b23d 6258 b53c 89e8 b13c
00000050: 68c7 a13b 0b43 5b3d 86af 8aba aaef b23d
00000060: 5bb7 91bc 1669 d93c e723 f23c 2702 a4bb
00000070: 3fe5 013d 0ddf 00bc 1058 313d 6a7a 923d
00000080: 1472 713d bb02 5a3d 3c15 d13d e53c 2b3d
00000090: 950e 173c 9a94 953d ddfd 5e3d d69c 413d
000000a0: 5202 e53c d43d 583d 8b76 913d 1ecc 5b3d
000000b0: 88e4 6c3d b410 0f3c 6f83 9a3d 5405 1a3d
000000c0: 677c c33c 324c 843d b378 9d3c 7aaf 103d
000000d0: 7c0e e4bc 8a9e f93b 588d 723d 2be8 283d
000000e0: 66e9 0d3d aff2 2e3d 5ea0 d03c 2b8b 313c
000000f0: 7f67 653d 1aac ca3c 7c21 133d 4979 0e3d
00000100: a03f d63c e8c3 4c3d 393f 873d 273a 6ebc
00000110: de1e 323d 063a 003d 0e75 15bc b5b6 683d
00000120: 8813 173d dbf7 5a3d e1cb 7dbc bcaa 4e3d
00000130: 0f42 353d ffb5 353d ff5d c63d bd2b 01bc
00000140: 8a49 e33c c2f7 9a3d f2db f73b f4d5 373d
00000150: ed6d 4c3d ddcb 493d f6b9 623c 6aef 413c
00000160: 4e6b 9f3c 5758 e43d dbb2 ef3c f314 a73d
00000170: 5dbe e23c b649 af3d 602e babb 79b4 8c3d
00000180: 1d92 21bc 5c31 5c3d 44aa 873d 1bec 5c3d
00000190: a447 20bb 4b28 b6bb c69d 583d 5ec9 083d
000001a0: 8f25 3d3d 5962 7a3d d9dd 063d f647 9a3c
000001b0: ba89 54bc d053 99bc a5b3 6b3d 2bff 3a3d
000001c0: ab65 633d a866 3d3c 8f9a 963c e87d f33c
000001d0: 37d9 f93c 312a 273d b8b8 313d 2f8f cd3c
000001e0: b172 773d 480e 8f3d ab9d 153d fcef 653d
000001f0: 0705 8a3c dcff 873d 32d1 2d3b 1076 033d
0.0012785264 0.040100884 0.074435465 0.08741188 0.036047507 0.06982606 0.05031803 0.044628084
0.008751609 0.03563514 0.044092927 0.037571523 0.043183792 0.0503801 0.037492253 0.006590387
0.05529129 0.08733539 0.02213687 0.021717327 0.004937101 0.053530734 -0.0010580875 0.087371185
-0.017787626 0.026539367 0.029558135 -0.0050051394 0.031712767 -0.007865679 0.043296874 0.07152255
0.058946684 0.05322526 0.10209128 0.04180612 0.009219785 0.07303734 0.05444132 0.04726871
0.027955208 0.05279334 0.071026884 0.05366146 0.057835132 0.00873201 0.075446 0.037602738
0.02386303 0.064598456 0.019222593 0.035323597 -0.027838938 0.0076177763 0.059216827 0.041237038
0.034646414 0.04271191 0.025467094 0.010836403 0.056006905 0.024740268 0.035920605 0.034783635
0.026153386 0.04999152 0.06603856 -0.014540232 0.04348647 0.031305335 -0.009122146 0.056814868
0.03688386 0.05345903 -0.015490503 0.050455794 0.04425245 0.044363018 0.09685897 -0.007883963
0.027745027 0.07566787 0.0075640613 0.044881776 0.04990952 0.049266685 0.013838282 0.011836866
0.019460347 0.11149662 0.02926009 0.081582926 0.027678663 0.08558981 -0.005681798 0.0687036
-0.009861496 0.05375801 0.066242725 0.053936105 -0.0024456764 -0.0055590025 0.05288484 0.033395164
0.046178397 0.061128948 0.032926414 0.018833142 -0.01297229 -0.018716723 0.05754437 0.045653503
0.05551688 0.01156012 0.018384246 0.029723123 0.030499084 0.04081172 0.043389052 0.02509269
0.060412113 0.06985146 0.036527317 0.05613707 0.0168481 0.06640598 0.0026522395 0.032095015

network_body._body_endoder.seq_layers.2.weight f4 [128, 128]
00000000: e625 c43d b623 533d c2fb a13b 3910 3b3e
00000010: d4bb b3bd ff90 903e 8c8c 8cbd 081e 353d
00000020: e36c c2bd a205 b33d 0bce 033e 966f 54be
00000030: 71e9 ca3c 795c 9fbd f874 8ebd 8b00 303e
00000040: ce05 a0bc 8977 89be 0249 333c bd37 7b3c
00000050: 5293 fa3d eff1 c53d 58a4 b2bd f7f4 43bd
00000060: 9e80 953b b63f 67bc d899 ad3c 59d4 91bd
00000070: d8ee 09be 2c8e 9e3d 2505 103e 3b43 febd
00000080: 24fa 21be b702 fc3d c438 7f3c 4a94 263e
00000090: 0b55 7e3d 76b2 c8bd bcbd adbd 09d0 03be
000000a0: 9cf4 79be 2b58 8b3d 8fea 293d 6218 8bbd
000000b0: 0396 833d b69f 9c3d ac8d 3f3d fe14 c33d
000000c0: f3fe dfbd 2729 babd 98f3 8e3d 86ff 73bd
000000d0: a4be 423d 6f5d a23d a87c 243d ffa7 923d
000000e0: 0d45 b2bd 709a e53d 96b9 77be c2f0 c139
000000f0: 1e32 203e f764 c73d a938 043e 0223 353e
00000100: a8f7 9dba 760e b4bd f7ad 9dbc 34a1 183e
00000110: c89c 74bd dd9a 0e3d 8daa cfbd e166 963d
00000120: 3dfe 50bb e359 d23d 68fa e13c b2de 0f3e
00000130: fd3f dbbd 8540 16bc aed6 ac3d 5cd2 273e
00000140: f9b2 4c3d 77c4 81bd 5834 60be 1add 8ebd
00000150: d8e4 c4bd 6e23 7bbc 6d35 8bbd e953 fc3d
00000160: e5dd 023e c8b0 c0bb c703 193c 512b 853d
00000170: 7d74 643d b16e ca3d 16aa d13d e35c 9e3c
00000180: 739a f0bd 5308 9a3d 0705 3c3d 5994 593e
00000190: da75 c5bc e3b2 3a3d 31e2 b1bd ffee c53d
000001a0: f513 f53d d8ed 063d b8ea 12bd fe0c 5ebc
000001b0: 9984 b0bd 1d40 e1bd e05e bdbd 6411 b63d
000001c0: b892 20bd 3958 6cbc 4db7 b73d 9314 2bbd
000001d0: e3cc 733e bb47 bdbd 4f82 173e cdc6 fdbc
000001e0: 50a3 50bc c572 7c3d 69b2 3b3d b31c db3d
000001f0: 2287 9e3d 3e19 673d e15a 483e 8566 503d
00000200: fcdf 5d3d 946d bcbd 52ee c5bd da9a 1cbe
00000210: 792b 83bd 7caa c3be d923 8f3d 8d21 dbbd
00000220: 6af1 99bd 7d38 8bbd 68f0 f33d 8c5a 8b3c
00000230: a024 313d b027 823e 935f 02bd 7238 0d3c
00000240: 1aec 94be e1b7 9ebd 6d7e 28bd f08f 473c
00000250: ee9a a83b 524c cd3c 5042 d3bd 9c58 ed3b
00000260: 54e7 8c3d 7194 cd3d c5eb 203e 3cd4 ef3c
00000270: 83fa 1d3e abfb 883d fd5e 523e 1e68 3cbd
00000280: 3e1e c1bc 1356 3e3d 73f4 d3bd 9a53 a5bd
00000290: 80e8 943c ca6f 35bd adb2 29be 678f 4abd
000002a0: ff12 403e 4e00 2b3e 45ac efbd 15be 3c3d
000002b0: 7c9d a93d bb34 11bd a396 7fbe e572 393e
000002c0: 1be0 0a3d e99e 833d fd6e ebbd 73b0 393c
000002d0: 86a4 043e 0757 3a3d 0c6a 963d 50b5 273e
000002e0: 43d9 e13d 9a76 81be 0ccb c5bd 93ac 21be
000002f0: 917c 37bd 8428 9e3d fb37 f43d a12a 80be
00000300: 6d6f 8c3d 3b5c 00bd 1a7f 153e fc12 0a3d
00000310: f9f0 8b3d ea95 bfbc a401 f23c 0549 5f3d
00000320: 3773 5dbc af4b c9bd caa0 8cb9 5d66 d63c
00000330: d209 e9bd 7d52 a4bd e783 dc3b b56d 383d
00000340: 8be4 2d3d 6151 2dbd b7e6 003e e475 10be
00000350: ee4d 9c3b 0717 803d 39da e23d b61d 433e
00000360: 57fa 223d 5e6b dc3d 0418 db3d 6e0e 083d
00000370: 1c98 f4bc 3608 9d3d cdec 4fbd 7b12 89bd
00000380: d1e1 96bc 99c2 163e 94d8 033e 3790 baba
00000390: f375 aabc ba2e d23d b172 f83c 039e fdbb
000003a0: 7dff 15bd 96b1 ec3c 863b ba3d 6e3f 3c3e
000003b0: 2eb7 acbc e059 a6bd 9879 9bbc bf37 87bd
000003c0: 1431 05bd 38bd 203e ef19 a9bd 31d0 afbd
000003d0: 9b32 a6bd 3886 e9bd c18a a03d 1ab6 01be
000003e0: 976c e9bd 132e d7bd 6f24 903d 17ff a13d
000003f0: ab8e 303d 1b34 4dbd b74d 9e3d 2588 dbba
0.09577541 0.05154773 0.004943342 0.18267907 -0.0877606 0.28235623 -0.06862745 0.044218093
-0.09493425 0.08741309 0.12871568 -0.20745692 0.024769517 -0.0778131 -0.06955904 0.17187707
-0.019534018 -0.2684901 0.010942699 0.015333113 0.1223513 0.09665286 -0.08722752 -0.04784104
0.0045624515 -0.014114311 0.021191522 -0.0712058 -0.13470018 0.07741961 0.14064462 -0.12415167
-0.15818077 0.12305205 0.015577499 0.16267505 0.062092822 -0.09799664 -0.084834546 -0.12872328
-0.24409717 0.06803926 0.041483458 -0.0679176 0.06425097 0.0764765 0.04676597 0.09525488
-0.109372996 -0.090898804 0.069800556 -0.059569858 0.04754509 0.07927977 0.040157944 0.07160949
-0.08704577 0.11211097 -0.24191889 0.00036991207 0.15644118 0.097360544 0.12912239 0.17689136
-0.0012051957 -0.08791821 -0.019247992 0.14905244 -0.05971983 0.034815658 -0.10139952 0.07343841
-0.003188982 0.10271051 0.027585223 0.14049795 -0.10705564 -0.009170656 0.084393844 0.1638884
0.04997537 -0.06336301 -0.21894968 -0.069757655 -0.09613961 -0.015328271 -0.067972995 0.12320692
0.12779959 -0.005880449 0.0093392795 0.065024026 0.055775154 0.09884394 0.102375194 0.019331401
-0.11748209 0.07521119 0.045903232 0.21247996 -0.024104048 0.045580756 -0.08685721 0.096647255
0.11966697 0.03294167 -0.035868376 -0.013552902 -0.08619041 -0.10998557 -0.092466116 0.08890036
-0.039202422 -0.014425331 0.08970509 -0.041767668 0.23808627 -0.09242197 0.14795803 -0.030978585
-0.012734249 0.06163289 0.045824442 0.10698833 0.07740618 0.056420557 0.19565918 0.05087902
0.054168686 -0.09200588 -0.096645966 -0.15293446 -0.06404776 -0.38216007 0.06989259 -0.10699759
-0.07516749 -0.06797884 0.11911088 0.01701095 0.04324782 0.25420904 -0.031829428 0.008619415
-0.2908638 -0.07749916 -0.041136194 0.0121803135 0.005145422 0.025060806 -0.103153825 0.007243229
0.0688006 0.100380786 0.15714939 0.029276006 0.15427594 0.06688627 0.20544048 -0.04599773
-0.02357399 0.046468806 -0.10349359 -0.08072586 0.01817727 -0.044296063 -0.16572066 -0.049453165
0.18757246 0.16699335 -0.1170278 0.046079714 0.08281991 -0.03545068 -0.24959807 0.18110235
0.03390513 0.06426794 -0.11495779 0.011333573 0.12953386 0.045493152 0.073444456 0.16377759
0.110277675 -0.25285798 -0.09657869 -0.15788488 -0.04479653 0.077225715 0.1192474 -0.25032523
0.0685719 -0.031337958 0.14599267 0.03370951 0.06833071 -0.023386914 0.029541798 0.054512996
-0.013516239 -0.098288886 -0.00026822678 0.026171857 -0.11378826 -0.08023546 0.006729591 0.0450265
0.042454284 -0.042313937 0.1258801 -0.14107472 0.004770032 0.06254392 0.11076779 0.19054303
0.039789524 0.10762666 0.1069794 0.033216886 -0.029857688 0.07667582 -0.05076294 -0.06692978
-0.018418225 0.1472267 0.12875587 -0.0014233653 -0.020808196 0.10262819 0.030328127 -0.0077397837
-0.036620606 0.028893273 0.090933844 0.18383572 -0.02108344 -0.08122611 -0.018978879 -0.066024296
-0.032517508 0.15697181 -0.082568996 -0.08584631 -0.08115121 -0.11402553 0.07838965 -0.12667122
-0.11397665 -0.10506835 0.07038199 0.07909983 0.04310481 -0.05009852 0.07729667 -0.0016748948

network_body._body_endoder.seq_layers.2.bias f4 [128]
00000000: 5347 ce3b 37ba 973c d0f6 be3c 7acb f1ba
00000010: 1b82 6c3c 8c2f 9e3c 4ad2 c0bc 4c61 9ebc
00000020: 5f81 9b3d 2e04 f3bb 0177 e23c 47e5 143c
00000030: b7bc 7fba 6e3b 383a ad66 91bc 9c0e 763c
00000040: acd7 8b3c fae9 3aba b8f4 04bd abb1 ac3d
00000050: 16ca b2bb 8aa9 3b3d 1c29 903a fa04 0d3d
00000060: 93c1 1e3c 2e78 09bd 4468 1f3c 68b9 0cbc
00000070: de96 063d e41f ff3b 6c65 2bba 13c9 b83c
00000080: 09bb c83c 9022 16bc d031 53bb 1f0b 72bd
00000090: 14f7 00bc faae cb3d 4fbd 323d b679 b3bc
000000a0: 1802 bc3c 80fd f83b a57f 873d d7a9 203d
000000b0: 0e85 a43c 73da 383c ed46 3ebb f6c3 b03c
000000c0: 6389 403c b189 e5bc 099c 453a efc9 953d
000000d0: efe7 a8bc 0c83 533c 0c3d cb3c ed58 1a3c
000000e0: ee77 edbc 09c0 323b fad0 8e3d 7fc5 f43c
000000f0: 6c37 4c3b d347 133d 72a2 edbb 91bc 413c
00000100: 2b92 913b eb1f 16bd b0b8 aabb 8700 2b3c
00000110: 6384 543d 8b03 b93b 22b3 d73c 4914 2dbd
00000120: c30d 5a3a 29dc d23b 7ae1 273b adfc 8a3a
00000130: 419b 15bd e6c8 01bb 6c4e 5ebc c68f 59bb
00000140: cfc3 62bb 3bf9 8bbc c9ee cebc aaf9 bbbc
00000150: dba7 b7bb 44a1 c23c 6d10 0b3d ccf6 7f3c
00000160: f8ae f5bc 50b4 2dbc 424d 243d 68ed 373d
00000170: 2bb6 b83c d47a f7bb 7a5c d63c 2748 893d
00000180: f748 8ebb 65f0 b638 6325 aabc 34c3 5a3c
00000190: 3541 f3bc 0d8d 803d ada7 ea3a ae95 e9bc
000001a0: d1c9 6dbc 49e9 1abd 9571 debc 0c51 523b
000001b0: d626 fb3a b8ac 973c afa7 7f3d 554c 193d
000001c0: be9d 9f3b 1e56 913c 9689 eabc 2012 e93c
000001d0: d5b6 d13c 0fdc c139 0920 aabc 4b5c 0ebc
000001e0: 46d0 243d 0d25 e23c aff2 fabc e449 5f3d
000001f0: a74b 29bc 28ef 0d3d 0696 a6bc 930d 163d
0.0062951236 0.018521411 0.023311049 -0.0018447482 0.014435316 0.019309781 -0.023537774 -0.019333504
0.07593035 -0.0074162697 0.027644636 0.009087867 -0.0009755599 0.00070278987 -0.017749155 0.015018132
0.017070614 -0.0007130202 -0.032459944 0.08432325 -0.0054562194 0.045815982 0.001099858 0.034428574
0.009689706 -0.033561878 0.009729449 -0.008589126 0.032858722 0.007785784 -0.00065382454 0.022556817
0.024503248 -0.009163514 -0.0032225735 -0.059092637 -0.007871408 0.099454835 0.04363757 -0.021908622
0.022950217 0.007598579 0.06616143 0.039224472 0.020082977 0.011282551 -0.0029033974 0.021577816
0.011751506 -0.028019758 0.00075382047 0.073139064 -0.020618407 0.012909662 0.024809383 0.009420616
-0.028987851 0.0027275106 0.06973453 0.02987933 0.0031160964 0.03595717 -0.007252031 0.011824743
0.0044424734 -0.036651533 -0.0052100047 0.010437137 0.051884066 0.0056461743 0.026330534 -0.042255674
0.00083180907 0.0064349365 0.0025616572 0.0010603868 -0.036525015 -0.0019803583 -0.013568502 -0.0033197268
-0.0034601574 -0.017086616 -0.025260346 -0.022946198 -0.0056047267 0.023758538 0.03395121 0.015622806
-0.029990658 -0.010602072 0.04011274 0.044904143 0.022547802 -0.007552484 0.026167143 0.06703215
-0.004342194 8.723213e-05 -0.02076978 0.013352204 -0.02969418 0.06276903 0.0017902754 -0.028513756
-0.014513449 -0.037820134 -0.02715377 0.0032091765 0.0019161354 0.018514976 0.062415775 0.03742631
0.0048710993 0.01774126 -0.02863006 0.028451025 0.025599876 0.00036975785 -0.020767229 -0.008688997
0.040237688 0.027605558 -0.030633299 0.054513827 -0.010332978 0.034651905 -0.020335209 0.03663404

action_model._discrete_distribution.branches.0.weight f4 [3, 128]
00000000: 21db c03c 0455 adbc ac12 32bd 349a f03c
00000010: d52d ccbc ed12 a5bc e8dd 0fbd 6420 ab3c
00000020: 4463 bbba 190a 483a ea45 ecbc 6998 043c
00000030: 9400 9e3c 1e91 113d 1766 e4bc 870c 923c
00000040: c12e 173d 29c6 943c 76cf b73c 52db 47bd
00000050: 3e31 4ebd fcaf 383d cbb9 13bc 48a2 e9bc
00000060: 01f0 8fbc fead fdbc 90d0 0ebd b08e e23b
00000070: 1654 f1bc ea33 a8bb f337 18bd 23f6 ab3d
00000080: aef1 2f3d 4004 c4bc 3848 a13d 3999 573c
00000090: fa4d 753c 18f6 643d 5141 ab3a cc46 623d
000000a0: e12e 95bb 6b69 923d 3cdd 25bb 07f5 1b3d
000000b0: f383 d53c 9eca 7b3d 2398 ff3b 73a6 f3b6
000000c0: b12e 52bb 2f4b 043d ef55 b8bb 7f69 1939
000000d0: ee49 203d c03c 723d 7ed3 9ebc b226 0dbc
000000e0: 7eac 823b b005 87bc 25d4 01bd 17ea fe3b
000000f0: 16b2 563d 354d 1dbd 20e1 7a3c e5b0 e8bc
00000100: 6b5f 95bc 8c06 b1bc da65 8d3c a3b3 3b3c
00000110: 515b e13c fba7 22bd 6183 153d 1129 93bb
00000120: 41cc 493d bbc9 723c c8fd 1f3d e3e1 22bd
00000130: cca8 e53c ded6 41bc 4eeb 543c 0031 b8bc
00000140: d724 96bc d0d2 afbc 74bb 2cbc fb64 dd3c
00000150: 687b 913d 2805 0739 3106 db3c 8eaf 23bd
00000160: a9f9 123c 9f62 7ebb d045 c33d 2209 8e3d
00000170: 724d 103d e450 123c 3537 0dbd 451c 7dbd
00000180: 5cbe a63b f179 e53b 1f3d 053d f4f2 3e3d
00000190: 66c2 c0bc 064e 1bbc fc54 b23c 1e62 403b
000001a0: a15d c73b 750e 29bc 70b6 693d f623 c1ba
000001b0: f39a 0a3d 45be 923d 94cc 7c3c 9669 1fbd
000001c0: f68c f13c d292 e0bc 12c3 33bd df07 063d
000001d0: faa3 b63c f041 90bb ac90 5ebc c653 0a3c
000001e0: 85e1 853c 4b45 533b 000a 2cbc 4cce 883d
000001f0: 9b12 d23c 797c 1d3d f955 4ebc 5f4a 653b
00000200: 9dff 91bb 93aa 023b a00d c33c 99a5 12bd
00000210: fe51 083c 3a40 bd3c dcbc 4a3d 19ad 6c3a
00000220: 1f38 c0bb f2c4 e3bc 13d1 b63c 8354 0dbd
00000230: b166 fdbc d1e3 6f3c f719 36bc 1f52 c13b
00000240: 984b 4d3c 046e 8abb 3a55 1dbd 33ac cd3b
00000250: f08d b03c 067c 393c e08f 0c3d 90b3 ad3c
00000260: 8f9f 013c 02aa b83c cc08 1a3d 2fde d3ba
00000270: 0ee4 723c f978 03bd 4a5c 883c 1c71 0ebe
00000280: ba39 b0bd 8976 083d 9cbd a9bd 0b56 0a3c
00000290: fa69 52bc ef1f 64bd 4dac 573d ab58 4dbd
000002a0: 079b dbbb 964a 52bd 046c bb3c 2eb4 85bc
000002b0: 2326 60bd b279 a7bd d386 0d3d ee46 c9bb
000002c0: a4a2 56bd 6247 f4bc 82b2 2b3c 5f3d 4a3d
000002d0: 0d13 723c 13be 08bd 87af e2bc 3e89 afbb
000002e0: 1753 b6bc d946 16bc 2f5a cb3c 32dc fe3b
000002f0: 4591 2bbc 5b4d 59bc 8375 1bbb d967 7e3c
00000300: aed5 04ba 7464 413b 80ad 95bc f933 393b
00000310: 1806 6abc 61f5 603d c070 4cbd 6a25 fb3c
00000320: 0f2d 81bd f641 90bc 720a d6bc 3c7b 923c
00000330: 2b05 e6bc 5cc8 0bbd f548 cabb ecff 5d3d
00000340: b5cc 7b3c f75b 3b3c 022d 253c 1fc8 cbbc
00000350: 4ac2 8bbd 2093 0abd 492c 40bd 5d55 87ba
00000360: 5468 88b9 d38d bbbc e1d7 d4bd b19d babd
00000370: c9b4 16bd 8244 6a3c 58c0 00ba 5908 6d3c
00000380: ef12 8e3b 1374 18bb 67b4 063b 1adb 043c
00000390: 561e b23a 7316 333d 1757 ecbc 6a49 9cbc
000003a0: fc7e 6cbc a484 a53b 291a 43bd 263a 2ebc
000003b0: d0e1 02bc 11fb a1bd d9a8 84bc 39ec a33c
000003c0: b35f d7bc 2c4a 413c 2b96 e83c 1cc3 d7bc
000003d0: 419c f7bb 95e4 443d 36ff 653b 8036 983c
000003e0: 2fb8 2abd fd18 9e3c 146a 1b3d 30fa b9bd
000003f0: 1636 9fbd 524a 833c 68f2 06bd 7dce 8abb
0.023541989 -0.021158703 -0.04347484 0.029370405 -0.024924198 -0.020150626 -0.035123736 0.020889468
-0.0014296551 0.0007630899 -0.028841931 0.008092978 0.019287385 0.035538785 -0.027880711 0.01782824
0.036909822 0.018160896 0.022437792 -0.048793145 -0.05033993 0.045089707 -0.009016464 -0.028519765
-0.017570497 -0.030966755 -0.03486687 0.0069139823 -0.02945904 -0.0051331418 -0.037162732 0.08396556
0.042955093 -0.023927808 0.07875103 0.01315909 0.014972204 0.055898756 0.001306573 0.0552433
-0.0045527075 0.07149013 -0.0025308868 0.038075473 0.026063895 0.061472528 0.0078001185 -7.2613416e-06
-0.0032071287 0.032298263 -0.0056254785 0.00014630517 0.039133005 0.059139967 -0.019387957 -0.008615183
0.003987848 -0.016482204 -0.031696457 0.0077793705 0.05241593 -0.03840371 0.015312463 -0.028404662
-0.018233975 -0.021609567 0.01726048 0.011456403 0.027509363 -0.03971098 0.036502246 -0.0044909795
0.049267057 0.014818604 0.039060384 -0.039766204 0.02803459 -0.0118310135 0.012995554 -0.022484303
-0.018328113 -0.021462828 -0.010542739 0.02702569 0.07103616 0.00012876524 0.02673635 -0.039962344
0.008970656 -0.0038816107 0.095348 0.06935336 0.035230108 0.008930419 -0.034476478 -0.061794538
0.0050886106 0.007003062 0.032528993 0.046618417 -0.023530196 -0.009479051 0.02176904 0.0029355357
0.0060841595 -0.010318388 0.05705875 -0.0014735449 0.033839177 0.07165197 0.015429635 -0.038919054
0.02948616 -0.02741376 -0.043887205 0.03272235 0.022294987 -0.0044023916 -0.013584297 0.008442825
0.016342888 0.0032237347 -0.010500431 0.06679973 0.025643637 0.038448785 -0.01259374 0.0034986956
-0.0044555203 0.0019938096 0.023810208 -0.035802457 0.00832033 0.023101915 0.049496517 0.0009028479
-0.005866065 -0.027803872 0.022316491 -0.034504425 -0.030932756 0.014641718 -0.011114589 0.005899682
0.01253023 -0.0042245407 -0.038411357 0.0062766313 0.021552056 0.011321073 0.034316897 0.021203786
0.007911577 0.022542004 0.037606046 -0.0016164238 0.01482488 -0.03209779 0.01664557 -0.13910335
-0.086047605 0.03331617 -0.08288118 0.008443366 -0.01284265 -0.055694517 0.052654553 -0.05013339
-0.0067018303 -0.051340662 0.022878654 -0.016321268 -0.05472387 -0.081775084 0.034552407 -0.0061424887
-0.0524012 -0.029819194 0.010479571 0.049374934 0.01477505 -0.033384394 -0.027671589 -0.0053569367
-0.022256417 -0.009172165 0.024823276 0.007777714 -0.010471647 -0.013263072 -0.0023721165 0.015527689
-0.0005067241 0.0029509338 -0.018271208 0.0028259738 -0.014283679 0.05492151 -0.049912214 0.030657489
-0.06307422 -0.017609578 -0.026128028 0.017881028 -0.028078636 -0.034126624 -0.006173248 0.054199144
0.01536863 0.0114355 0.0100815315 -0.024875699 -0.06824167 -0.033831716 -0.046917234 -0.0010325123
-0.00026017672 -0.022894775 -0.10392738 -0.091121085 -0.036793504 0.01429856 -0.0004911474 0.014467322
0.004335753 -0.0023262545 0.0020554306 0.0081088785 0.0013589363 0.04372258 -0.028850121 -0.019077975
-0.014434572 0.0050512124 -0.04763237 -0.010633981 -0.007988408 -0.07909215 -0.016193794 0.0200101
-0.02629075 0.011797469 0.028391918 -0.026338153 -0.0075564687 0.048069555 0.0035094745 0.018580675
-0.041679557 0.019299025 0.03794296 -0.090809226 -0.07773988 0.01602665 -0.03294602 -0.004236041

action_model._discrete_distribution.branches.0.bias f4 [3]
00000000: 5a61 a4bb 3295 023c 45e2 823a
-0.005016488 0.007970141 0.0009985646

action_model._discrete_distribution.branches.1.weight f4 [9, 128]
00000000: f885 513c e03d 8f3c fe0e 8ebc 992d 13bd
00000010: 299b c73c b02d 73bd b07a 223d 726c a43b
00000020: 9a57 fabb 4082 3d3c 6adf 4dbd 99f2 d93d
00000030: 6709 c8bc 0b66 64bd e5ff 51bd 3410 41bd
00000040: a8fa f1bc 659c a83c 2f54 8e3c a56e 75bc
00000050: 3807 1ebd d225 043d 05a9 6f3d ed5c fc3c
00000060: bbfd 503d ebeb 3b3c 93b5 103d a5de 26bb
00000070: a2fd b53c fbcc 343d 811b 1bbc cb45 113d
00000080: a394 72bd c748 c33c 341c b23b 8951 3cbc
00000090: fa18 9f3c e8fb 6bbd d2b9 87bc 3283 41bc
000000a0: b6d9 a3bc f463 353b 6dd6 85bd 963e 143d
000000b0: 1e0c 153d a659 fc3c 8e77 96bc e8b0 03bd
000000c0: a592 403d 25b9 873d f93d c93c 1df2 27bd
000000d0: 4953 2abd 9ddb 27bd 70ed 0b3b 8458 333d
000000e0: 659a a3bc f4c3 953d 1982 333d 49ae 6b3c
000000f0: 153b 4abd 538d 16bc 3feb ed3c 588a 6fbb
00000100: cfae 973c 1fd6 993c c39c a1bd 47ee e5bc
00000110: f52e dabb 1c25 fd3c 1de2 93bd aa3c 0d3d
00000120: 7f39 75bd 012f e5bb ebb6 533c f651 fbbc
00000130: d0d7 283d aab7 353d b229 843d 4cc7 623d
00000140: 8ec0 e1bc f40d 4cbb c0fa 893c 62ad 12bd
00000150: 0b99 63bc a4c5 c1bc b667 2dbd c946 763d
00000160: e3d0 843c b517 3dbc ec4a e23b b0a4 893d
00000170: ea3e 383d 1c06 1fbd bcda ba3c 44d0 6c3c
00000180: 301d b53c 2675 94bd 9e62 76bc a8e0 2ebd
00000190: a9f5 97bc 5dda ff3c 9bbe c2bd 5c93 d539
000001a0: 3009 853d 6bd1 b43c 16eb 38bd 861a 333d
000001b0: 8d53 153d 33a9 fbbc 2dc4 8a3c ce73 e03b
000001c0: 308d 37bd 3b9e c2bc 2117 dbba d8d5 d93c
000001d0: 866a 83bb fd51 71bc f568 5e3c 6ead bebc
000001e0: 3505 46bd e9ee 62bd f51b 09bd 0262 0e3c
000001f0: f313 613d 6615 b1bd 927a a93b 95f9 143c
00000200: 6dd7 dc3c 3dd4 8d3b 44a3 bd3b 1373 a53c
00000210: 9e1a 083d b25e 71bb 2c97 84bc 5e72 b03c
00000220: 5a1d 90bc e35e d2bb c671 d9bc e6f7 e13c
00000230: c1a9 87bd 5ad2 5d3c 817b 043c 3842 3c3d
00000240: 9ce1 e33c a70f 5a3d 3c76 1bbd 44cd 6ebd
00000250: 61ea 1f3b 7be1 ed3c bbf9 8c3c 558d e8bc
00000260: 48a2 0f3d 275f 16bb e8a9 d9bc b382 a6bb
00000270: 4d21 c73c 7131 dd3a e9ab 23bc 2397 acbd
00000280: 701f 2cbd 022b 92bc 13c0 25bc faf4 683c
00000290: 4d47 3fbd 0eaa b3bc 2d01 a1bb 2703 9f3a
000002a0: e2ee 51bd 9272 e7bb 36f5 943c 98d9 8d3d
000002b0: 1f47 10bd 2c8a a3bc a556 0bbd a148 f3bc
000002c0: e20d e33c 6691 883c 1924 c4bb 4b76 613c
000002d0: 1813 04bd 86ac 12bd 664d 3fbc 0a0d e33c
000002e0: c527 87bc 7be2 f63b 5446 2a3c 4862 7fbb
000002f0: f83e 79bc 2acb 253d 0d63 893c 2994 8ebb
00000300: 5200 cd3c 51fc 59bd a3e0 813c 0759 6bbd
00000310: e004 4d3d c1ed 75bc 0b30 91bd eef6 8bbc
00000320: 24cb 7dbc 1d0f 71bc f3b2 77bd c82f b4bc
00000330: 6fe0 a63c 4049 b03c b339 223d 0dde f1bc
00000340: d02b 863c e6b7 2c3d bc1d bebb fb9c a1bc
00000350: 9818 9abc ee02 473b 8744 98bb 77e4 353d
00000360: 8bce 0abd c5d7 72bc 1cab 663a 35d2 95bd
00000370: 1c7a 403d d22b 813d c777 0e3d af31 33bd
00000380: 80db 593d e8cd 2bbc a624 0ebc f197 cbbc
00000390: d88b 3abd 2983 42bd a0b9 93bc 3f93 0c3b
000003a0: 27dd 41bd db5d 0a3c ec33 9ebc f87d 503c
000003b0: 258a 69bd c53b 65bc c5ee f03a a1a5 acbb
000003c0: 8535 a23c 8f56 08bc 73bf ed3c 24f1 e2bc
000003d0: f301 10bd f25b 8dbc aeb6 9dbd 47d1 073d
000003e0: 2ace 073c 174c a83c 6422 493b f668 9bbc
000003f0: deb3 723c b20f 14bc 8b2f bdbc 67c7 9ebc
0.012788288 0.017485559 -0.017341133 -0.035932157 0.024365978 -0.059369743 0.039667785 0.0050178105
-0.0076398375 0.011566699 -0.050261892 0.10641975 -0.024418546 -0.05576138 -0.05126943 -0.047134593
-0.029538468 0.020582387 0.017374126 -0.014979993 -0.038581103 0.03226263 0.0585108 0.03080603
0.051023226 0.011469821 0.035329413 -0.0025462296 0.022215668 0.044140797 -0.009467007 0.03546695
-0.059223782 0.023838414 0.005435491 -0.011494049 0.01942109 -0.057613283 -0.016568098 -0.011811065
-0.020001274 0.0027677985 -0.06535039 0.0361925 0.03638851 0.030804466 -0.018367555 -0.032151133
0.04701485 0.066271104 0.024565684 -0.04100238 -0.041583333 -0.040980924 0.002135124 0.043785587
-0.019971082 0.07312766 0.043825243 0.014384815 -0.04937275 -0.009188968 0.029042838 -0.0036550965
0.018515972 0.018778859 -0.07891228 -0.028067721 -0.0066584297 0.030901484 -0.07220862 0.034481682
-0.059869286 -0.0069941287 0.012922029 -0.03067873 0.04122144 0.04436461 0.06453265 0.055365846
-0.027557638 -0.0031136246 0.0168432 -0.035809882 -0.013891469 -0.023653813 -0.042335235 0.0601261
0.016212886 -0.011541297 0.006905904 0.06720865 0.044981875 -0.038824186 0.022809379 0.014453951
0.022108644 -0.07248907 -0.015038161 -0.042694718 -0.018549757 0.031232053 -0.09509011 0.00040736317
0.06495893 0.022072515 -0.04514607 0.043726467 0.036456633 -0.030720329 0.016939247 0.0068497425
-0.04481238 -0.02375709 -0.0016715267 0.026591226 -0.0040105013 -0.01472902 0.013574828 -0.023276057
-0.04834481 -0.055403624 -0.033473928 0.008690359 0.054950666 -0.086466596 0.005172082 0.009092708
0.026958192 0.0043282793 0.005787285 0.020196473 0.03322851 -0.0036830124 -0.016185366 0.02153891
-0.01759212 -0.006420003 -0.02654351 0.027584027 -0.06624175 0.013538921 0.008086086 0.04596159
0.02781754 0.053237583 -0.037954554 -0.058301225 0.0024401175 0.029038182 0.017208925 -0.028387705
0.035066873 -0.0022944899 -0.026570275 -0.0050814985 0.024307871 0.0016875697 -0.009989717 -0.084272645
-0.04202217 -0.017842773 -0.010116595 0.014218563 -0.046698857 -0.021931674 -0.0049134702 0.0012131677
-0.051253207 -0.0070632184 0.018183332 0.06926268 -0.035224076 -0.019963346 -0.034018178 -0.029697718
0.02771658 0.016670894 -0.0059857485 0.013761113 -0.03224477 -0.035809062 -0.011676168 0.027716178
-0.016498456 0.007534323 0.010392744 -0.0038968492 -0.015212767 0.040476955 0.016770864 -0.004351158
0.025024567 -0.053219143 0.015854185 -0.05745795 0.050053477 -0.015010298 -0.070892416 -0.017085519
-0.015490327 -0.014713076 -0.060473394 -0.02199544 0.02037069 0.021519303 0.039605808 -0.029524827
0.016378313 0.042167567 -0.0058018845 -0.019728174 -0.018810555 0.0030366736 -0.004646841 0.044407334
-0.03388838 -0.014821951 0.0008799301 -0.073154844 0.046991453 0.06307186 0.034782197 -0.043748554
0.053187847 -0.010486104 -0.00867573 -0.024852725 -0.04554352 -0.047488365 -0.018032849 0.002145007
-0.047330048 0.008445228 -0.019311868 0.012725346 -0.05701651 -0.013991301 0.0018381706 -0.005268768
0.01980091 -0.008321418 0.029021954 -0.027702875 -0.03515811 -0.017255757 -0.07700859 0.033158567
0.008288899 0.020544095 0.0030690664 -0.018970948 0.0148133915 -0.009036945 -0.02309396 -0.019382192

action_model._discrete_distribution.branches.1.bias f4 [9]
00000000: 83a4 803b 45a5 c73c 713f 39bc 6642 dd3c
00000010: 6386 6b3c 64ec 9abc 901d 7ebc f7a1 a839
00000020: 2385 25bb
0.0039258613 0.024370799 -0.0113066295 0.0270092 0.014375302 -0.018911548 -0.015509978 0.0003216413
-0.0025256358

action_model._discrete_distribution.branches.2.weight f4 [225, 128]
00000000: 834f 183d 350c 03bc e7cc bc3c 8803 a5bb
00000010: bea8 e8bb c6be e1bc 0165 d43c b111 133d
00000020: 3a02 833d 4dd3 5cbd 39dc 3ebd f29a 13bd
00000030: 8a68 0a3c e6ef 8e3d 13d0 38bd 558b 21bd
00000040: 80bd 5838 23ca a73c fa16 9f3c 2e36 ad3c
00000050: 3481 b03c f098 97b9 0720 5abc b47e 1dbd
00000060: 27eb 1f3b 10ef ca3a a189 80bc 6a62 62bc
00000070: 295b 623c d3e3 ff3c 0710 a238 6f9a 38bd
00000080: b0ea 39bd 21ef fc3c 9aaf 01bd f033 263d
00000090: 9fc3 c93c 513f acbd ecb1 e13c 8347 be3b
000000a0: 0619 393b 2685 adbd 3c51 abbc 885e cb3c
000000b0: 4eae 85bd 3127 74bd 4547 fc3b 9414 dabc
000000c0: ac99 5dbd e904 1ebd 8eb2 73bd 2843 e1bc
000000d0: c741 03bc f786 7dbd 8b02 07bd 4b56 a1bc
000000e0: 4363 3cbc 79c5 33bc 558f 9dbc d06a b73b
000000f0: 268e abbc dc26 ccbc 64cc 743b 8fe7 983c
00000100: b08e 0abc a4fd 3d3c 76e6 84bc 4315 91bd
00000110: 1045 3a3d ac93 0ebc 58cc 0fbb e0b9 3cbd
00000120: 600d 873c 4e1d d1bc 49bf cb3c a35b 163c
00000130: 4333 5dbc c827 13bd 7f55 17bc ade7 85bc
00000140: 2eb2 28bc 50a4 46bd 51a3 6c3b 6deb 103c
00000150: 8a2e f2bc 1ce9 a4bc f631 29bc 25f9 873c
00000160: 19ad c53c 8842 b4bb 15de 013c 30d4 73bc
00000170: 8dab 3dbd 9040 59bb a051 893c 9100 33bd
00000180: fe9e 81bc 23b4 1ebd 1f1c be3a 9d82 903d
00000190: 6d84 d83b fe00 8c3d 5a0a 10bd 570c 933c
000001a0: cc50 b1bb b6fe 3bbc 4d96 70bd 4d25 68bc
000001b0: 4a1e 9dbc ae2f 90bd aeba bdbc ea3a 9cbb
000001c0: 617c 19bd a359 50bd 778d 0ebc 5fc1 69bd
000001d0: 6238 90bd f27f 303d e1e2 a3bb 9d8d ddbc
000001e0: 55b5 173d 1af7 6c3c c3a2 033d b467 abbd
000001f0: 9b41 8fbd 0819 8ebd befd d3bc 5093 00bc
00000200: 6cad c53b 86e1 92bc 0ca0 f9bc cfc7 60bd
00000210: 7201 b6bd 8d1a d6bc 9504 a93c 63cd 7abb
00000220: 7056 2d3c 662b 2abd b211 e6bc 3e5b 03bc
00000230: 76eb 313d 7b0e bb3c 1ddd 353c 299b 483c
00000240: b5c8 14bd c33b 013d d7c1 173d 6aaf a7bd
00000250: 988e 9e3b b519 edbc f3f8 933c f015 5ebd
00000260: 4e29 b5bb af9b 183c a426 10bd e423 30bd
00000270: aa8e abbc d44a 4bbd 5475 483c 0b2e 9b3c
00000280: 2dd0 ab3c d963 c8bc adaa deba ea03 203d
00000290: d183 43bc 32fa 49bb 0112 c0bc c1a1 7abd
000002a0: a445 8a3c 019f f6bb ffc8 48bc c473 bc3c
000002b0: fe74 313d 4b09 4c3d d4e0 0b3d 83df 31bb
000002c0: 0b18 023d 66d8 7d3b bea5 a13b fae7 043c
000002d0: 82fa 973a 53db ca3c 389b c7bb b342 8fbd
000002e0: 3659 b1ba 735b afbc 82c6 4f3d d068 e9bb
000002f0: 4c8d 23bd d6b8 673d b239 e13b f669 51bd
00000300: a085 b23b 3b0a 483d f3a6 e23b f4e8 bf3c
00000310: 19eb 4abc 71b5 16bb c243 82bc 0df3 3bba
00000320: 723f b93c c3e8 863c e69f 8abd 3e30 9a3c
00000330: 4270 18bc 4b7b 35bd 2d0e 2f3c 40f5 d0bc
00000340: 29ef f3bc 4a29 40bc 0a74 bd3c 1a4f 3ab9
00000350: d45b 933c 06c6 5d3c b7ea 643d 0351 d3bc
00000360: 36fb 263d c67b fabc 69af fd3c aa11 943c
00000370: c3c3 16bd a245 ec3a e36c 893c 8305 fdbc
00000380: 2e8b bbbc 0b7e 013d eb56 8d3b b7d7 eabc
00000390: 4d0f 553c 833c 673d 3315 07bc e0bf 213d
000003a0: c70a 6abc 8e70 1a3d 2b89 86bb db86 4abc
000003b0: dec9 95bd 0bbd d13c 507e 0e3d e281 353c
000003c0: 6dbe 34bc ee40 083d 6069 983d 99fd 113d
000003d0: d8bc 963c 11c2 a53d 4da6 28bd 37fc 503d
000003e0: f01a 943d 763f 21bd ab1f 613c 7b2b e7bb
000003f0: 948d c43b ac39 eabc 7ef2 80bc 6c57 8dbc
0.037185203 -0.007998516 0.023046924 -0.0050358213 -0.0071001938 -0.027556788 0.025927069 0.035905544
0.06396909 -0.05391245 -0.04659674 -0.03603644 0.008447776 0.06979351 -0.04512031 -0.039439518
5.16749e-05 0.020482128 0.019420136 0.021143999 0.021545984 -0.00028914912 -0.0133133 -0.03845091
0.0024401636 0.0015482623 -0.015690627 -0.013817409 0.01381568 0.031236565 7.727747e-05 -0.045069154
-0.04538983 0.030875744 -0.031661607 0.040576875 0.024629412 -0.08410514 0.02755066 0.0058068647
0.0028243675 -0.08472662 -0.020912759 0.02482535 -0.065273866 -0.05960769 0.0076989257 -0.02662114
-0.05410163 -0.0385789 -0.059496455 -0.027497843 -0.008011288 -0.06189629 -0.03296141 -0.019694468
-0.011498275 -0.010972374 -0.019233385 0.00559745 -0.020941805 -0.024920873 0.0037353272 0.018665103
-0.008456871 0.011596117 -0.016223174 -0.070841335 0.04547602 -0.0087022 -0.0021941867 -0.0460757
0.01648587 -0.025526669 0.024871485 0.009177121 -0.013500991 -0.03592661 -0.009236692 -0.016345823
-0.010296388 -0.048496544 0.0036108086 0.008845192 -0.029563207 -0.020130686 -0.010326853 0.016598294
0.024130391 -0.005501095 0.007926484 -0.014882132 -0.04630618 -0.0033150055 0.016762555 -0.043701712
-0.015822884 -0.03874601 0.001450423 0.070561625 0.0066075833 0.06836127 -0.035166122 0.01795022
-0.005411243 -0.011474302 -0.058737088 -0.014169049 -0.019179482 -0.07040344 -0.023160305 -0.0047677653
-0.037472133 -0.050866734 -0.00870072 -0.05706918 -0.07042004 0.04309077 -0.0050014113 -0.027045066
0.037038166 0.0144632105 0.032137644 -0.08369389 -0.06994935 -0.06938368 -0.02587783 -0.007847622
0.0060326364 -0.017929804 -0.030471824 -0.054878052 -0.088869944 -0.026135707 0.020632068 -0.0038269393
0.01057969 -0.041545294 -0.02808461 -0.008017359 0.043437444 0.022834053 0.011100081 0.012244024
-0.03632422 0.031551134 0.037050094 -0.081877545 0.004838776 -0.028942922 0.018063044 -0.05422014
-0.0055286055 0.009314462 -0.0351931 -0.043002978 -0.020942051 -0.04963191 0.012235004 0.018942853
0.02097329 -0.024461674 -0.0016988121 0.039066233 -0.011933283 -0.0030819294 -0.023446085 -0.061189417
0.01687891 -0.007526279 -0.012254952 0.02300442 0.043324463 0.04981355 0.03414996 -0.002714128
0.03176121 0.003873372 0.004933088 0.008111948 0.0011595043 0.024762785 -0.0060915016 -0.06995144
-0.0013530615 -0.021405911 0.05072642 -0.0071230903 -0.039929673 0.056572758 0.006873333 -0.051126443
0.0054480582 0.04883788 0.0069168746 0.02342651 -0.012385153 -0.002299633 -0.01590145 -0.0007169701
0.02261326 0.016468411 -0.067687795 0.018821832 -0.009304108 -0.044307034 0.010684532 -0.02550757
-0.029777126 -0.011728594 0.02312662 -0.0001776781 0.017988123 0.013535982 0.055887904 -0.025795465
0.040766917 -0.030576598 0.030967431 0.01807483 -0.036807787 0.0018026123 0.016775554 -0.030886417
-0.022893514 0.031614345 0.00431334 -0.028667314 0.013004136 0.056454193 -0.0082448 0.039489627
-0.014284796 0.037704997 -0.004105707 -0.012361254 -0.07313894 0.025602838 0.03478843 0.01107833
-0.011031729 0.033265047 0.07441974 0.03564224 0.018400595 0.08093656 -0.04117422 0.05102178
0.072317004 -0.03936716 0.01374046 -0.007054744 0.0059983227 -0.028591953 -0.01574063 -0.0172536

action_model._discrete_distribution.branches.2.bias f4 [225]
00000000: 8188 41bc 6966 edbc e200 863b 22e3 08bd
00000010: 4d39 2c3c 9716 95bc 6c1d d03c 4777 02bc
00000020: e3a2 8cbb a8d2 dabc d7f6 033c 8445 013d
00000030: b00c 8f3c 4ed2 c73c 9f80 84bc d5a0 443c
00000040: 0736 c2bb 90ab d2bb e448 083c 9b87 923c
00000050: 5dae 1ebc d12b e03c f0d6 edbc b4be 803c
00000060: a547 a0bc 8f9d 9bbc ecb0 b73c c1a3 34b9
00000070: ae5d 943c 76e4 1d3c 5922 143c 2399 09bd
00000080: c744 1c3d c08d ad3c aa3b 223d 8ea2 65ba
00000090: 03f1 42bc 3b57 1c3c e047 a4bc a645 a73b
000000a0: 1cbe 14bc 5f07 943c 13fd 193c f1ff 533b
000000b0: a44c 1238 e58a 4b3c d59a 1c3c e1d1 743c
000000c0: 3de8 92bb d8b6 f03c fce6 7e3b bda8 3e3d
000000d0: 7d1b 45bc 4324 81bc 81bc 06bc 6b76 eabb
000000e0: 1d05 01bc e002 a23c 3ce1 c8bc 6890 98bb
000000f0: b9a0 593c 2156 2f3d 63f9 b33c 9494 18bc
00000100: 6f50 24bc b21f 61bc bd39 063c 5604 a2bb
00000110: ae1c 143b a8fe 923c 38e7 1bbc 3286 b0ba
00000120: dd7f 2c3d 67a1 683c 8392 b7ba 6ed4 fb3c
00000130: b7b9 33bc 3ba4 533b 3070 f2bb a7f9 6f3c
00000140: 0fd5 c03c a2b1 a33c 6808 143d e15f 30bb
00000150: 1a2c f3bb 695e 0a3c 05ca 8e3b 305f 19bc
00000160: 60cf 4abb de81 223c 89f1 6a3c 6952 0a3c
00000170: 9dcb 823b f177 2abb cd1f a03c 434e 89bc
00000180: 6735 5dbc 218f dd3c 075b 90bc b8c2 e13c
00000190: debb ef3b 544b f53c ddfd 023c 8f09 723c
000001a0: 0c5e 633c 75e2 753c dcdd 393c ccb0 cb3c
000001b0: 4e60 c73c d480 a33b 1a30 a2bb fee2 b1bc
000001c0: 8533 0e3d 6206 993c 527f 5e3d 1a7b cebc
000001d0: 0c0c 03bb 9949 f43c a204 f13c 43ce 103c
000001e0: c7a7 153d a8d5 363d 7564 833d aa52 fbbc
000001f0: a5fe 213d e56f 2e3b f764 1bbb 0016 273c
00000200: f2ef 2b3d cd07 c13c 196d 153c 1f02 e83c
00000210: b929 38bb 9dc6 81bc c082 1fbd 16b8 f6bc
00000220: fa24 143c b349 0a3d e80c 7dbc 6127 263d
00000230: 9f07 733b 8aa6 f43b df97 123c efc7 c73c
00000240: 11b4 6a3c e64b fb3c 057b eebc 158f 21bd
00000250: cea3 7ebc f786 9fbc b25c 76bc 5ae7 253b
00000260: f894 253d cc3f 663d 05a3 82bc d065 503c
00000270: dea4 a43c 9af4 fbbb 053e 7dbb 65d4 00bd
00000280: ee55 afbb a5d4 fd3b 2a25 1f3b b88a 9c3c
00000290: 8c21 6fbc 29ce 973b fd05 98bc 620a dd3b
000002a0: 3820 903a 887a fd3c 0f8f b13c 260a 66ba
000002b0: 2081 d0bb cee3 003d f2eb 413d 1966 95bc
000002c0: 75cb 16bc 1324 c63c cf38 6bbc d5e3 c9bc
000002d0: 74b0 f0bc 06a0 9e3c b516 87bc 8e9d f4bb
000002e0: b31f caba 59de 82bc bf6a 873c e926 3e3c
000002f0: eb4b babb 1dd9 193c aa35 0d3b 7e73 783c
00000300: 7fe4 2b3c 2099 093c b3fa 67bb 8e11 22bd
00000310: ecd2 d23c a454 a33b 346d 093d 6d8a 8ebc
00000320: b1e6 b43c eb95 983b 0585 f83c 34f4 0bbd
00000330: bc63 96bb 6e0a 3d3d 9a84 e13b bfde d0bb
00000340: 1e42 cabc ebcf d3bc 9652 8fbc b345 193b
00000350: 0924 d73c d822 ebbb 6c41 953c b45f 74bc
00000360: 04ec 853c e362 acbb e6c9 383d 1a13 80bc
00000370: d0f6 36bd 6e40 4ebc 0223 ce3a 2def 213a
00000380: 6084 debb
-0.01181233 -0.028979497 0.0040894607 -0.033419736 0.010511708 -0.018199248 0.025404654 -0.007963008
-0.0042918785 -0.026711777 0.008054457 0.031560436 0.017462105 0.024392273 -0.016174613 0.012001236
-0.0059268507 -0.0064291432 0.00831816 0.017886927 -0.009685126 0.027364643 -0.029033154 0.015715934
-0.019565413 -0.018996028 0.02242323 -0.00017227141 0.018111076 0.009636989 0.009041392 -0.03359331
0.03815153 0.021185756 0.03960768 -0.0008759879 -0.011898282 0.009542282 -0.020053804 0.0051047383
-0.009078529 0.018069921 0.0093987165 0.0032348598 3.488049e-05 0.012423252 0.009558399 0.014942617
-0.0044832514 0.029384062 0.0038895002 0.04654764 -0.0120304795 -0.015764361 -0.008223654 -0.00715523
-0.007874754 0.019776762 -0.024521463 -0.0046558864 0.013282948 0.04280675 0.021969503 -0.009312768
-0.0100289425 -0.013740467 0.008192477 -0.0049443645 0.0022600102 0.017943695 -0.009515576 -0.0013467728
0.042114127 0.014198638 -0.0014005456 0.030740943 -0.010969571 0.0032293934 -0.0073986277 0.014646924
0.023539094 0.019982163 0.03614083 -0.0026912617 -0.007421029 0.008445361 0.0043575787 -0.009361073
-0.003094636 0.009918658 0.014339813 0.0084425 0.0039915578 -0.0026011432 0.019546414 -0.01676095
-0.013501502 0.027045788 -0.01762153 0.02755867 0.0073160967 0.029943146 0.007995096 0.014772787
0.013877403 0.015007605 0.011344399 0.024864577 0.024337914 0.0049897227 -0.004949582 -0.021714684
0.0347171 0.018679801 0.05432064 -0.025205184 -0.0019996194 0.02982025 0.029421154 0.008838239
0.036536958 0.044637352 0.06415645 -0.030679066 0.03954949 0.0026616987 -0.0023711303 0.010198116
0.041976877 0.02356329 0.009120249 0.028321324 -0.002810104 -0.015841777 -0.038943052 -0.030117076
0.009042019 0.03376169 -0.015444972 0.0405649 0.00370834 0.007466142 0.008947342 0.024387328
0.014325158 0.03067584 -0.029111395 -0.039443094 -0.015541984 -0.019473536 -0.015036749 0.0025314898
0.04042527 0.056213185 -0.015946874 0.0127195865 0.020098146 -0.007689071 -0.0038641703 -0.031452555
-0.00535082 0.0077462965 0.0024283626 0.019109115 -0.014595401 0.0046327305 -0.018557543 0.0067456225
0.001099593 0.030942217 0.021674661 -0.0008775316 -0.006363049 0.03146725 0.047344156 -0.01823716
-0.009203781 0.024187123 -0.014356806 -0.024644772 -0.029381014 0.019363414 -0.01649032 -0.007465071
-0.0015420824 -0.015975164 0.016530393 0.011605957 -0.0056853197 0.009390143 0.002154688 0.015164254
0.010491489 0.008398324 -0.003539723 -0.039567523 0.025735341 0.004984455 0.03355141 -0.01739999
0.022082658 0.0046565435 0.030336866 -0.034168437 -0.004589526 0.046152525 0.0068822624 -0.0063742097
-0.02468973 -0.025855979 -0.017495435 0.0023387491 0.0262623 -0.0071757846 0.018219672 -0.0149153955
0.016347893 -0.0052608117 0.04511442 -0.015634108 -0.044668972 -0.012588603 0.0015726986 0.00061773026
-0.0067906827
