Unity/RL-Framework/Assets/ML-Agents/Models/Experiment_5/DefenderBehavior.onnx (onnx, 327093 bytes, 13 tensors)

discrete_act_size_vector f4 [1, 3]
00000000: 0000 4040 0000 1041 0000 6143
3.0 9.0 225.0

network_body.observation_encoder.processors.0.normalizer.running_mean f4 [246]
00000000: d1c7 9b3f 1d16 cc3f fa01 a53f f631 b03f
00000010: 5c4c 9e3f 91ce 0340 114c a53f 4210 ad3f
00000020: ed76 9e3f 6267 ab3f 3032 eb3f ad34 9b3f
00000030: 6813 983f c93b b33f 6d0f c13f 0b7c 983f
00000040: ac72 a53f 2d28 bb3f fd7d d93f 42c1 d23f
00000050: 59e7 d63f 10f2 d03f cb81 d13f 4469 d23f
00000060: 3948 d33f 84d9 e83f 6da1 f63f 3993 de3f
00000070: 1799 2040 eb4a 9b3f bf57 a83f 96dc ab3f
00000080: e978 c13f 1f74 c13f ca81 bf3f 5cbe 0340
00000090: adf5 da3f ba6f ce3f 55fe ba3f 636f c13f
000000a0: 4cd2 d63f c3a9 e13f 35f6 bb3f f088 c33f
000000b0: e98a 973f 18dd a73f 12b7 a73f 4f7e cb3f
000000c0: f52f cc3f 6d19 cd3f ea45 dc3f 53ca f03f
000000d0: dc9b ce3f b138 ed3f 9d15 1b40 dc35 1040
000000e0: d165 ec3f 7c9f c83f d9e3 a43f ed41 943f
000000f0: 8f8f ab3f c4c6 e83f c883 df3f 887e c53f
00000100: b034 db3f 8f2c c93f 704e c93f 9614 da3f
00000110: 39bf c63f 1712 c13f 385c c53f 631b d33f
00000120: 6474 bd3f 6372 0440 b467 ca3f 1af3 1740
00000130: 3f0b 9b3f 1c43 ba3f fba5 df3f bbe9 bf3f
00000140: 6a74 bd3f ff09 c03f bdae d03f 82d6 ce3f
00000150: 0086 cd3f 5e53 d13f 5090 be3f 5b0a bf3f
00000160: f3af c43f 4d9b b63f 1d09 b53f 2aee 0d40
00000170: dca0 0240 31c3 2f40 fe8e c93f d188 bb3f
00000180: 427e c73f 49ed c93f 1b40 dc3f 9276 c93f
00000190: 6830 df3f ab2f d33f d50c e93f 6c34 b43f
000001a0: c4a5 a93f c388 5240 d4fe 3f40 1a6f fb3f
000001b0: 41bb f63f 59dd d03f a532 ca3f 1c6f f43f
000001c0: b150 d13f 4c67 eb3f b623 1640 9d6c bf3f
000001d0: ff5c 0740 fe1b bd3f b382 a53f 3181 a13f
000001e0: a781 6740 a5fe ff3f 7d42 3c40 22af 3f40
000001f0: f318 ca3f 6fce fb3f f250 bc3f 1d99 e13f
00000200: 7ef2 c03f eb08 c03f b363 d13f b070 1a40
00000210: fc49 cc3f b7da d43f d1cd aa3f 22ed 5e40
00000220: 0479 fc3f 7c50 0b40 d68c 2440 fe8f 3740
00000230: 4d71 f43f e53b e03f 668f c13f 7cf8 e83f
00000240: edd6 f43f 493d cd3f 15fb c43f e825 bb3f
00000250: d69a c53f 44bd d03f 34e0 9c40 a39e fe3f
00000260: 68d3 3440 6ce4 f23f b396 d23f 7a3e ca3f
00000270: 3dc3 0c40 564e f63f 2da0 d13f fd67 c73f
00000280: abd2 fe3f 2c9d 1b40 ec2c df3f 1c1d b33f
00000290: 6cb4 a73f 7984 9340 1e22 f53f 5e81 c93f
000002a0: c170 c73f bde1 c23f 735c d13f fa44 cd3f
000002b0: cd0e d03f c837 ca3f bd3a d73f 7448 bd3f
000002c0: 3e9b d73f 4a5d bd3f c430 2640 6e9a ad3f
000002d0: a43d 6f40 6aa2 f13f f0d2 0140 87a6 c43f
000002e0: 3d46 d63f 8bcb b83f cd7c c93f fdf9 bf3f
000002f0: 0eb3 e33f 33d4 1940 6f48 d23f 8d30 cc3f
00000300: d2cb 1140 e4b1 e43f cce4 af3f bd0d fb3f
00000310: 250e f23f 0627 0040 7767 0640 9d1b f43f
00000320: b973 d23f 96f8 cb3f c1f2 0540 72d8 cb3f
00000330: 8322 df3f 7c0d d13f 3eae d73f 34e3 d53f
00000340: 6e76 0940 1452 913f b26e c43f 36b7 2840
00000350: 8dc9 5740 3684 a13f edd4 0d40 5130 ce3f
00000360: 490a a33f 40c9 a93f 00c7 0140 ff1d a93f
00000370: af87 bc3f 43e8 ad3f fad7 ed3f 0370 cd3f
00000380: cc8e ae3f b823 143f 0dcf 523e 6425 693e
00000390: 3db7 f43f 8760 cd3e 17f3 563f 51d8 783e
000003a0: 1da7 723e b4f5 983e 7147 293f 17eb 523f
000003b0: 30d5 3a3f 8aad 403f f421 953e 08b7 dd3e
000003c0: eb21 a63d 3062 b33d 9b76 c23d ebf4 b13c
000003d0: 5d5e 013d d909 193f
1.2170354 1.5944248 1.2891228 1.3765247 1.2367053 2.0594828 1.2913839 1.3520586
1.2380043 1.3390925 1.8374691 1.212545 1.1880922 1.400262 1.5082833 1.1912855
1.292562 1.4621636 1.6991574 1.6465228 1.6789352 1.6323872 1.6367735 1.6438375
1.6506416 1.819138 1.9268013 1.7388679 2.5093439 1.2132238 1.3151778 1.3426692
1.5115024 1.5113562 1.4961483 2.0584936 1.7106224 1.6127846 1.4608866 1.5112118
1.6782928 1.7629932 1.4684511 1.5276165 1.1839267 1.3114347 1.3102744 1.5897921
1.5952135 1.6023384 1.7208836 1.8811744 1.6141315 1.8532926 2.4231942 2.2532873
1.8468572 1.5673671 1.2882034 1.1582619 1.3403186 1.8185658 1.7462091 1.5429239
1.7125454 1.5716723 1.5727062 1.7037532 1.5527107 1.5083646 1.5418768 1.6492733
1.4801145 2.0694816 1.5812898 2.3742127 1.2112807 1.455173 1.7472528 1.4993204
1.4801152 1.500305 1.6303326 1.6159213 1.6056519 1.6353567 1.4887791 1.4925035
1.5366195 1.4266144 1.4143406 2.2176614 2.041068 2.7462885 1.5746763 1.4651128
1.5585406 1.5775539 1.7207063 1.573931 1.7436647 1.6498922 1.8207041 1.4078498
1.3253713 3.2895973 2.9999285 1.964328 1.9275895 1.631755 1.5796705 1.9096408
1.635275 1.8390899 2.3459296 1.4955021 2.115051 1.4774168 1.2930511 1.2617551
3.6172884 1.9999586 2.9415581 2.9950643 1.5788864 1.9672374 1.4712203 1.7624851
1.5074003 1.5002722 1.6358551 2.413128 1.5960078 1.6629246 1.334406 3.4832234
1.9724431 2.1767874 2.571096 2.8681636 1.9097077 1.7518278 1.5121887 1.8200831
1.912809 1.6034328 1.5389124 1.4620943 1.5437877 1.6307759 4.9023685 1.9892162
2.8254032 1.8975959 1.645224 1.5800316 2.1994164 1.9242656 1.6377007 1.557861
1.9908041 2.431468 1.7435584 1.3993258 1.3101935 4.609921 1.9151037 1.5742605
1.5581285 1.522514 1.6356338 1.6036675 1.6254517 1.5798273 1.68148 1.4787736
1.6844251 1.4794095 2.5967264 1.3562753 3.7381372 1.887769 2.0284996 1.536332
1.6740185 1.4437116 1.5741211 1.4998165 1.7789018 2.4035766 1.6428355 1.5952317
2.2780652 1.7866788 1.3741698 1.9613568 1.8910567 2.0023818 2.100065 1.9070927
1.6441566 1.5935237 2.0929415 1.5925429 1.7432407 1.633224 1.685005 1.6709962
2.1478534 1.1353173 1.5346282 2.6361823 3.3716767 1.2618473 2.216121 1.6108495
1.2737514 1.3264542 2.027771 1.3212279 1.4728907 1.3586506 1.8581536 1.6049808
1.3637328 0.57867 0.20586796 0.2276817 1.911842 0.40112707 0.83964676 0.24301268
0.23696561 0.29874957 0.66124636 0.8238997 0.7298155 0.752648 0.29127467 0.43303704
0.08111938 0.08758962 0.094952784 0.021723231 0.031584132 0.5978065

network_body._body_endoder.seq_layers.0.weight f4 [128, 246]
00000000: c4af adbd 3176 f93b a23f c5bc 45b9 50bc
00000010: 5078 2f3d 7479 18bd f98b 9abd cd4e 83bd
00000020: 5f1b cd3d ef9e 113e 78e6 babb 9a5f 6a3d
00000030: 4267 2b3d b480 e838 1c12 233d e891 c3bc
00000040: 6089 a63d 4643 23bc b241 173e 0743 a93b
00000050: c740 f3bd d2bb 13bc fccf f4bd 8796 ff3c
00000060: b20c 463d 9755 64bc 3333 22bd 97be 35be
00000070: 9ad0 04bd 39de 9dbb add5 9ebd 1062 dbbb
00000080: 7c60 e2bd 80ff 823d 72b5 e7bd 9252 703d
00000090: 539e 5db9 38bf 0b3d 4dd4 85bd 98cf a53c
000000a0: 0dfe 043e 46fb 963d a42f b43c f0a0 2a3e
000000b0: e587 b63b 96db 9dbd a834 e23d 6914 42bd
000000c0: c5b8 dcbd 22e1 99bd 2716 95bc d6b6 07bd
000000d0: c5ac 8a3d 8394 0dbe af4e ccbd 1029 5cbc
000000e0: d36b e0bd f318 ea3c 4743 8a3d c2aa a63d
000000f0: 4295 17bc 5462 543d 12e6 7f3c 200f c73d
00000100: b3a0 6c3c e4a5 39bd d5ca 693d 4c2a e7bd
00000110: 55eb 17bd 33ea 363e 6029 07be f1da a23c
00000120: 83e9 c1bb 8a0f 323d 6f7a d03d b9c2 813d
00000130: da2c b63d 1a37 99bd e038 b9bd 1b3d c23d
00000140: c7bf fd3d e968 d7bc 5e6b cbbd c43d 1c3d
00000150: 7990 9abc e583 0dbc 7b69 c5bd 8daa 4ebc
00000160: feb7 9a3b 59e8 97bd 1318 39be 2286 22bc
00000170: 85b7 c9bd 065c 263e 4940 aebd e69f 993d
00000180: cd5f 563e 3c1f 4bbd adcc 1fbd d6e0 9cbc
00000190: a09f fa3d 0bcd acbb fce9 60bc 9a11 8c3c
000001a0: 4612 90bd a2b3 cc3d 8083 d53b 6e54 5bbd
000001b0: 46b9 253d 6155 983d 5d72 373d fa6d 1fbe
000001c0: 98d2 b53d d5a2 8c3d 116b ab3c 67f6 10be
000001d0: 6928 863d 0172 14bd 62cb a33b 9143 7ebd
000001e0: 4c6d 133d e94f 2b3d f247 6dbc ac92 5c3d
000001f0: ea9e 553c acb9 7cbd 0b17 72bd dd15 1b3d
00000200: 38e0 9a3d 8169 123d a5f6 203d 98c2 3e3d
00000210: 276b 2d3c bb59 edbd 214a b5bd 0652 c53d
00000220: d5e8 1bbd 481d 85bd ac2b 50bd 818f 8bbc
00000230: b7e4 323d fb78 90bd a4b6 f73d 9395 2ebe
00000240: 4bf8 753c 6554 ce3d 3388 e1bd 404f e93c
00000250: 2b2c 673d b8cd 97bd 94fe a4bd bbec ddbc
00000260: 3a08 90bd 5203 ba3d 6d44 35bc 8c5b b03b
00000270: 4448 b83d a901 87bb 24b2 873d a565 7bbd
00000280: eec5 87bc 7aa9 ddbd 6493 513d 95a8 b3bd
00000290: 19ac 7fbd f43f a23c ce84 36bd 36d6 83bd
000002a0: 4000 423d 1728 393d 869d f8bc ab7d 81bd
000002b0: 1c41 8e3d 6cdf b1bd ca4e 16bd a465 dabc
000002c0: 58ff 19bd 758f e63d c28b e13d f1fe 9d3b
000002d0: 97fe 073d b7c8 ebbc 1ff7 42bb c958 e8bd
000002e0: de0b fc3d dbea ad3d 5ebf f0bd b42d 1e3e
000002f0: 528a 31bd 0927 d03c 9708 ca3b 619e 39bc
00000300: 33c9 10bd daab 6cbc d665 e03b 58f4 52bd
00000310: 44bf 983d b3bf b7bd 8666 07bd 7177 d1bc
00000320: 08d5 023d f4b7 64bd 6182 b13d b563 b0bc
00000330: 9ccc 163d d6cd 84bd 2676 db3d 2dd7 ba3c
00000340: 2625 eabc 2657 94bd b141 f23d 25ec c63d
00000350: 8c8a b3bd 9e56 8d3b bb8d 97bd 2a5d b33d
00000360: f3d3 0cbd c3bf 533c 9593 3d3d 1c3c e83d
00000370: ffd9 273c bb3d 1cbb 670b 71bd 39a3 6a3d
00000380: fcfe f6bc fcf8 e2bc 3b2a f03a 1417 a33c
00000390: e936 60bb 0810 acbc dd31 9a3d 4e5b 43bd
000003a0: f280 84bd 6c6b 6bbd 28a6 2bbd 0a21 083d
000003b0: 8f17 08bd bab3 213d cbfb debd 743c e6bc
000003c0: e36f 803c c5f0 913d e973 43bd 59d8 c13e
000003d0: db66 96bb e9e2 1dbe c757 913c 909c 3c3c
000003e0: 857b 0a3e 70f6 943d 82eb 023e 5320 7ebd
000003f0: ba3a fd3d e904 cfbd 7f7b 843c 741b 12bd
-0.0848079 0.0076129665 -0.024078194 -0.012739484 0.04283935 -0.0372252 -0.07546229 -0.064115144
0.10014986 0.14220785 -0.0057037435 0.05722008 0.04184652 0.00011086595 0.039812192 -0.023873284
0.08131671 -0.00996477 0.14771155 0.005165461 -0.1187759 -0.009016948 -0.11953732 0.031199707
0.04835195 -0.013936422 -0.03959961 -0.17748486 -0.0324255 -0.004817751 -0.07755599 -0.0066950396
-0.11053559 0.06396389 -0.11313905 0.058672495 -0.00021135183 0.034117907 -0.06534634 0.02024059
0.12987538 0.07372145 0.021995373 0.16662955 0.005570399 -0.07707898 0.110452 -0.047382746
-0.107774295 -0.07513644 -0.01819904 -0.03313335 0.067712344 -0.13826184 -0.09975945 -0.013437524
-0.10958066 0.02857635 0.067511134 0.08138038 -0.009251894 0.051851586 0.015618818 0.09719682
0.014442611 -0.04532422 0.0570782 -0.11287364 -0.037089664 0.17862777 -0.13199377 0.01987979
-0.0059177293 0.04347185 0.10179602 0.063359685 0.088952735 -0.07481213 -0.09044051 0.09484311
0.12390094 -0.026295142 -0.09932588 0.03814484 -0.018867718 -0.008637403 -0.096392594 -0.012613905
0.0047216406 -0.07417364 -0.1807559 -0.009919675 -0.09849457 0.16246042 -0.08508355 0.07501201
0.20934983 -0.049590334 -0.039013553 -0.019150179 0.12237477 -0.0052734665 -0.013727661 0.017098237
-0.070347354 0.099952 0.00651592 -0.053547315 0.040459894 0.0743816 0.0447868 -0.15569296
0.08878058 0.06866995 0.020925077 -0.14156495 0.065506764 -0.036241535 0.0049986104 -0.062076155
0.035992905 0.041824255 -0.014482485 0.053850815 0.013038376 -0.061700508 -0.059104007 0.037862647
0.075622976 0.035745148 0.03929772 0.046572298 0.010584629 -0.1158938 -0.088520296 0.09634785
-0.038063843 -0.064997256 -0.0508229 -0.017036201 0.04367515 -0.07054325 0.12095383 -0.17049246
0.015012811 0.10074691 -0.11012306 0.028480172 0.056438606 -0.074122846 -0.080563694 -0.027090421
-0.07032819 0.090826645 -0.011063677 0.005382007 0.089981586 -0.004120071 0.066257745 -0.061376233
-0.016573872 -0.10823341 0.051165953 -0.08772389 -0.062419984 0.019805886 -0.044560246 -0.06437342
0.04736352 0.04520425 -0.03034855 -0.063227974 0.069460124 -0.086851925 -0.036696233 -0.026659794
-0.03759703 0.11257831 0.11012985 0.004821651 0.03320178 -0.028782232 -0.0029749346 -0.113450594
0.12306951 0.08492061 -0.117552504 0.15447122 -0.043344803 0.025409238 0.006165575 -0.011329264
-0.03534813 -0.0144452695 0.0068480773 -0.051502556 0.07458356 -0.089721106 -0.03305676 -0.02556965
0.031941444 -0.055839494 0.08667446 -0.021531919 0.036816224 -0.064845726 0.107158944 0.022807682
-0.028582167 -0.07243185 0.11828936 0.0971301 -0.0876666 0.004313304 -0.0740008 0.08758004
-0.034381818 0.0129241375 0.046283323 0.1133959 0.010244845 -0.0023840505 -0.058848765 0.057284568
-0.030150883 -0.027706616 0.0018323133 0.019908465 -0.0034212417 -0.021003738 0.07529042 -0.047694497
-0.06469907 -0.057475492 -0.041906506 0.033234634 -0.033225592 0.03947804 -0.108878694 -0.028104998
0.015678352 0.07126001 -0.047717962 0.37860373 -0.004589898 -0.1541859 0.01774205 0.011511937
0.13523681 0.07273567 0.12785152 -0.062042546 0.12364717 -0.101083584 0.016172169 -0.035670713

network_body._body_endoder.seq_layers.0.bias f4 [128]
00000000: 26b5 553d 7156 353d d5ab 973d 1e79 003d
00000010: d468 263d 4a82 e93b a08f d83c 5905 643c
00000020: d3f0 223d f388 c03c ac71 a43c 9e00 4a3c
00000030: 423f a73b 8bff fe3c 89a3 5d3d db1b 1d3d
00000040: 83a9 793d e225 813c 7f63 37bc b056 7b3d
00000050: d3de dfbc 4872 883c eade 293d da34 60bb
00000060: 5fdd 093a 02c5 283d 0adc 1d3d db41 7d3d
00000070: 4cad 793d 1796 1c3c dbe5 d63c 4664 1e3b
00000080: f7ae 8a3d de6c 573d 106f 983c 991f 2e3d
00000090: 8115 c43c a515 c33c b999 483d 4933 0f3d
000000a0: c84b 873d 9ef9 ff3c 1836 823c 8b02 853d
000000b0: 7f0a 4d3b 6798 1d3c 8868 863d f79a 713b
000000c0: bf98 ec3c d0ef ae3c 8ff9 24bb 554a 363d
000000d0: 0e5d 943d 07aa e13c 2be7 063d 4e16 d73b
000000e0: b792 863c c191 413d 5679 103d 13d4 603c
000000f0: 6a59 e53c 41ce 1a3d 2443 903c 683f 213d
00000100: 9a03 4a3d 9dad 843d e02f 6a3c 4464 b83c
00000110: 7912 2d3d 4ae8 623c c92a 5a3d 68e7 673c
00000120: ecbb 4a3d 503a 833d f50d 0c3c 8262 003d
00000130: b050 0e3d 01ec 053d 41ec d43b a223 2a3d
00000140: 7728 373c 7585 0fbc 5e61 373d 1122 2f3c
00000150: 7c20 ae3c 3c6c ee3b 8698 6c3c 6109 1b3c
00000160: 0995 c03c 7bd4 9b3c 4c87 7f3d f2e1 293d
00000170: 9add 3b3d d39b 453d e508 fb3c e078 273d
00000180: e9b8 e73c f7fd 8c3c a86d 893d d541 e33c
00000190: cdca e13c 7e8c ebbb d73e 873c a162 533d
000001a0: 9031 113d f875 aa3d 8acb 4e3c e02c 343d
000001b0: f8c7 093d 18c6 91bc a98f 893d e4ff 293d
000001c0: 02ab a53d eaaf 713d 16f2 943d d818 753d
000001d0: c8ba b63d 1189 993b cc79 503d 3ae0 893d
000001e0: 7108 5e3d ee36 9d3c be3b 4f3d cfd7 773c
000001f0: b25a 9f3c 3d34 1d3d 280d 7e3d c947 0bbb
0.05217471 0.04427189 0.07405821 0.031365506 0.040627316 0.0071261274 0.026435673 0.013917291
0.03978045 0.023502802 0.020073734 0.012329249 0.0051039765 0.031127712 0.054111037 0.038356643
0.060952675 0.015765134 -0.011193155 0.06136197 -0.02732793 0.016656056 0.041472353 -0.003421119
0.0005259122 0.041203506 0.038539924 0.061830383 0.060956284 0.009557269 0.02623265 0.0024168654
0.06771653 0.05259406 0.018607646 0.042510603 0.023936035 0.023814032 0.048974726 0.03496102
0.06606251 0.031246956 0.015894935 0.06494626 0.0031286774 0.009618855 0.065629065 0.0036866048
0.028881429 0.021354586 -0.0025173163 0.044504482 0.07244311 0.027546896 0.032935303 0.006563938
0.016427381 0.047258142 0.035271965 0.013722437 0.027996738 0.037794355 0.01761014 0.03936711
0.04931984 0.064784266 0.014293641 0.022508748 0.042253945 0.013849327 0.05326346 0.014154293
0.049495623 0.064076066 0.0085482495 0.031343944 0.03474492 0.032695774 0.00649789 0.04153789
0.011179081 -0.008759846 0.04477059 0.010689274 0.021255724 0.007276086 0.014440661 0.009462685
0.023508566 0.019022217 0.06238489 0.041475244 0.045865633 0.04824431 0.03064389 0.04088676
0.028286414 0.017210944 0.067103684 0.027741352 0.027562523 -0.007188379 0.016509457 0.05160773
0.035447657 0.08323282 0.01262177 0.04398811 0.03363797 -0.017794654 0.06716854 0.041503802
0.08089258 0.059005655 0.07272737 0.059838146 0.089223444 0.004685529 0.050897405 0.06732221
0.05420727 0.019191232 0.050594084 0.015127136 0.019452427 0.038379896 0.062024266 -0.0021252504

network_body._body_endoder.seq_layers.2.weight f4 [128, 128]
00000000: 245a 1b3e ea93 82bc 01c4 d83d ae93 57bd
00000010: 5a16 a4bd 796a 0ebe 51d7 18bd 1364 1bbd
00000020: d9b5 dd3c 3fdb 0a3d 32ff a93d ba7b 1e3e
00000030: 06f6 f43d af88 67be b4d0 b9bd 2bbd 85be
00000040: cf2d 273e 69c4 25bc 5b76 40be 2fcb f7bd
00000050: b120 7fbe fc5e d13d 9651 be3c 97b3 04be
00000060: 8337 4fbe 8eb5 9ebc e264 b23d 89cb 76bd
00000070: 99aa 973d 929e efbd a92d 023c 6f33 73bd
00000080: 4814 153d ac38 743d e0df a03d 44ad 50bd
00000090: e463 d4bd 99c0 cf3d 5140 403d 0cea 2f3e
000000a0: 1b00 9e3d 59fa 0ebd bf8b 1c3d dc16 ec3d
000000b0: d3b2 8bbc e3b7 f6bc c59f 173d 3ceb 9d3c
000000c0: 5c34 4cba 7e0d 3f3e b777 08be 35b0 da3c
000000d0: cfdd 4c3e f4ef 383b 5301 e0bd 93c6 07be
000000e0: 0255 863d f54b 1b3e c0dd 11bd 1d16 d6bd
000000f0: 6562 163d e733 643d b712 c3bc 99b0 3cbe
00000100: 9e78 c6bd bd02 dabd 1df7 c7bd a611 9f3d
00000110: 2a53 32bc 5165 f3bd ddff c33c e340 0b3e
00000120: 3d28 303e 1d12 703d 74ec 99bc add4 b8bd
00000130: f472 0e3e 77f3 3fbc fb14 7e3d 7090 e9bd
00000140: 4efb d9bd f7eb f3ba b263 c73c 45d2 58bd
00000150: 0541 213d 1c05 82bd 7f99 b83d 79e8 c63c
00000160: c193 eebb 745a f6ba 2cda 5e3d 75c0 60bb
00000170: 869e 033e 7601 ef3b 169d 593e 82b9 22be
00000180: 5e37 afbd fd78 edbc df0d 003e cf55 ed3d
00000190: e664 3e3c be3e c5bd 069c 0b3d d1da c4bc
000001a0: 1aab 2c3d 6ab5 203e bbe9 0ebd c6e1 e23d
000001b0: f917 2f3e 42ff 243e ea2a b73d 67f5 afbb
000001c0: 0042 f83d 3bf6 583c 1db9 403e 4e79 823c
000001d0: 0b27 e93c 7afe 55bd 6228 16be faec 793e
000001e0: e5bd 1e3e 52ee 353e 4dee 613c 8d1e f63d
000001f0: 807f 23bd 4597 e03d d87c 533e e3b7 31be
00000200: d7aa f93c 35ea 303d 6e11 da3c a461 4abe
00000210: d2ae cbbc 06b5 913d 9f75 993d 29e4 9c3b
00000220: 2424 21bd cd81 323e 815c 8c3c ef38 96bd
00000230: a018 4fbd bbf6 95bc 1e3c 133e b10b 3fbd
00000240: 41c8 6cbc 99c9 afbd 264e 9b3d 94d8 523c
00000250: fd87 de3d 0980 a83d 1933 66bc f690 29be
00000260: 97f7 493e b80e fa38 8284 4dbd 3dae 093e
00000270: b1a5 763d c734 55bd fa39 4b3e 5a37 4d3d
00000280: 34bf d73d ce1d 653e 00e5 8bbc 8566 34bd
00000290: 54ef a4bd 3091 49bd dc59 853c 7468 bc3d
000002a0: f948 d83c 17db 2f3e 7d92 13bd 817c b9bd
000002b0: 6ba5 943d 8550 20be b061 10be 13b6 073e
000002c0: cea0 28be 04cf a9be d740 c13d bcbd b2bd
000002d0: 2a38 b7bd b262 833d 4805 59bd 02f0 fd3d
000002e0: deab 4dbd 588c d53d 3704 4d3d 8f82 243c
000002f0: 1987 cb3d 1a22 993d f7e2 17bc 7c6f c3bc
00000300: e058 86bd fe85 ebbd 0e15 c2bc 0ec5 c13a
00000310: 1af4 1a3e c441 19bd 4588 9ebd bc93 44bd
00000320: cc34 ee3d f765 273c f72d 5bbb ee31 213e
00000330: 7057 acbd 9d75 193e 2866 2abe 5f00 97bc
00000340: 5ad7 d9bc c897 fcbd 80cf 95bd 462a f53d
00000350: e9d1 df3c 93bf 4c3e c02e 163e 96d5 b6bc
00000360: 3580 573d 3b53 fabd e3d4 07bc abc8 a63d
00000370: 0e57 0e3e 05ed 603e d677 f03c 5731 4fbd
00000380: 7ea7 7bbd b3b8 62bd 9b90 fdbc 20b3 923b
00000390: bd9d 233c 2923 0a3d 004f 6fbd 7c3d bbbd
000003a0: 94b5 61bd 8d48 8bbd f389 10bd b6ef 0c3e
000003b0: 48d9 843d ba12 acbd 689d f0bb 9113 afbc
000003c0: a97d d43d c983 49bd 26dc 95bc 56b7 99bd
000003d0: 957e 943c f6ab b53d bb51 e4bd 9ee0 26bc
000003e0: 0cb4 563d 6820 40bd 4755 d63d 3b3c f63d
000003f0: 7440 7bbd 89cc ddbd 52aa debb 3d03 f03d
0.15171105 -0.015939672 0.1058426 -0.052631073 -0.08012076 -0.13907804 -0.037314717 -0.037937235
0.02706425 0.033900496 0.08300628 0.15476885 0.11960988 -0.22610734 -0.0907301 -0.26120886
0.16326068 -0.010117629 -0.18795149 -0.12099301 -0.24914815 0.10223195 0.023232263 -0.12959133
-0.2023602 -0.019373681 0.08710648 -0.0602527 0.07405586 -0.11700167 0.007945457 -0.059375223
0.036396295 0.05962436 0.07855201 -0.05094649 -0.10370615 0.10144157 0.046936337 0.17179126
0.07714864 -0.03490672 0.03821921 0.115277976 -0.017053043 -0.03011698 0.037017602 0.019277208
-0.00077897846 0.1865749 -0.13326918 0.02669535 0.20006488 0.0028219195 -0.109377526 -0.13259344
0.06559183 0.15165694 -0.035611868 -0.104534365 0.03671493 0.05571356 -0.023812635 -0.18426742
-0.09690975 -0.106450535 -0.0976393 0.07767038 -0.010884086 -0.11884559 0.023925716 0.13598971
0.1720285 0.058611024 -0.018789507 -0.0902494 0.13911039 -0.011715761 0.062031727 -0.114045024
-0.10643636 -0.0018609752 0.02433953 -0.052934904 0.039368648 -0.06348631 0.09013652 0.024280773
-0.007280797 -0.0018795268 0.054407284 -0.00342944 0.1285344 0.0072938753 0.2125133 -0.15891078
-0.08555482 -0.028988356 0.12505291 0.11588632 0.011620736 -0.09631108 0.034084342 -0.024030121
0.042155363 0.15694204 -0.03489087 0.11078219 0.17098989 0.16112998 0.08943732 -0.0053698304
0.121219635 0.0132423 0.18820615 0.015926983 0.028461 -0.05224464 -0.14663842 0.24406806
0.15502127 0.17766693 0.0137897255 0.12017546 -0.039916515 0.109663524 0.20653093 -0.17355303
0.03047697 0.043192107 0.02661964 -0.1976381 -0.024863634 0.071146056 0.074931376 0.004787941
-0.039341107 0.17432328 0.017133953 -0.07335078 -0.050560594 -0.018306127 0.14378402 -0.04664201
-0.014452041 -0.085833736 0.07583265 0.012869019 0.108657815 0.08227546 -0.014050269 -0.16559204
0.19723354 0.000119236705 -0.050175197 0.13445373 0.06021661 -0.052052286 0.19846335 0.050101615
0.10534516 0.22374651 -0.01707697 -0.044043083 -0.08053461 -0.049210727 0.0162782 0.0919961
0.026401984 0.1717342 -0.036028374 -0.0905695 0.072581135 -0.15655716 -0.14099765 0.1325305
-0.16467592 -0.33165753 0.09436195 -0.08727595 -0.08946259 0.06415309 -0.052983552 0.123992935
-0.050212733 0.10427159 0.050052848 0.010040893 0.09937877 0.074772075 -0.009270421 -0.02385687
-0.0655992 -0.11500166 -0.02369168 0.0014783458 0.1513218 -0.037416235 -0.07740835 -0.047992453
0.11631164 0.010217181 -0.0033444145 0.15741703 -0.08415115 0.14986272 -0.16640532 -0.018432794
-0.026591945 -0.123336375 -0.07314968 0.11970954 0.027321773 0.19994955 0.14666271 -0.022318643
0.052612502 -0.12222906 -0.008290502 0.08143743 0.13900396 0.21965416 0.029354017 -0.050584164
-0.06143903 -0.055351924 -0.030952742 0.00447692 0.009986338 0.033724938 -0.05842495 -0.091425866
-0.055104807 -0.06800947 -0.03528781 0.13763317 0.064867556 -0.08402009 -0.007342983 -0.021371635
0.1037553 -0.049197946 -0.018293452 -0.07505672 0.018126765 0.088706896 -0.11148401 -0.010185389
0.0524178 -0.046905905 0.10465484 0.12023207 -0.061340764 -0.108300276 -0.006795206 0.11719368

network_body._body_endoder.seq_layers.2.bias f4 [128]
00000000: 2adc 3c3d 1f21 193c f913 13bd e6c0 9dbc
00000010: 63f1 d7bb e622 123c 301b 9a3d 71d1 5b3c
00000020: a33a 3c3c 4311 dabc 3a5d 5bba a4eb 163c
00000030: d8f1 f13b 91f7 d4bc 6c7e 03bd 1733 d33c
00000040: b131 163c a913 343c f88c 85bc 8ef9 3f3c
00000050: 3da6 d63b 330f 923a 574d 89bb dfe9 a2bc
00000060: 16c4 26bd b957 1c3d 61c6 3c3d b574 2ebc
00000070: d50a 99b8 bf4d a9ba d5e0 883c 8d56 183d
00000080: ada3 d4bc 6927 74bb 247a 16bd 19cb 893c
00000090: 4be2 073d b702 9e3c 4e6a 153c 8bdf 5fbc
000000a0: c260 0bbc cd5b 1e3d 4ce1 c33c 7f01 793c
000000b0: 40de 863d f5cc 6e3c e7d8 ddbc 92ab 2e3b
000000c0: 1d27 bcbb c61a 06bd 64de a53a 365e 7cbc
000000d0: e9d8 b5bc 7851 cb39 8bd4 c5bc bd40 643b
000000e0: 7ae7 f13c bf48 f3ba 0aee 993b 71a3 243a
000000f0: 8805 29bd a1d4 153b 678e b83c 9082 ff3c
00000100: 7041 fb3b d8b6 0ebc e500 4c3c fa84 39bd
00000110: 717a cc3a a614 973c 6912 4f3c e4c9 bf3b
00000120: 7df6 ae3c d695 403d ae10 cfbc 3015 65bc
00000130: fced fa3c 9ab9 d93c c425 a8bc fd38 0dbd
00000140: 53df c33c e4f9 4dbc c62d e0bb a37a 64bb
00000150: f603 a6bc 15bd d63a 3728 4cbd 9552 043d
00000160: dbbc db3c f365 073d 676f 9cba 0daf 0fbd
00000170: f7a6 883d fd40 7dbc ce31 83bc f043 bdbc
00000180: dbd4 42bc a09a 81bb be8d 99bb 45ef f7bc
00000190: 1453 5abd 1f99 103b 8d6b 19bc d1bb 66bb
000001a0: b7b0 eebb 1b4d 84bd bda0 433b d53c 173d
000001b0: 3427 6dbd 519f a1bc bc68 023c 227d 143d
000001c0: 31ab a13c 3f54 b53c 4b95 4bbc 3d8f 893a
000001d0: e632 bcbc db2c 60bc 376e 7ebc cee8 333d
000001e0: 7457 343c 22b5 3c3d b2b4 193b bd73 94bc
000001f0: fc44 fcbb 7e52 d038 ed21 adbb afe1 88bb
0.046108402 0.009346276 -0.03590772 -0.01925702 -0.006590055 0.008919453 0.07524717 0.013416634
0.011488589 -0.02661956 -0.0008368079 0.009211455 0.0073835663 -0.025996955 -0.032102987 0.025781197
0.009167121 0.0109910155 -0.01630257 0.011717213 0.006550579 0.0011143446 -0.004190128 -0.019886909
-0.040714346 0.038169596 0.046087626 -0.010647942 -7.297626e-05 -0.0012916847 0.01670877 0.037191916
-0.025956953 -0.0037254936 -0.036737576 0.016820477 0.033174794 0.019288404 0.009119583 -0.013664137
-0.008506956 0.038661767 0.02391114 0.015198111 0.065853596 0.014575233 -0.027080966 0.0026652557
-0.0057419674 -0.032740377 0.0012654779 -0.015403321 -0.022198157 0.00038779876 -0.0241492 0.0034828626
0.029529322 -0.0018561109 0.004697566 0.0006280458 -0.04126504 0.0022862332 0.02252884 0.031190187
0.007667713 -0.008710586 0.012451385 -0.045292832 0.0015600455 0.018442463 0.012638667 0.0058529247
0.02135777 0.047017895 -0.025276508 -0.013982102 0.030631058 0.02657776 -0.02052582 -0.034478176
0.0239102 -0.012571786 -0.006841394 -0.0034863136 -0.02026556 0.0016383255 -0.04984304 0.03230532
0.026823452 0.03305621 -0.0011935056 -0.03507905 0.06672471 -0.015457389 -0.01601496 -0.023103684
-0.011891569 -0.0039552003 -0.0046860864 -0.03026546 -0.053301886 0.0022063924 -0.009364021 -0.0035207162
-0.0072842496 -0.06460019 0.0029850446 0.03692325 -0.057898715 -0.019729288 0.007959541 0.03625215
0.01973495 0.022134898 -0.012425731 0.0010494959 -0.022973489 -0.013682569 -0.015529207 0.04392319
0.011007179 0.04607118 0.002345365 -0.018121595 -0.0076986533 9.933578e-05 -0.0052835853 -0.004177294

action_model._discrete_distribution.branches.0.weight f4 [3, 128]
00000000: 767a 613d 65fc 86bc 7e36 203d 5874 2ebc
00000010: 85af d33c bc95 03bc 32dd ab3b a11b 70bc
00000020: e2fa 263d 965d e23c 70fe 83bc e413 54bd
00000030: f52e f13c b9af 163c dd94 593c ade7 01bd
00000040: 722e 50bc a9f9 af3c ab47 a5bc b802 663d
00000050: 611f f53c 87e8 0e3d 7d5d 293c 9e2d c63b
00000060: a413 1f3d 5df4 f5bb 8b89 093a 967c 283d
00000070: 0c23 153b adcb 4f3d 8fef 93bb df35 e73c
00000080: c724 353c 56c7 a939 0300 e43a e1a8 823b
00000090: 9b05 84bb 8a45 ebbb f0e8 cc3c d386 fe3c
000000a0: e52a 593b 8f93 04bd 3458 4eb9 9277 003d
000000b0: 2ce8 6fbb 6a71 3cbd 4b81 8f3c d50f e8bc
000000c0: 7e90 80bc 2c74 943c 8b75 773b 049a 073c
000000d0: 43e7 be3c 6400 8b3d a04f b63b c1d3 7d3c
000000e0: 549e 7c3d eb20 573d ea52 c8bc 74fe 813d
000000f0: 1efe f4bb b328 a23c 855d f83c e276 703d
00000100: 6f3a 71bc f3b9 bfbc 8234 09bd abf0 783c
00000110: c1ae 593b 064d b3bc 8e1f 4a3d 2240 293d
00000120: 3ec4 4e3d b21a 42bd 1d3d 843d 4474 4d3d
00000130: 7f22 6c3d aefc 4a3d b150 c73c 81ce edba
00000140: 1cc1 68bd c718 a53b f862 91bc f2c6 41bb
00000150: 09ad 8bbc 580a 223d 0f22 86bc 1892 083d
00000160: 8b5a 30bd fe43 743b 1e26 8ab8 6bd4 af3a
00000170: 0095 463d 054a 18bc 07c9 133d 5536 f2bc
00000180: fe61 973a f18d ff3c e87b 5e3b bb92 4d3a
00000190: 6a3d 8c3b b2dc b3bc 3a87 9a3b 0fbd f23b
000001a0: a9fd 1d3d 6ace 5e3c 25ab 403d 54d2 b2bc
000001b0: e725 543c 4959 dd3c 51a5 5f3d c93f 12bd
000001c0: cb83 ffbb 26eb 493d ba3c 0c3d e093 2d3d
000001d0: e3fb 62bd 721a edbc 36b5 36bc c76a 0a3d
000001e0: 20bf 64b9 2e59 3cbc 0e07 7f3d bc5d 85bb
000001f0: df54 303c 1f42 d0bc 8af5 17bc 61bd 083d
00000200: 10b1 90bd 4b9c b73a a185 f2bb 7671 ba3c
00000210: 854d bf3c c7ae 5e3b e32e 8fbc 7f73 963c
00000220: f5bc 2dbc ac51 4cbd 068f 0fba ae72 593d
00000230: d65a 57bc 0ae7 2b3d 20bb fd3b 17ae 453d
00000240: 12b3 763c 4992 fbbb a710 8dbc 6e9b a7bd
00000250: ddb8 8b3d 83a8 82bb d146 1e3d acd0 213c
00000260: 2d2c b6ba e8ce d0bb 46c0 76bc 813d efbc
00000270: bb2a 013d 2dc6 81bd 787b aebc 7240 dabc
00000280: 429f ac3b 238c ba3b 7e43 5abc 25d4 323d
00000290: 6d60 a5bc bd4f f13c fc7c 993b 5fab a6bc
000002a0: 3453 7a3d df2e 77bc 6025 30bc bdf8 a5bd
000002b0: 51b1 7bbc 7913 0f3c 3677 8bbd f405 273c
000002c0: 971b 0a3d 41b0 e0bc 9341 54bd 19d1 8bbb
000002d0: 14b3 74bd c7ec 67bd 2403 f0bb 261c 05bd
000002e0: 20fa f8bd 5f9f 92bd eb41 b63c 6d5a 8abd
000002f0: f730 bbbc 9c0a 2fbd 3d8f 293d c809 95bd
00000300: 0f3a e13c 9079 ba3c 689e 4c3d e950 8b3c
00000310: 1668 33bc 0797 103d f80f 5cbd 4d5d 85bd
00000320: ce25 95bc 0568 11b9 43c6 bbbd aa8a 3ebd
00000330: 6668 c2bd 9168 88bd 6d51 12bd be1d 963c
00000340: e169 f53c 9270 66ba a99b 4a3c 9dc2 053d
00000350: 9c2b 1c3d 22fe 45bd 7759 083c f2f1 05bc
00000360: 736f ed3c 9aaf 1bbc 3cce 9abc d09e 483c
00000370: 4b1a 00bd 8b8b acbc 439e 1fbc 54e6 a03b
00000380: 5af3 b83c 2cac e1bb f9f0 1d3d 87f8 e6bc
00000390: 4880 fabb 4e12 f03c 16a1 1c3d 6d1c adbc
000003a0: 62f9 7abd 36f9 843c 97b5 e3bc 3185 2bbc
000003b0: 1ee1 0bbd c166 23bd 56bf 4ebd 4027 863d
000003c0: 48af e2bc 86fc 0abe d1d9 89bd 25df e4bc
000003d0: 6d2e cd3c 4dcc 113d cd10 963b 5df1 9fbd
000003e0: 8a9c a23b f464 a0bb c83f 82bd 3e7a 85bc
000003f0: 6742 e03c 921a ccbc b0a4 abbc 757e 28bd
0.05504843 -0.016477773 0.039114468 -0.010647856 0.02584053 -0.008031305 0.0052448744 -0.014655025
0.040766604 0.027632516 -0.016112536 -0.05177678 0.029441336 0.009197169 0.013280121 -0.031715084
-0.012706386 0.021481352 -0.020175776 0.056154937 0.02992219 0.034889724 0.010337231 0.0060479185
0.03883709 -0.007505937 0.0005246631 0.04113444 0.0022756485 0.05073135 -0.0045146416 0.02822393
0.011056132 0.0003238271 0.0017395023 0.003987417 -0.0040289885 -0.0071799206 0.025013417 0.031070149
0.003313714 -0.032367285 -0.00019678549 0.03136403 -0.003660689 -0.046006598 0.017517706 -0.028327862
-0.0156939 0.018121801 0.003775927 0.008276466 0.023303634 0.06787184 0.0055636913 0.015492381
0.06167443 0.052521627 -0.024453599 0.06347361 -0.007476582 0.019794798 0.030318031 0.058707125
-0.014723404 -0.023404097 -0.03349734 0.015194098 0.0033215734 -0.021887314 0.0493465 0.041320927
0.05048012 -0.04738874 0.06456969 0.050159708 0.057650086 0.04955738 0.024330469 -0.0018143208
-0.05682479 0.005038354 -0.017747387 -0.0029568044 -0.017050283 0.039560646 -0.016373662 0.03334245
-0.0430551 0.0037271972 -6.587453e-05 0.0013414746 0.04848194 -0.009294991 0.036080386 -0.029566923
0.001154959 0.031195613 0.0033948366 0.0007841994 0.004279782 -0.021955822 0.0047158273 0.0074077914
0.038571987 0.013599018 0.047038216 -0.021828808 0.01294849 0.027020114 0.054601017 -0.03570536
-0.0077976934 0.04929652 0.0342376 0.042377353 -0.055416 -0.028943274 -0.0111516025 0.033793237
-0.00021814974 -0.0114958715 0.062262587 -0.004070012 0.010762422 -0.025422154 -0.00927485 0.03338373
-0.07065022 0.0014008371 -0.0074011837 0.02275918 0.023352394 0.0033978687 -0.017478412 0.01836562
-0.010604133 -0.049882576 -0.0005476329 0.053087883 -0.013144216 0.041968383 0.0077432543 0.04826173
0.015057342 -0.0076773507 -0.017219855 -0.08183943 0.06822369 -0.0039873733 0.038641755 0.009876411
-0.0013898663 -0.0063723214 -0.01506049 -0.029204132 0.03153489 -0.06336627 -0.021299109 -0.026642058
0.0052680084 0.005692975 -0.013321755 0.043659348 -0.020187581 0.029456967 0.0046840888 -0.020345388
0.061114505 -0.0150868585 -0.010751098 -0.08104084 -0.0153621 0.00873267 -0.06809847 0.01019429
0.033717718 -0.027427794 -0.05182035 -0.0042668697 -0.059741095 -0.056622293 -0.007324593 -0.032497548
-0.121570826 -0.07159304 0.022248229 -0.067555286 -0.022850497 -0.042734727 0.04139637 -0.07277256
0.027493505 0.022763044 0.049955755 0.017006354 -0.010950109 0.03530028 -0.053726166 -0.06511936
-0.018206503 -0.00013867028 -0.09168675 -0.04651896 -0.09492569 -0.066605695 -0.035722185 0.018324729
0.029957714 -0.0008790578 0.012366214 0.0326563 0.038127527 -0.048338063 0.008322111 -0.00817536
0.028983807 -0.009502316 -0.018897168 0.012244895 -0.031275075 -0.021062633 -0.009742322 0.0049102698
0.022576977 -0.0068869796 0.038559888 -0.028194679 -0.007644687 0.029305603 0.03823956 -0.021131719
-0.061272986 0.016232114 -0.02779655 -0.010468767 -0.034150235 -0.039892916 -0.05047544 0.06550455
-0.027671471 -0.13572893 -0.06730998 -0.027938435 0.025046552 0.035595227 0.0045796395 -0.07809708
0.0049625086 -0.004894847 -0.063598216 -0.016293641 0.027375413 -0.024915013 -0.020952553 -0.041136224

action_model._discrete_distribution.branches.0.bias f4 [3]
00000000: 651c 133c 8f04 fcbb 42cd 053a
0.008978938 -0.007690973 0.0005104133

action_model._discrete_distribution.branches.1.weight f4 [9, 128]
00000000: 02f5 d73b cd2c bebc c49c 4d3d 9a0e 5abd
00000010: 996d 53bd d898 153c d6b7 403d d362 9c3c
00000020: c839 cc3c c858 8c3c 5aa9 05bd dc04 643c
00000030: e8e6 16bd ba31 6cbd 15ff 063c c997 163b
00000040: c60d 43bc 703f 323c 55fc 76bb ca2c 7dbd
00000050: 45cb 25bc f58e 903b 2148 463c 1048 f03c
00000060: 6fc5 12bd 6f4a 183d c9a3 82bd 45cf bdbc
00000070: 2c0e c2bc 57cb 93bc a8dd 893d 05f8 b6bd
00000080: 2b4f 72bc d441 d4bc 8761 93bc 08cc 33bd
00000090: 8e36 89ba 51aa 363d 639f 95bc 2673 17bd
000000a0: 90df 8bbb d00a 0cbc e867 8a3c 940c 56bd
000000b0: 7511 72bc d2d5 f4bb 55b4 5dbc 6d11 a43b
000000c0: 4083 c2bb 349e 703c 8413 9fbb 1736 a8bb
000000d0: 2429 783c 1470 85bc d610 6fbc 1cd1 933c
000000e0: 86aa be3c b36e 25bd 6dbb 5b3d e646 6ebd
000000f0: 4912 183c 58bc e73c 8ace 6abd 16de 1bbc
00000100: 1d4b 6cbd 6900 bf3c 6833 803d 1681 5e3c
00000110: 66f8 b83b d669 5f3d a154 17bd 22ec 83bd
00000120: 5918 863b 1fee caba 0d59 0b3a 8f78 84bd
00000130: 57ab 46bc 20f2 873b 3fa4 d93c c553 2a3c
00000140: c02e 3e3d 9e65 973c bf5d 43bd 7894 383c
00000150: 2815 ff3c 9f89 2bbc 3642 853b d602 4c3d
00000160: 38eb b5bc 4682 11bc 0335 7a3c 1b7a aa3c
00000170: 784a e2bc abd5 903d 0d4a ff3c 9452 313c
00000180: bec4 b239 3e60 a93c a995 f0bc 0f73 b83a
00000190: 2255 81bc 9577 d63a 84bb 5cbd 6e6c 83bc
000001a0: 14c7 da3b f624 353d a043 62bc b0e3 813c
000001b0: aa82 4abd 2133 5a3c afef 70bd 1147 eb39
000001c0: 288c 1b3d 86cc 8abd 5d4a 6bbd b08f cebb
000001d0: 1226 bbbc 6199 0f3d d953 babc bcfd 80bc
000001e0: 3901 f23c 1443 c83d 2f7a 60bd d06d b83c
000001f0: 216a 8b3b 5599 243c 8488 27bc 3117 253c
00000200: 7ba7 dbba c21b 6abb a9ee 203c 1e4d babb
00000210: 9c4e a53d 36dd f53b c270 13bd b54e 993b
00000220: 7a6d 8abd cc8b 40bd 19f3 ef3c ee96 f4bc
00000230: b7cb 593d 9716 223c ebb9 7abc 11e2 ba3c
00000240: e502 573d 94a7 143d b939 2bbd 5fa5 cfba
00000250: 02df 22ba c0b0 85bd fc60 99bc 841a 213c
00000260: 948c 813c 55c4 e9bb 93a3 0f3b b126 ecbc
00000270: 5e22 1c3b cacd 0bbd 506a 323d 90a6 f73c
00000280: 639a 833c 5e37 44bd 9b20 aabb b9c4 243b
00000290: a158 f63c 7089 973c 7104 0cbd 76d4 273c
000002a0: 7c09 183d b161 a5b9 2c08 f83a 407b df3b
000002b0: 9210 bebb 4ff7 113d 0894 83ba ee1c 5f3c
000002c0: 7978 283c 1948 08bd ba1d 933b 7829 5d3d
000002d0: 2b54 aabb 4510 b7bc 7276 403c 1229 99bc
000002e0: 1b92 76bc 79d6 81bc 51c9 283d db14 4bbd
000002f0: f75c ddbb a83c acbb 80f4 7b3d 56c7 2abd
00000300: b71f b6bc 1622 16bd 2d4f b1bb 09f0 1a3d
00000310: c5ff 8dbc 63da 033d 30cd 76bd 64f4 18bd
00000320: 4d25 a3bc 66bd 87bc 19a7 75bc 0f1e 02bd
00000330: c78e bbbb b57b 3ebd b1b1 bf3c ab18 5b3c
00000340: 63c4 2abb 98c9 46bb 888b 5b3d fdd0 183d
00000350: 0c67 bebc 9416 1fbd 38ef 2fbc 370a 30bc
00000360: dd29 a33d 17ea f7bc 37db 3cbc 4a9d e6bc
00000370: 4feb 083c a097 0a3d cfd6 afbc 51ea 453c
00000380: ac6e 2ebb b286 36bd b8e9 85bc d008 a9bb
00000390: 653d a2bc ad03 35bd b77f 493c f15e 873d
000003a0: d798 adbc 89d9 9abc d1c2 97bd fac5 82bc
000003b0: 6f9c d63c b0cc 3abc 0502 20bd 9848 3c3c
000003c0: 6c09 3dbb f9dd 92bc 5126 13bd 8a07 80bd
000003d0: 014a b23c deaf 95bc 844c 02bc 466f da3c
000003e0: 2671 0dbc 404a ed3b 9400 6abc 17dd 713d
000003f0: a2b7 da3b 4dac b5bc a63a 0fbc 9f11 93bb
0.0065904865 -0.023214722 0.05019833 -0.05323658 -0.051618192 0.009130679 0.04705032 0.019090092
0.024929896 0.017132178 -0.03263221 0.013917174 -0.036841303 -0.05766461 0.008239527 0.0022978655
-0.011905139 0.0108793825 -0.0037687023 -0.061810292 -0.010119264 0.004411573 0.012102158 0.029331237
-0.03583282 0.03718036 -0.06378896 -0.023170123 -0.023688398 -0.018041296 0.06731731 -0.08934025
-0.014789383 -0.025910296 -0.01799084 -0.04389575 -0.0010468529 0.04459602 -0.018264478 -0.03697505
-0.004268594 -0.0085475 0.01689525 -0.05225809 -0.01477467 -0.0074717784 -0.013531764 0.00500696
-0.0059360564 0.014686156 -0.0048546214 -0.005133401 0.015146527 -0.016288795 -0.014591416 0.018044047
0.023274671 -0.040388774 0.05364554 -0.058173083 0.009281703 0.028288051 -0.057325877 -0.009513399
-0.05768882 0.023315625 0.06259805 0.013580581 0.005644846 0.054544292 -0.036945943 -0.06441523
0.004092258 -0.0015482343 0.0005315699 -0.06468307 -0.012125812 0.0041487366 0.026567576 0.010395949
0.046431303 0.018481072 -0.047696825 0.011265866 0.031138018 -0.010469823 0.004066731 0.049807392
-0.022206888 -0.008881157 0.015271428 0.020810178 -0.0276234 0.07072004 0.03116324 0.010822911
0.0003409739 0.020675775 -0.029368239 0.0014072376 -0.015787665 0.0016362543 -0.053889766 -0.016042914
0.006676564 0.0442247 -0.013810068 0.01585564 -0.049441017 0.013317854 -0.05882233 0.00044875641
0.03797546 -0.06777291 -0.057443965 -0.00630375 -0.022845302 0.035058383 -0.02274506 -0.01574599
0.029541599 0.09778419 -0.054804023 0.0225133 0.004254595 0.010046323 -0.010225419 0.01007633
-0.0016758287 -0.0035722111 0.009822526 -0.0056854626 0.08071634 0.007503177 -0.035996206 0.004678572
-0.06759162 -0.04700832 0.029290723 -0.029857125 0.053172793 0.009893081 -0.015303115 0.022812875
0.052492995 0.036292627 -0.041803095 -0.0015842131 -0.00062130403 -0.06527853 -0.018723004 0.009832982
0.015814103 -0.0071340003 0.0021917566 -0.028827043 0.0023824195 -0.034131803 0.04355842 0.03023079
0.016064828 -0.047904365 -0.005191875 0.002514167 0.030071558 0.018498152 -0.034183923 0.010243526
0.03711842 -0.00031544038 0.0018923334 0.0068201125 -0.005800315 0.035636242 -0.0010038624 0.013617737
0.010282629 -0.033271883 0.0044896277 0.053994626 -0.005198022 -0.022346625 0.01174699 -0.018696342
-0.015049483 -0.015849339 0.041207615 -0.049580436 -0.006755467 -0.005256254 0.06151247 -0.041694008
-0.02223192 -0.0366536 -0.00541105 0.03782657 -0.017333874 0.03219069 -0.060254276 -0.037342444
-0.019915247 -0.016569804 -0.0149934525 -0.031766947 -0.0057238075 -0.046504695 0.02340016 0.0133725805
-0.0026056997 -0.0030332562 0.053599864 0.03730868 -0.023242496 -0.03883989 -0.010738187 -0.010744623
0.07966969 -0.03026299 -0.011526874 -0.028151173 0.008356883 0.033836007 -0.021464733 0.012079791
-0.0026616259 -0.04456205 -0.016346797 -0.0051585212 -0.019804666 -0.04419296 0.012298516 0.066099055
-0.021191044 -0.018902557 -0.07410205 -0.015963543 0.02619764 -0.01140134 -0.039064426 0.011491917
-0.0028844727 -0.01792811 -0.035925213 -0.06251438 0.021763803 -0.018272337 -0.007952813 0.026664387
-0.008632934 0.0072415173 -0.014282364 0.05904874 0.006674723 -0.022176886 -0.00874201 -0.0044881846

action_model._discrete_distribution.branches.1.bias f4 [9]
00000000: 646d 2d3b eb64 57bc dab8 43bc a5ad 3cbb
00000010: 8f3c d63c c398 bc3c 04e2 b33b e72e e6bb
00000020: ad58 b2b9
0.0026462907 -0.013146619 -0.0119459275 -0.0028790024 0.026151923 0.023022061 0.0054895896 -0.007024634
-0.00034016874

action_model._discrete_distribution.branches.2.weight f4 [225, 128]
00000000: 4cd4 a0bc da06 c53b cb39 133d a20b 19bc
00000010: 9ffd 343d 983f a0bd 657a 8b3d 27af 6b3c
00000020: f780 2a38 a57b f9bc faf3 c7bd 6dc6 d4bb
00000030: c1f1 6a3c becc c33c 55a3 2e3d c5bd 88bc
00000040: 7af1 83bd 82c2 70bd 9205 443d 0dd3 aebd
00000050: e9b9 b0bb f1ee 46bd 737c 3e3c 88fc 59bd
00000060: 7a29 67bb 0b02 79bd 613f 1cbd 2a71 b6bc
00000070: 89de bcbb c6a9 0d3d 3f20 873c 8abf 4cbd
00000080: 4866 0bbc b2c6 33bd 8bf1 aaba 02aa 77bd
00000090: 95be 94bc a878 82bc 07ff 4c3a 9536 9c3c
000000a0: 5bc1 38bd 4e46 6c3b 58e6 6ebc 7c60 f5bc
000000b0: 3bfc 89bd d3ea 983b 428f 663c 627b 6b3c
000000c0: 134e 32ba 1e4c 81bc cdde 18bc 6dc2 bb3b
000000d0: 7d8e a9bb 824f a4bc 33fd 77bc 064d d2bc
000000e0: ff9f abbd b22d 46bc 3fdd 823c 95ff 67bc
000000f0: 5c1a 87bb f879 e8bc 8edf 4cbd e3b2 953b
00000100: fc67 2abd c2d2 91bc 6430 c9bc 2497 73bc
00000110: 6db9 56bb 6cd2 e2bc 75c4 73bb 28e2 43bc
00000120: 3b4a 51bc d0fd 0abc fbd6 03bd b33c 833c
00000130: 4176 b0bd b8b3 54bd 9b78 b7bc 8252 15bd
00000140: 369c 293c 038b ddbc e508 f93b 5455 bd3b
00000150: 6af4 733b cc8c b23c 2786 12bd 00c0 60bd
00000160: c59d 5cbc da20 6abd 9c29 90bc bd57 ec3c
00000170: 525a dabc 28de a03b 5538 c3bc 683b 84bc
00000180: 3f96 d33c 867e 323d 1ba3 5b3c 53a0 4a3d
00000190: a83b 0a3d 58dc f63a 245e 123c 8363 1c3d
000001a0: 36c6 a23b 918c 05bd 2b70 653c 0d55 593b
000001b0: e606 313d ff68 2ebd d601 37bd d2e3 4a3d
000001c0: 0c3a 3cbc 144b 01bd 5591 9dbc 2119 093a
000001d0: 4fda 2abc d20d e3bc a771 c5bc 5056 0ebd
000001e0: 2b31 4c3d 3d25 ab3c c804 f33c b4ea 4f3c
000001f0: 7af9 043d 2cda 043d 557c 963c b3b3 533b
00000200: 3762 35bd 7ba9 513d c89c f53c 4c19 703d
00000210: 45d4 a03d e947 ff3b 968c 4f3d 765f fd3d
00000220: c02f 9a3c a154 1ebb 4cac 573d f75e 903d
00000230: 552d 1d3d f74a 913d a947 693d f2bd 643c
00000240: 1156 3a3d d09d 5f3d 6ef9 f0bc f71a 383d
00000250: ed3d fc3d 938a 1abc b90a 933d a441 833d
00000260: 58b7 c9bc e135 ca3c c847 213d c741 493b
00000270: 2540 743d 9b3e 393d 51cf dcbb f92c 7c3d
00000280: fde1 063d 19f8 433d e553 04bc 1fb9 5c3d
00000290: 69ed 2a3c 0fa5 1b3d e2f2 503d 6512 f53c
000002a0: 92e1 fb3c dd5b 413c 1c41 7d3d 2185 183d
000002b0: 07bc ec3c f2b9 ad3d 1fa9 1abc e8fe 0a3d
000002c0: 8cf1 fa3d 2077 b7bc 2fde 0ebc be6b b63c
000002d0: b5c0 52bd 2232 50bc f3d7 883c 2618 f33c
000002e0: a749 1fbc f7fd 4a3d e821 0e3d 92ae 53bc
000002f0: 8f2d 053b 5981 28bc 2ccd 8d3d 1b9e a23c
00000300: cb2d 1c3d 5595 2cba fb55 91bb 6ca7 953d
00000310: f298 8abc dc72 cb3c eaea 583c 1eba 2d3d
00000320: 3bd6 3dbd 06ce f6bc 29fb 9d3b 66d2 04bd
00000330: ae0e dcbb e73c 043c b071 56bd 4106 843d
00000340: 8187 613d 43e9 883d 9b78 733b 67d7 a13d
00000350: f231 c53c 3720 15bd 4222 8e3c e207 b9bb
00000360: ef26 363d 100d 473c 03c9 1c3d bc07 7d3d
00000370: 77c5 efbc caa5 4f3d f373 80bb 0f79 ce3d
00000380: ac52 213d 650a f1bb eb81 d93c e5ab 55bc
00000390: 3b4c 653d 8578 df3c b286 cf3d 911d 31bc
000003a0: 5ca2 573c 2172 0c3d 4171 45bc c582 d53c
000003b0: 4856 2ebc 5579 603c fea3 68bc d1ca 8b3d
000003c0: 8f83 ba3c 303b 4e3d 750c 083c a98e d43c
000003d0: deac 823d 63c2 203d f1e5 1f3d 1b90 58bb
000003e0: 0ba1 bb3d 9b2a b3bc fe4b d43c c6d0 05bb
000003f0: ed7d 2f3d 1796 d73c 10b3 763d 80d5 b5bc
-0.019632481 0.0060127797 0.035943788 -0.009341152 0.044187184 -0.078246295 0.06810454 0.014385021
4.0651266e-05 -0.030454466 -0.09763332 -0.0064933808 0.014339865 0.02390134 0.042636234 -0.016692052
-0.064425424 -0.058779247 0.047856875 -0.085363485 -0.005393256 -0.048567716 0.011626351 -0.05321935
-0.0035272525 -0.060792964 -0.03814638 -0.022270758 -0.005763833 0.034585737 0.016494868 -0.049987353
-0.0085082725 -0.043890662 -0.0013041956 -0.060464866 -0.018157283 -0.015926674 0.00078199845 0.019068995
-0.045106273 0.0036052647 -0.014581285 -0.029953234 -0.06737562 0.004666665 0.014072241 0.0143726785
-0.0006801795 -0.015783366 -0.009330464 0.0057299645 -0.0051744566 -0.020057444 -0.015136051 -0.025671493
-0.08380126 -0.012095856 0.015974639 -0.014160057 -0.0041230153 -0.028378472 -0.050017886 0.004568444
-0.041603073 -0.017800692 -0.024559207 -0.014867578 -0.003276433 -0.027688228 -0.0037195955 -0.011955775
-0.012774046 -0.008483365 -0.032187443 0.016020155 -0.08616305 -0.051929206 -0.022396376 -0.03645564
0.010352185 -0.027043825 0.0075999373 0.005777994 0.003722454 0.021795653 -0.03577247 -0.054870605
-0.01346535 -0.057160236 -0.017597966 0.02885043 -0.026654396 0.0049092956 -0.023830572 -0.016141608
0.025828479 0.043577693 0.013405587 0.049469303 0.0337483 0.0018833978 0.008933578 0.03818084
0.0049674762 -0.032604758 0.014003794 0.0033162266 0.04321947 -0.0425806 -0.044679485 0.049533673
-0.011488449 -0.03156574 -0.019234339 0.000522988 -0.010428025 -0.027716551 -0.024102045 -0.034750283
0.049851578 0.02089178 0.029665366 0.012690235 0.032464482 0.032434627 0.018369833 0.0032303154
-0.044283118 0.05118702 0.029981986 0.058617875 0.07852987 0.007790555 0.050671183 0.12371723
0.018821597 -0.002415933 0.05265455 0.07049363 0.03837331 0.070943765 0.056953106 0.013961302
0.045492236 0.05459386 -0.029415812 0.04494759 0.12316499 -0.009432453 0.071797796 0.06409004
-0.024623558 0.024683895 0.039375097 0.0030709372 0.059631485 0.04522572 -0.006738581 0.061566327
0.032930363 0.047844026 -0.008076643 0.053887483 0.01043258 0.03799921 0.05101288 0.029915998
0.030747209 0.011801687 0.06182967 0.037236337 0.028898252 0.08482732 -0.009439736 0.033934504
0.12253103 -0.02239567 -0.008719965 0.022268172 -0.05145331 -0.012707265 0.016704535 0.0296746
-0.00972215 0.049558606 0.034700304 -0.012920039 0.0020321344 -0.010284745 0.06923899 0.019850781
0.03812961 -0.00065835315 -0.0044352985 0.07307324 -0.016918633 0.024835043 0.013239602 0.042413823
-0.046346884 -0.030127537 0.0048212004 -0.032427214 -0.006715617 0.008071161 -0.052354515 0.06446505
0.055060867 0.06685116 0.0037150744 0.07902413 0.024071667 -0.036407676 0.01735032 -0.0056466917
0.044470724 0.01214911 0.038277637 0.061774954 -0.029268963 0.05069522 -0.003920072 0.10081684
0.039385483 -0.0073559755 0.026551208 -0.013041471 0.055980902 0.027279148 0.10133113 -0.010810272
0.013161268 0.03428853 -0.012050928 0.026063332 -0.010640688 0.013700803 -0.014199255 0.068257935
0.02276781 0.050349414 0.008303751 0.025946932 0.06380628 0.03924788 0.03903765 -0.0033044878
0.09161576 -0.021870902 0.025915142 -0.0020418628 0.0428447 0.026316686 0.06022936 -0.022196531

action_model._discrete_distribution.branches.2.bias f4 [225]
00000000: dc0b cbba 4f46 2b3d 4dd2 1cbb 32fb 373c
00000010: 1192 d13c 77b4 003b cbeb 703b ca14 3bbc
00000020: 62fc 663c bc1b b03b 36c8 563b 95e2 5f3c
00000030: baa2 febc 0ac9 c0bb a87c aeba 594f 66bc
00000040: c802 203b 5b31 ec3c 3ed2 473b 648f 44bc
00000050: fe06 eebb 0bf2 fdba 572f 6fbb 0359 723c
00000060: 3044 8e3c 1db8 1a3d c349 9c3c fff4 5f3c
00000070: 9045 70bb 6031 3d3c f587 553c 5f1e 343c
00000080: 18b4 d43c bc40 b33b ba91 be3c 13e7 f03b
00000090: fa0c 6a3c 675f b93c cb0f f3bb fb0a d03b
000000a0: 0e3d 923c c7ea e9bc 8012 843a 910f a1ba
000000b0: d395 c9bc d58e b6bc 35e7 523b efbf 133c
000000c0: 08d1 f73a 07ca 943c 294e 383c 07c8 923c
000000d0: 1e0e e73b 431c 863b 5692 f33a 9885 9f3c
000000e0: 4f3e 603c 935b febb dea7 8a3c 0e48 f7bc
000000f0: 8a88 643c 81fd 76bc 45f5 3b3c 91ff b93c
00000100: 1353 ee3c 5b31 223d 695f 89bc 4c75 6b3c
00000110: 429e f9bb cb4e 943c 1903 95bc 617c a23c
00000120: 8e50 1b3a 8531 223d 9011 47ba 9721 ccbb
00000130: 7078 9abc d523 c439 a961 783d ac83 21bc
00000140: e57f cdbb d72b 613a 5ef9 133b 6eb9 ae3c
00000150: 361b 33bc 925a b43b 6f52 e7bb 4787 d73c
00000160: 1544 a33c c456 413c 9f13 2d3d 21cd d23c
00000170: 7938 ae3c 3024 d2bc f2b9 013d d23d 763c
00000180: 174f 01bb 23be 703c 84f1 033d e8df b43c
00000190: b37b 46bc 6870 823d e1e8 e93b b417 233c
000001a0: d42f 5e39 77da 18bd f701 c7bb 73cb 383d
000001b0: 3518 c43b 62df f1bb fe59 2b3d 0244 e53c
000001c0: fd96 a03c 219d 903c ec23 fcbb 7638 093d
000001d0: 1c64 243d 643d 48bc fbe4 d5bc a790 32bb
000001e0: 4e5c 5cbc 92ad 6fbc aac5 b03c 1128 833c
000001f0: d16b d4bc 3aa8 af3c d47d abbb c386 0a3d
00000200: 685a f9ba 3983 e93b 8857 e6bb 21cf f7bb
00000210: 2e23 53bb 5d88 8bbc 4e45 34bd 2135 893c
00000220: 2562 203c fe29 1d3c 1ed9 fb3c ee42 b83c
00000230: d22c 023d 078c db3b 129b a93c e494 5a3c
00000240: 6adb a13c cba7 bcbb 092e 133d 933a 583b
00000250: a06a 2c3c f31c d2bb 1b42 9d3c 3437 f5bc
00000260: 6a2c ed3c e830 5aba 62da 253c df2b 0dbc
00000270: e9a4 393d 00a6 573c 4a0d 233b ba42 933c
00000280: 1619 13bc b275 563c 3c75 3d3d 82a3 febb
00000290: 7079 153b f48b ed3c f8d8 06bb 75ea ac3c
000002a0: 7030 013d 5382 043c 2fa0 ed3a d5ad 95bb
000002b0: d3d2 4e3c 9fa0 6d3d 2aa8 dfbb d4d4 b63c
000002c0: c7fe c53c 16a3 7b3c ea9a 1fbc a0cd e23b
000002d0: f9e2 cdbb ded7 7e3b fd3e 85bb 4ae1 a23c
000002e0: 897a 67bc 4cc4 003b 7bdf 39bc 1599 003d
000002f0: 40f0 0b3b 7e4e 313c 104a 553c 9c0e 403d
00000300: eef7 c93c 0945 a33c 681a a33a d95a 04bb
00000310: 8d07 31bb 0f6b 4bba 5f95 1f3c 0817 1f3d
00000320: 4370 d8bc 0c3d 3c3c 641a 333c 83f2 11bb
00000330: 8854 babb fa89 49bc 5367 9f3c 27c7 f83a
00000340: 3c17 55bc 6db5 94bc 8623 64bc 42c2 b4bc
00000350: 32de 4a3b f690 2c3d 8db4 753c d8b4 b43c
00000360: a9ce d33c 70d8 8b3c b916 183c a920 17bd
00000370: 1ac4 34bc 09fb 233d c093 823c 8a61 f03c
00000380: 9709 0abc
-0.0015491205 0.0418151 -0.002392906 0.011229323 0.025582345 0.0019638815 0.0036761637 -0.011418531
0.014098259 0.0053744 0.0032773144 0.013664861 -0.031083453 -0.0058833407 -0.0013312297 -0.014057004
0.002441572 0.028832128 0.0030490304 -0.011997078 -0.007264017 -0.0019374503 -0.0036496723 0.01479173
0.017366499 0.03777324 0.019078141 0.013669251 -0.0036662556 0.011547416 0.013032903 0.010993569
0.025964782 0.0054703634 0.023262847 0.007351765 0.01428532 0.0226285 -0.007417654 0.006348965
0.017851379 -0.028554333 0.0010076314 -0.0012287964 -0.024607575 -0.022284904 0.0032181267 0.0090179285
0.0018906901 0.01816274 0.011249104 0.017917646 0.0070512434 0.0040927245 0.001858304 0.019472882
0.0136867305 -0.0077623813 0.016925748 -0.030185726 0.013948569 -0.0150750885 0.011472051 0.022704871
0.029092347 0.03959785 -0.016769128 0.0143712275 -0.0076177428 0.018103978 -0.018189954 0.0198347
0.00059247843 0.039598007 -0.00075938646 -0.00622959 -0.018856257 0.0003741073 0.06064001 -0.009858053
-0.0062713497 0.00085896015 0.0022579054 0.021328654 -0.010931781 0.005503961 -0.0070593874 0.026309622
0.019929925 0.011800472 0.04225504 0.025732579 0.021267163 -0.025652021 0.031671472 0.015029388
-0.001973098 0.01469377 0.03221275 0.022079423 -0.012114453 0.06369096 0.007138357 0.009954382
0.00021189387 -0.03731772 -0.0060732323 0.0451159 0.005984331 -0.0073813656 0.04183387 0.02798653
0.019603247 0.01765305 -0.007694712 0.03350111 0.040134534 -0.012221668 -0.026110163 -0.0027246864
-0.0134497415 -0.014628785 0.021578629 0.016010316 -0.025930317 0.021442521 -0.0052335057 0.033819925
-0.0019024136 0.0071262387 -0.0070294775 -0.0075625335 -0.0032217014 -0.017032797 -0.044011407 0.016748967
0.0097890245 0.009592531 0.030743178 0.022492852 0.031781025 0.006700042 0.020703826 0.013341162
0.019757945 -0.005757307 0.035932574 0.0032993897 0.010523468 -0.0064121424 0.01919656 -0.02993355
0.028951842 -0.00083233276 0.010122867 -0.008616417 0.045323286 0.013162136 0.0024879747 0.017976154
-0.008978149 0.013089584 0.04625438 -0.0077709565 0.0022807978 0.028997399 -0.00205761 0.021107892
0.031540334 0.008087712 0.0018129403 -0.0045678415 0.012623507 0.05801451 -0.0068254666 0.022318281
0.024169339 0.015358707 -0.009741524 0.006921485 -0.0062831608 0.003888599 -0.0040663467 0.019882817
-0.014128336 0.0019648252 -0.011344786 0.03139599 0.0021352917 0.010821937 0.013018146 0.046888933
0.024654355 0.01993038 0.0012443783 -0.002019575 -0.0027012557 -0.00077597884 0.009740203 0.038840324
-0.026420718 0.011489164 0.010931585 -0.0022269792 -0.0056863464 -0.012300963 0.019458449 0.001898025
-0.013006028 -0.018152917 -0.013924485 -0.022065286 0.0030955193 0.042130433 0.01499666 0.02205889
0.02585538 0.017070979 0.009282761 -0.03689638 -0.011033082 0.040034328 0.015939593 0.029343385
-0.008425138
