Unity/RL-Framework/Assets/ML-Agents/Models/Experiment_1/DefenderBehavior.onnx (onnx, 327093 bytes, 13 tensors)

discrete_act_size_vector f4 [1, 3]
000000 00 00 40 40 00 00 10 41 00 00 61 43
       3.0 9.0 225.0

network_body.observation_encoder.processors.0.normalizer.running_mean f4 [246]
000000 0a 99 85 3f e2 16 85 3f 6a b9 91 3f 77 5e 87 3f
       1.0437329 1.0397608 1.1384709 1.0575703
000010 35 ed 84 3f 73 96 8f 3f b9 f8 84 3f 5d fb 83 3f
       1.038489 1.1217788 1.0388404 1.0311085
000020 c2 d9 87 3f 8e ae 85 3f 2c 63 8b 3f 5f 48 8f 3f
       1.061333 1.0443895 1.088964 1.1193961
000030 b3 90 8a 3f 53 10 85 3f 85 17 89 3f e3 41 89 3f
       1.0825409 1.0395607 1.0710303 1.0723232
000040 6a d8 84 3f a0 fe ff 3f a0 fe ff 3f b6 8e 8e 3f
       1.0378544 1.999958 1.999958 1.1137302
000050 67 fd 99 3f d0 07 88 3f a0 fe ff 3f a0 fe ff 3f
       1.2030457 1.0627384 1.999958 1.999958
000060 a0 fe ff 3f a0 fe ff 3f 97 bd 88 3f 26 ba 8d 3f
       1.999958 1.999958 1.0682858 1.1072433
000070 42 a5 84 3f 16 a4 87 3f 5e 8e 85 3f 90 7c cf 3f
       1.0362933 1.059695 1.0434072 1.6209888
000080 a0 fe ff 3f a0 fe ff 3f 42 5b 8e 3f b1 0f 92 3f
       1.999958 1.999958 1.11216 1.1411039
000090 c1 43 90 3f a0 fe ff 3f 72 66 9f 3f 86 6e af 3f
       1.1270677 1.999958 1.2453139 1.3705604
0000a0 a0 fe ff 3f 0c 44 85 3f e7 87 84 3f 8c 1f 87 3f
       1.999958 1.0411391 1.0353974 1.0556502
0000b0 6a 75 88 3f 5d 53 8a 3f 7a e3 d7 3f a0 fe ff 3f
       1.0660832 1.080669 1.6866295 1.999958
0000c0 a0 fe ff 3f 48 0e a3 3f 80 1e b1 3f 69 c0 87 3f
       1.999958 1.2738733 1.3837433 1.0605594
0000d0 a0 fe ff 3f 3c 10 f1 3f c7 cf 86 3f a0 fe ff 3f
       1.999958 1.8833079 1.0532159 1.999958
0000e0 42 5e 8b 3f a8 9f 86 3f 64 86 8c 3f f0 bd 8a 3f
       1.088814 1.0517473 1.0978513 1.0839214
0000f0 85 9f 8a 3f ba c1 bd 3f a0 fe ff 3f a0 fe ff 3f
       1.0829931 1.4824746 1.999958 1.999958
000100 4c 77 9a 3f a8 8b 1f 40 fa 19 94 3f a0 fe ff 3f
       1.2067657 2.492899 1.1570427 1.999958
000110 f8 e0 00 40 07 f6 b9 3f a0 fe ff 3f 99 63 91 3f
       2.013731 1.4528207 1.999958 1.135852
000120 15 a8 8c 3f a3 27 87 3f 4f 45 88 3f 46 21 eb 3f
       1.0988795 1.0558971 1.0646151 1.8369529
000130 a5 bf 86 40 a0 fe ff 3f a0 fe ff 3f a5 f2 cb 3f
       4.210894 1.999958 1.999958 1.5933424
000140 7d e0 94 3f ba 50 8b 3f a0 fe ff 3f 40 2a 84 3f
       1.1631008 1.0884011 1.999958 1.0325394
000150 f0 3a c0 3f a0 fe ff 3f 23 3b 85 3f 76 98 84 3f
       1.5017986 1.999958 1.0408672 1.0359027
000160 a2 dd 85 3f b0 15 89 3f 1f 67 37 40 06 f4 93 40
       1.0458262 1.0709743 2.865669 4.623538
000170 a0 fe ff 3f a0 fe ff 3f 0c ea 9c 40 0b 4f 8f 3f
       1.999958 1.999958 4.90357 1.1195997
000180 83 f2 85 3f a0 fe ff 3f 18 a3 92 3f f6 8c 84 3f
       1.0464634 1.999958 1.1456022 1.0355518
000190 a0 fe ff 3f a0 fe ff 3f a0 fe ff 3f a0 fe 7f 40
       1.999958 1.999958 1.999958 3.999916
0001a0 3c 35 8a 3f 2a 4b 67 40 d1 fe 3f 40 a0 fe ff 3f
       1.0797496 3.6139627 2.9999278 1.999958
0001b0 a0 fe ff 3f bf f5 74 40 38 f6 92 3f b6 77 87 3f
       1.999958 3.8274992 1.148139 1.0583408
0001c0 a0 fe ff 3f 96 94 88 3f b8 06 9a 3f 8e 5a 8b 3f
       1.999958 1.0670345 1.20333 1.088701
0001d0 5a 6f 88 3f ea af 88 3f a4 8f 85 3f 7d f5 8f 3f
       1.0658982 1.0678685 1.0434461 1.1246792
0001e0 29 ab 9d 40 a0 fe ff 3f a0 fe ff 3f a0 fe ff 3f
       4.9271436 1.999958 1.999958 1.999958
0001f0 d9 29 65 40 ca 26 8d 3f bc 65 86 3f a0 fe ff 3f
       3.5806792 1.1027462 1.0499797 1.999958
000200 45 82 84 3f 71 1a b3 3f 4d ac 90 3f 86 b1 86 3f
       1.0352255 1.3992444 1.1302582 1.0522926
000210 3a 01 95 3f bb 27 89 3f 00 17 89 3f 7b bc 90 40
       1.1640999 1.071525 1.0710144 4.523008
000220 a0 fe ff 3f a0 fe ff 3f a0 fe ff 3f 04 24 3d 40
       1.999958 1.999958 1.999958 2.9553232
000230 89 ac b4 3f e3 40 93 3f a0 fe ff 3f cf ca 86 3f
       1.4115154 1.1504177 1.999958 1.0530642
000240 03 07 86 3f 78 6c 85 3f ae a7 86 3f c1 fb 87 3f
       1.047089 1.0423727 1.0519922 1.0623704
000250 48 98 83 3f d3 31 87 3f 6e 8c 84 40 a0 fe ff 3f
       1.0280848 1.056208 4.1421423 1.999958
000260 a0 fe ff 3f a0 fe ff 3f ce 09 94 40 ec 2e ec 3f
       1.999958 1.999958 4.626197 1.845182
000270 a7 5e 96 3f a0 fe ff 3f 09 bb 88 3f 97 2a 88 3f
       1.1747636 1.999958 1.0682079 1.0637997
000280 0e 0a 86 3f 22 07 8c 3f be e9 86 3f fa 70 85 3f
       1.0471818 1.0939677 1.0540082 1.0425103
000290 ba 1d 87 3f af a2 88 3f a0 fe ff 3f a0 fe ff 3f
       1.0555947 1.0674647 1.999958 1.999958
0002a0 a0 fe ff 3f 1a 06 85 3f 40 e7 bc 3f f1 b4 8b 3f
       1.999958 1.0392487 1.4758072 1.0914594
0002b0 a0 fe ff 3f d9 df 83 3f 52 58 85 3f b3 ad 8f 3f
       1.999958 1.0302688 1.0417578 1.1224884
0002c0 b8 8f 8c 3f a6 88 90 3f 0d 3d 86 3f 0c eb 87 3f
       1.098136 1.1291702 1.0487381 1.0618606
0002d0 40 8a 03 40 aa e9 85 3f 65 0a 78 40 a0 fe ff 3f
       2.055313 1.0461934 3.8756344 1.999958
0002e0 6e c7 65 40 58 9c b4 3f ed 4c 88 3f a0 fe ff 3f
       3.5902972 1.4110212 1.0648476 1.999958
0002f0 b3 a3 8d 3f 2e 75 86 3f b3 a7 87 3f f7 37 84 3f
       1.1065582 1.050451 1.0598053 1.0329579
000300 be e2 83 3f 3b 6c 84 3f a5 12 85 3f 9d 45 96 3f
       1.0303571 1.0345529 1.0396315 1.1739994
000310 3d 3d 88 3f f0 9b 97 3f a0 fe ff 3f a0 fe ff 3f
       1.0643688 1.1844463 1.999958 1.999958
000320 a0 fe ff 3f a0 fe ff 3f a0 fe ff 3f 78 fd 87 3f
       1.999958 1.999958 1.999958 1.0624228
000330 17 1d 86 3f e9 69 85 3f 45 23 86 3f 15 6d 88 3f
       1.0477628 1.0422946 1.0479513 1.0658289
000340 12 08 86 3f f0 d2 85 3f ea cb 83 3f ba f0 8d 3f
       1.0471213 1.0454998 1.0296605 1.1089089
000350 54 53 84 3f 31 ed 8b 3f da 3c 87 3f ab dd 90 3f
       1.033793 1.093176 1.0565445 1.1317648
000360 b5 cc 84 3f b1 56 85 3f 93 27 85 3f 01 77 89 3f
       1.0374972 1.0417081 1.0402702 1.0739442
000370 54 1b 8f 3f e6 ee 91 3f 1c 23 85 3f 17 79 85 3f
       1.1180215 1.1401031 1.040134 1.0427579
000380 82 67 84 3f df f9 a2 3e 9f 2e 74 3d 00 00 00 00
       1.0344088 0.31831262 0.059614774 0.0
000390 25 e1 fb 3e 52 68 f7 3e 00 00 00 00 8a f0 5a 3e
       0.4919521 0.48321778 0.0 0.21380821
0003a0 61 a1 2f 3e 00 00 00 00 46 c4 19 3e ac 8e ff 3e
       0.17151405 0.0 0.15016279 0.49913538
0003b0 00 00 00 00 50 4a cc 3e 2c c0 71 3f 00 00 00 00
       0.0 0.39900446 0.94433856 0.0
0003c0 4b 96 8c 3e 8d 73 aa 3e 00 00 00 00 29 7d be 3c
       0.27458414 0.33291283 0.0 0.02325304
0003d0 a9 98 e8 3b 9c 54 20 3c
       0.0070982766 0.009785797

network_body._body_endoder.seq_layers.0.weight f4 [128, 246]
000000 1c c5 8f 3d fa 5f 89 3d 5b 06 0c 3e f2 f8 5e bd
       0.070200175 0.06707759 0.136743 -0.05443663
000010 6d b0 ca bd 48 17 96 3d 3f e3 8d bd 33 42 a5 3d
       -0.09896932 0.07328659 -0.069281094 0.08069267
000020 fc e2 51 3c a7 3b 3b bd 16 0a 55 3d 49 36 15 bd
       0.012810465 -0.045711186 0.05201157 -0.036428723
000030 be 6b dd 3a 0d a7 2f 3b ca f1 0c bc 97 79 17 be
       0.0016893072 0.002680245 -0.008602569 -0.14792477
000040 3a 32 93 bd 06 f2 c3 3d 40 0e 38 3d 42 c0 02 3d
       -0.07187314 0.09567647 0.044935465 0.031921633
000050 0c dd 8b bd a8 2a 09 3d 3e e2 43 bd ae a3 4b 3d
       -0.06829271 0.033487946 -0.047823183 0.049716644
000060 4f ba 20 3e f0 39 dc 3d a5 2b 40 3d 8d b7 71 3d
       0.15696071 0.10753238 0.046916623 0.05901294
000070 26 78 77 3d 42 c8 65 bc cd 2d 09 3c 09 e9 a3 bd
       0.060417317 -0.014024796 0.008372736 -0.08003432
000080 ba af 0e 3c a7 3d 55 3e f5 e3 8e bc a6 17 14 3c
       0.008708889 0.208243 -0.017442683 0.009038841
000090 02 dd a9 bd a0 2e bb bb 5c b3 62 3d c0 20 25 bc
       -0.08294107 -0.0057123452 0.05534683 -0.010078609
0000a0 ba 11 5b 3d 8e 91 38 3d 40 b4 94 ba 75 55 f0 bd
       0.053483702 0.045060687 -0.0011345223 -0.1173505
0000b0 80 ff c6 bc c8 b9 81 bd db 4d c5 bc 9c 4f e0 3d
       -0.024291754 -0.06334263 -0.024084976 0.10952684
0000c0 60 ef 01 3e 0f 6b 01 3d ca 98 fe 3d 40 40 a3 3d
       0.1268897 0.03159624 0.12431486 0.07971239
0000d0 e0 f3 50 3c 16 2f ec 3c 69 ae 34 3d 34 8d dd 3d
       0.012753457 0.028831046 0.044111643 0.10817948
0000e0 c4 09 f1 3a d3 fc 06 bd 22 f5 9f bd d3 6f 22 bd
       0.0018389751 -0.032955956 -0.07810427 -0.039657425
0000f0 ee 2e 08 3c 05 98 f1 bc c7 f6 d6 3c e8 9f 5e 3d
       0.00831197 -0.029491434 0.02624072 0.054351717
000100 13 a3 8b 3d a3 6d b2 bd 54 4a 04 3d d0 42 73 3d
       0.06818213 -0.08712318 0.032297447 0.05938989
000110 59 35 fb 3c 8c 08 d5 3d 39 fb e4 3c e2 67 7f 3e
       0.030665087 0.10402021 0.027951824 0.24941972
000120 0c d4 5b be 3a 69 c9 3d 5a 3f 0c bd 0f 56 ff 3c
       -0.21467608 0.098345235 -0.034240104 0.031168966
000130 37 56 b6 3c e4 64 27 3d a6 98 d7 3d 82 d1 b2 3c
       0.022257907 0.0408677 0.10527162 0.021828417
000140 45 84 af 3d 52 4d 49 bd be ae 82 3c 1a 20 f5 3d
       0.0857015 -0.049146004 0.015952464 0.119690135
000150 cb d4 d9 bd e6 31 ac 3d 49 1e 5f 3d 51 f5 e2 3c
       -0.1063629 0.08407955 0.05447224 0.027704867
000160 90 34 2f bd fa 08 1d 3d ba bc 84 bb 2b b9 86 bd
       -0.042774737 0.03833864 -0.0040508183 -0.06578287
000170 0b a2 eb 3c 50 90 70 3d 99 24 1e be f6 fb 86 bd
       0.028763792 0.058731377 -0.15443648 -0.065910265
000180 c0 6f b5 3c e6 78 06 3e 2e 9e af 3d 25 00 fc 3b
       0.022148013 0.13132057 0.08575092 0.007690447
000190 fc 94 9f bd b9 05 50 3e 86 95 0b 3e af 3e 63 3c
       -0.077920884 0.20314683 0.13631257 0.013869925
0001a0 8b 9d b2 bd 0e b9 0b 3e 56 f4 3a 3e 51 fc 11 3e
       -0.08721455 0.13644812 0.1825727 0.14256407
0001b0 52 b9 93 3d e7 fb 71 bc 6f f5 88 3d 45 90 d0 bd
       0.072130814 -0.014769531 0.06687438 -0.10183767
0001c0 13 6c 31 3e dc 11 e2 3d 22 b9 37 3d 28 db 1d 3b
       0.17326383 0.11038563 0.04485429 0.0024086926
0001d0 4c db 62 bd c0 41 68 bc ac 35 8a bd 6d cd ea 3a
       -0.05538492 -0.014175832 -0.06748518 0.0017914005
0001e0 0c c0 22 be 9c 77 32 3d dd 0d d5 bc 1e f5 e5 3d
       -0.15893573 0.0435711 -0.026007587 0.11228393
0001f0 5b 9e 1d bc 4b 0a 9b 3d 9d 37 90 3b ff f9 28 3e
       -0.009620274 0.075703226 0.004401161 0.16501616
000200 50 40 59 bd c6 2b 16 3e 2a 47 02 bd bf 62 3d 3d
       -0.05303985 0.14665136 -0.03180615 0.04623675
000210 96 6c ae bd 4c 82 45 3c ec cc d7 bd 89 e0 b2 bd
       -0.08516805 0.012054991 -0.105371326 -0.08734233
000220 33 9a fe bb 3b 02 40 3e 24 2d 7d 3c 4f 26 ba 3d
       -0.007769847 0.18750851 0.015452657 0.09089338
000230 58 68 99 3d ab e9 e9 bc fa d0 ca 3d 6c 41 ea bb
       0.07490605 -0.028553804 0.0990314 -0.007148912
000240 7c 74 1e 3d 43 9c 52 bc d8 c6 6d bd c3 97 c3 bc
       0.038685307 -0.0128546385 -0.05805096 -0.023876077
000250 a2 30 a5 bd de ca b3 bc 31 1e a0 3d 02 aa 43 bd
       -0.080659166 -0.02194732 0.078182586 -0.047769554
000260 a8 72 4a 3d 02 4c 93 3d 7b 77 5f 3d 09 72 44 bd
       0.04942575 0.07192232 0.054557305 -0.047960315
000270 95 e6 ea bd 7e 5d 66 3c 0e f1 4e 3c 0f 05 e5 bb
       -0.11469761 0.014060376 0.012630714 -0.0069891284
000280 91 f9 3a bd fa 35 15 bd 3e 68 63 3d f2 42 58 bc
       -0.04564816 -0.03642843 0.055519335 -0.013199555
000290 2e bf 66 bd 71 0e ae bd 66 e0 cb 3d f3 c8 c5 3c
       -0.056334667 -0.08498848 0.0995491 0.024143672
0002a0 6c 2f ca 3d 6c e5 5e 3d 98 fe 74 bc bf c6 9a bd
       0.09872326 0.054418012 -0.014953278 -0.07557439
0002b0 40 be bc 3d f6 b3 07 3e 25 f5 07 bd 1f 07 a4 3d
       0.09215975 0.13252243 -0.033192772 0.08009171
0002c0 24 71 02 bd ec 74 dd 3c d6 26 b8 3c de f5 79 3d
       -0.03184618 0.027033292 0.022479456 0.061025493
0002d0 21 be 46 bd 7f 72 00 3e 41 91 0d 3d 78 1c f5 3d
       -0.048521165 0.12543677 0.034562353 0.119683206
0002e0 44 f5 82 3c 08 5d 25 be 2a b4 0e 3d 9c 69 fa 3d
       0.015986092 -0.1614877 0.034839787 0.12227175
0002f0 e0 21 c0 3d 95 30 89 3d 03 00 9b bc 7f 1d cc 3d
       0.09381461 0.066987194 -0.018920904 0.099665634
000300 03 fc a6 3c a4 8d f8 bd ef c3 1c 3d 5d 4f ab 3d
       0.02038384 -0.12136391 0.038272794 0.08364747
000310 7a 64 9c 3c 4b 69 58 3d 5f 37 26 3c 66 1a 04 3e
       0.01909088 0.05283479 0.010145037 0.12900695
000320 18 02 a2 3d ff 1b a8 3c 16 30 7f 3d ea db 2b bd
       0.079105556 0.020521162 0.062301718 -0.041957773
000330 f6 56 13 3d 83 4c 36 bd 39 af 7c bd 7e 42 6c be
       0.035971604 -0.04450656 -0.061690543 -0.2307224
000340 0a 03 cb 3c 0d 2e 0f 3d af 0c 45 3d 68 fa 94 3d
       0.024781723 0.034956027 0.0481078 0.07274324
000350 8f 3a ab bb 04 8b 3e be 79 4c 11 bd ce 4c 41 3c
       -0.0052254866 -0.18607718 -0.03547332 0.011798097
000360 28 77 c1 3c e6 a6 c3 3c 16 38 2d 3c 45 08 dc 3b
       0.023616388 0.023883294 0.010572454 0.006714853
000370 56 42 11 3d 09 04 57 3d d6 b3 1b 3c ea 02 7c 3c
       0.035463654 0.052494083 0.009503325 0.015381554
000380 43 bd 21 bd 0c b1 03 3d 68 1e 31 bd bc 66 3a bd
       -0.039487135 0.032151267 -0.04324189 -0.04550813
000390 9b 78 91 3d 1e 80 94 bc 48 58 fd bc 3a 6d 66 3b
       0.07103082 -0.018127497 -0.030925885 0.003516032
0003a0 26 af 2a 3e 8c 3c 95 bd ba 8f 4a 3e 6b c4 46 bd
       0.16668376 -0.07286939 0.1978139 -0.048527163
0003b0 81 96 90 3d cc 67 7a 3d df 40 16 bd e9 84 f4 bb
       0.07059956 0.061134145 -0.03668296 -0.007462133
0003c0 4c 26 95 bd 6b bc 23 bd 1c d2 95 bd 7d 06 38 3e
       -0.07282695 -0.03997461 -0.07315466 0.17971225
0003d0 82 01 da bd 77 aa 1f bc 31 91 5a bd 5c c6 01 be
       -0.10644819 -0.009745232 -0.05336112 -0.12673324
0003e0 96 1c 57 3d 1e 64 b0 bd e6 58 f2 bd 13 ee fb 3a
       0.052517496 -0.08612846 -0.11833362 0.0019220732
0003f0 70 65 63 bd 39 59 cd 3d db e9 6a bd c0 23 b7 bd
       -0.05551666 0.100267835 -0.05735193 -0.08942366

network_body._body_endoder.seq_layers.0.bias f4 [128]
000000 cf 94 83 3d 87 5c a7 3c 56 62 35 3d 71 80 33 3d
       0.06424867 0.020429863 0.044283234 0.043823663
000010 7b fe 9b 3d 4c 61 47 3d 77 67 30 bb 70 46 0a 3d
       0.07616898 0.048676774 -0.0026917139 0.03375858
000020 92 a8 05 3d c6 6b e5 3c e3 85 3e 3d c4 7b 5f 3d
       0.032631464 0.028005492 0.046514403 0.05456139
000030 5c a3 44 3d e5 52 07 3c cf 9e 4f 3d be 4e c7 3c
       0.048007354 0.00825951 0.05068856 0.02432954
000040 12 cf 33 3d 1d 92 8c 3d ac 35 03 3d d2 ab 4b 3b
       0.04389865 0.068638064 0.032033607 0.0031077755
000050 1f 86 3e 3d c3 91 79 3d 41 6f 67 3d 3f 5e d6 3b
       0.046514627 0.060930025 0.056502584 0.0065419967
000060 f9 40 2e 3d 1d 35 9a bc 87 32 3c 3d 88 14 af 3c
       0.04254243 -0.018824155 0.045946624 0.021372095
000070 89 2d 52 3d aa ac 1f 3d fa ea 91 3d bc 72 4f 3d
       0.051312957 0.038983025 0.07124896 0.05064653
000080 49 24 1f 3d 79 d4 bf 3d 5d 2e 5a 3d 22 6f 5e 3d
       0.038852964 0.09366698 0.05326687 0.054305203
000090 fb f2 21 3d ac 02 3f 3d 3c 4c e7 3c dd ca 25 3d
       0.039538365 0.046633407 0.028234594 0.04047667
0000a0 c3 49 73 3d 98 f9 29 3d 76 53 ba 3c 10 30 48 3d
       0.059396517 0.041497797 0.022744875 0.04887396
0000b0 76 0d 48 3d 3f bd 38 3d 4d 81 c0 3d a4 f1 07 3c
       0.048840962 0.045102354 0.09399662 0.008297358
0000c0 9f f9 1f 3d 3a f7 6e 3d d6 ff 1b 3d ea 6f 14 3d
       0.039056417 0.058341242 0.03808578 0.036239542
0000d0 d7 b1 13 3d 1b 06 6d 3d ab 67 d7 3c 4c 32 6b 3d
       0.036058273 0.05786715 0.02629455 0.057421014
0000e0 9f 87 5a 3d 1b 03 4a 3d 61 44 7d 3d e9 fc db 3c
       0.053351995 0.049319368 0.06183279 0.026853995
0000f0 3d 11 ee 3c 16 35 16 3d a0 38 17 3d 45 da 83 3d
       0.029060954 0.03667172 0.036919236 0.06438116
000100 ce 9e 91 3d 17 2e e0 3c e3 76 43 3d 39 20 89 3d
       0.07110368 0.027365727 0.0477208 0.06695599
000110 5d e0 a6 3d bc 10 87 3d b0 2e a6 3b 57 c1 cd 3c
       0.08148263 0.06594989 0.0050714836 0.025116606
000120 21 b9 60 3d 2d 7d b2 3d c7 73 98 3c 97 e6 26 3d
       0.054864053 0.08715282 0.018609894 0.04074725
000130 02 e3 a4 3d 28 e9 88 bc e4 42 53 3d 84 6d 7e 3d
       0.08051111 -0.01671274 0.051577464 0.06211616
000140 c8 4c 08 3d 18 d1 4e 3d fa 8f 11 3d a7 e8 86 3d
       0.03327635 0.050492376 0.035537697 0.06587344
000150 db fb 87 3d 10 6b 81 3c 89 7f 9d 3c ca 73 36 bc
       0.066398345 0.015798122 0.019225853 -0.011136005
000160 00 e8 50 bc 4a 8f 04 3d 17 00 65 3d 40 19 34 3d
       -0.012750626 0.032363214 0.05590829 0.043969393
000170 87 bc 13 3d c0 89 79 3d bf 87 d0 3c a7 a3 5d 3d
       0.036068466 0.060922384 0.025455354 0.05411115
000180 26 f2 7b 3c 01 1a 9d 3c a3 63 98 3c fd d2 9c 3d
       0.015377557 0.019177439 0.018602198 0.0765743
000190 bd bb 98 3d 66 f4 4a 3d 08 73 e7 3b b3 58 75 3d
       0.07457683 0.049549483 0.0070632733 0.059899043
0001a0 2d 89 42 3c 5b b6 66 3b f4 45 65 3d fb a9 13 3d
       0.011873526 0.0035203907 0.055974916 0.036050778
0001b0 54 83 7f 3d 6d 4a dd 3c c9 8b 1b 3d 2d 3e 8c 3d
       0.062381104 0.027013028 0.037975106 0.068477966
0001c0 aa cb 9e 3d 8b 58 04 3d 84 cd 79 3d a2 85 94 3c
       0.077536896 0.032311004 0.06098701 0.018130127
0001d0 17 8d 0e 3d ec 4a c8 3c 6e 99 6d 3d c7 16 47 3d
       0.034802523 0.024449788 0.05800765 0.048605707
0001e0 0e 93 38 3d b1 16 3f 3d da 63 01 3d 3d e6 ab 3c
       0.045062117 0.0466525 0.031589366 0.02098381
0001f0 ad 93 d8 3c fd e1 d0 3c 99 cc b2 3c 64 f0 5f 3c
       0.026437605 0.025498385 0.021826075 0.013668153

network_body._body_endoder.seq_layers.2.weight f4 [128, 128]
000000 ae 17 db bc ef e4 b9 3d 0e 0a 06 3d d2 49 3f be
       -0.02674469 0.09076869 0.032724433 -0.18680504
000010 1b ed 0e 3d 4e 6b af 3b 32 01 87 3d 24 57 06 3d
       0.03489409 0.005353368 0.06592025 0.032797948
000020 d9 7e 4a 3c f2 c1 23 3e 72 fa 93 3c f7 da 98 3a
       0.012359344 0.15991953 0.018063758 0.0011661936
000030 c3 9f 1f 3e 8b 87 31 bd 08 c0 a7 3c f7 50 8c 3d
       0.15588288 -0.043342154 0.02047731 0.0685138
000040 f8 cb 51 3e b0 78 f9 bd 85 ec 0c 3e d8 ed 34 bd
       0.20487964 -0.121812224 0.137621 -0.044172138
000050 8c 4f b7 3d 55 7c 12 bd 8b a3 1b 3d 52 19 9b 3c
       0.08950719 -0.035763104 0.037997764 0.018932972
000060 88 57 4b be 26 b2 47 3d 91 6c e9 3d f5 dd 94 bb
       -0.1985761 0.04875388 0.113976605 -0.004543061
000070 20 b9 99 3d 5a 57 c5 3c 5c d5 92 3e 64 5b f3 3c
       0.07506013 0.024089504 0.28678405 0.029706664
000080 b5 64 e4 3d 09 23 14 3d 45 f5 78 3d 17 5b ad 3d
       0.11152021 0.036166225 0.060780782 0.0846464
000090 36 f0 07 3e 85 01 0d 3e 82 3e ee 3c 72 27 d3 3d
       0.13275227 0.13770111 0.02908254 0.10310258
0000a0 09 0d 1b be 15 1a a6 3e 72 91 c2 3d 62 d0 0d 3e
       -0.15141691 0.32441774 0.09500398 0.13849023
0000b0 a5 ea 56 bd e1 21 f8 3d 52 1a a5 bd 9e 8f 66 3b
       -0.05246987 0.12115837 -0.08061661 0.0035180817
0000c0 53 70 a3 3d 0a 26 35 3e 04 49 65 bd b8 70 18 be
       0.079804085 0.17690292 -0.055977836 -0.14886749
0000d0 39 32 1a 3d 38 7a 19 be fd df 54 3d 61 9c 52 3d
       0.037645552 -0.14988029 0.051971424 0.051418666
0000e0 7e 65 8c 3d 3f 46 3d 3e d1 6a 9b bd 6e 76 d8 bc
       0.068552956 0.18483828 -0.07588733 -0.02642366
0000f0 26 9b 15 3d 3f 48 01 3c 82 ae b5 3c fc f6 98 3c
       0.036524914 0.00789076 0.022177938 0.018672459
000100 b6 89 43 3d 45 fb aa 3d 66 c4 c2 3e 74 1c 99 3d
       0.047738753 0.08348707 0.38040465 0.0747613
000110 ce ac 20 bd 1f 11 a6 bc 0a d0 40 3e 5f 4b a4 bd
       -0.0392273 -0.020271836 0.1882936 -0.080221884
000120 80 cd 20 bd 8d 4c b4 bc 22 8a dc bb bc 22 bf bd
       -0.03925848 -0.022009159 -0.006730334 -0.09332797
000130 d7 43 85 bd 81 23 14 3d db aa be 3d b2 74 29 3e
       -0.0650708 0.03616667 0.09309932 0.16548422
000140 9a 88 47 bc 8a d0 0a 3d d0 03 28 3e 98 bc ce bd
       -0.012178564 0.033890285 0.16407704 -0.10094565
000150 6c 0d 30 be c7 4a 16 be 66 c6 b9 3d c2 f3 9b 3d
       -0.1719262 -0.14676963 0.090710446 0.076148525
000160 01 94 ce bc 5b 03 0d bc 11 bc 58 bd 34 0f 4c 3c
       -0.025217058 -0.008606757 -0.05291373 0.012454797
000170 a9 b6 a2 bc e1 46 86 3e 98 ee e2 bd 98 d1 ff 3d
       -0.01986249 0.2622595 -0.110806644 0.12491149
000180 46 ae af 3d 5c 7f 2e 3e c3 bf ea bd b3 2d b7 bd
       0.08578162 0.17040771 -0.11462357 -0.08944263
000190 b5 88 3f 3e bc 67 d7 3c e2 a6 4f 3e 00 cc 90 3d
       0.18704493 0.026294582 0.20278504 0.0707016
0001a0 d6 8d c5 3c 30 79 7a 3d 8f fb e1 bd a2 33 06 3e
       0.024115484 0.06115073 -0.11034309 0.13105634
0001b0 ad 8b 50 3a 92 0c 21 be 96 b0 93 3d 7d ea 89 3d
       0.00079553836 -0.15727451 0.072114155 0.06734178
0001c0 b1 4c aa bc 74 ce 9a 3d 07 ff b3 3d 53 af 5a be
       -0.020788522 0.07558909 0.08788877 -0.21355943
0001d0 76 14 33 3d cf 5b 23 bc fc fd 98 3c 00 7a d2 3d
       0.043720685 -0.009970619 0.018675797 0.10277176
0001e0 37 f9 ab bd 11 57 c7 bd d7 a9 07 be ae ef dd 3d
       -0.08397143 -0.097334035 -0.13248383 0.10836731
0001f0 ce af 7a 3d 87 92 04 bd 4c a0 0a 3e 71 9b 11 3d
       0.061202817 -0.032366302 0.13537711 0.03554863
000200 32 e0 1a bd b1 80 3c 3e b6 cf 9d 3d 60 37 13 bd
       -0.037811466 0.18408467 0.07705633 -0.03594148
000210 0e ba a2 bc 23 80 1d 3b 00 ca 27 3e cc a3 bc bb
       -0.019864108 0.0024032674 0.1638565 -0.005756831
000220 a8 1c d5 3d ac 88 1c 3d e5 01 fc 3d 15 17 08 3e
       0.10405856 0.038216278 0.12305049 0.13290055
000230 01 7c 08 be 31 9c 21 3e b7 f4 24 be 46 e6 32 3d
       -0.13328554 0.15782239 -0.16108976 0.043676637
000240 32 d3 8c bc 70 c8 4f bd bd dc 2a 3e eb 0c a2 3d
       -0.01719055 -0.05072826 0.16685767 0.0791262
000250 2e 11 c7 bd b2 56 a2 3d e4 fe 32 bd 0f cb f7 3d
       -0.09720074 0.07926692 -0.043700114 0.12099277
000260 9e 9d e0 bd d3 a4 cf bd 37 5b f9 bc 2e 1c a3 bd
       -0.10967563 -0.101388596 -0.030439002 -0.07964359
000270 9b 31 1e 3e c3 75 8b 3d b5 ed 06 3c 15 ae f3 bc
       0.1544861 0.06809571 0.008235385 -0.029746095
000280 ee 5a 2f 3e 67 59 23 3d 4d cf ad bd 6e 35 fa 3c
       0.1712453 0.039880183 -0.08486805 0.030543055
000290 52 68 1f 3e 21 20 fa 3d 14 86 05 be c4 1a f1 bd
       0.15567139 0.12213159 -0.13039428 -0.11772683
0002a0 df 60 f7 3d 39 cf 48 be a2 82 fe 3d b0 6a 17 3a
       0.120790236 -0.19610299 0.1242726 0.00057760905
0002b0 d7 2e 2e 3e 3e 5f 03 3e df 12 aa 3d a0 e7 b6 bc
       0.17010055 0.12829301 0.083043806 -0.022327244
0002c0 41 52 a1 3d 79 9d 56 bc e9 06 25 bb 98 a8 67 3d
       0.07877017 -0.013099068 -0.002518112 0.056557268
0002d0 a1 4e 15 3e 3d 91 3a 3e 84 89 fa bc ae 63 37 be
       0.14580776 0.18219467 -0.03058315 -0.17909119
0002e0 e4 ca ea bd ac 3e e0 3d d0 6c 1e bd b1 60 c8 3d
       -0.114644796 0.10949454 -0.03867799 0.097840674
0002f0 1c ff 7b 3d b9 3f 2a 3e 94 1a 94 bb 0a 49 ce bd
       0.061522588 0.16625871 -0.00451977 -0.10072525
000300 0f 76 d9 bd 27 5b bc 3d 48 69 4d be d8 1c 1c 3d
       -0.10618221 0.091970734 -0.20059693 0.038113445
000310 4d 9c 30 be 57 c5 af 3d 0f e3 83 bb 1f 2b 53 bd
       -0.17247124 0.085825615 -0.00402487 -0.051554795
000320 17 6b 1e 3e 48 5f 4d 3c 6c 8f b8 3c 21 0d 0b 3e
       0.15470539 0.012534924 0.022529326 0.13579227
000330 2c ec 8e 3e c3 96 dc 3d 1d f2 09 3e d1 32 e1 3c
       0.2791456 0.10770943 0.13471265 0.027490051
000340 7b 0a c1 3c 23 82 d4 3d db a6 50 be be 72 24 3e
       0.023564568 0.10376384 -0.2037615 0.16059396
000350 e0 f0 96 bd 75 42 8e 3c 06 7c 31 3d c8 40 c2 3c
       -0.07370162 0.017365674 0.04333117 0.02371253
000360 7c 2a a7 bc 65 88 a8 bd 18 cc 14 3e 5f f6 01 bc
       -0.020406 -0.0822914 0.1453098 -0.007932275
000370 01 bf 16 bb 1a 87 2b 3e e4 44 58 3d 70 2a af 3d
       -0.002300203 0.16750756 0.052800074 0.08553016
000380 4f 33 9a 3c 81 cd 08 bd 18 39 df 3d 4c 85 29 3e
       0.018823294 -0.03339911 0.10899562 0.16554755
000390 ea ac d9 3d 2a 99 b5 3d cf 30 c4 3d ac 66 f7 bc
       0.10628684 0.08867104 0.09579622 -0.030200325
0003a0 27 01 e9 bc 5d 82 b7 bd a7 a7 4f bc 27 4b d4 bd
       -0.028442932 -0.08960412 -0.012674249 -0.10365897
0003b0 ae f0 9c 3d 0a 39 46 bd 90 c5 ef 3d 46 23 89 3c
       0.076630935 -0.04839424 0.11707604 0.016740452
0003c0 32 a3 5f 3e 78 9a b4 3d 69 bd 6a 3d 45 f8 4c be
       0.21839598 0.08818525 0.05730954 -0.20016582
0003d0 51 c8 7e 3c 25 09 74 3c 0b 09 a8 bc 4c 6e 3f 3d
       0.015550689 0.014894758 -0.020512125 0.046736047
0003e0 46 9d c0 3d b9 00 7e be 52 02 c1 bd 12 15 5d 3c
       0.094049975 -0.24804963 -0.09424271 0.013493793
0003f0 47 06 38 3d 29 c6 a8 bd 7a c9 7f bd 09 2b 2f be
       0.04492786 -0.08240921 -0.062448002 -0.1710626

network_body._body_endoder.seq_layers.2.bias f4 [128]
000000 4f 04 86 bc 70 f6 42 3d b3 19 b0 3c 40 08 ed 3c
       -0.016359476 0.047598302 0.02149663 0.028934598
000010 9e af f9 3c d6 27 6f 3d e2 7c c8 3b 3a bc b4 3a
       0.030479249 0.0583876 0.006118403 0.0013789006
000020 9b ec 25 3d bd df be 3c 20 06 87 3d 12 a0 e3 3c
       0.040508848 0.023300046 0.06592965 0.027786288
000030 c3 ce 41 3d 68 c3 31 3d f9 df e0 3c e7 fb 80 3b
       0.047316324 0.043399245 0.027450548 0.003936279
000040 aa 34 83 3b 58 75 b5 3b 43 a2 b8 3c 6d cc a1 3b
       0.004004081 0.00553767 0.02253831 0.0049376995
000050 38 3f ee 3c d0 ff 38 3d 1e 27 3b 3c 7d c3 cb 3c
       0.02908288 0.045165837 0.0114229005 0.02487349
000060 10 32 ce 3c 09 88 fd 3c 76 83 8c 3d 09 f3 3b 3d
       0.025170356 0.030948656 0.06861012 0.045886073
000070 04 be d8 3c 7c 3f b6 3d ae 8d 0d 3d e9 26 96 3c
       0.026457794 0.088988274 0.034558944 0.0183291
000080 23 b8 4e bc 86 d0 16 3d 23 21 8c bb 88 52 0d 3d
       -0.012617144 0.036819957 -0.004276411 0.034502536
000090 0d 4d 22 3d 52 42 98 3a 72 66 10 3d 91 f7 00 3d
       0.039624263 0.0011616445 0.03525395 0.031486098
0000a0 96 d5 b0 3c a9 69 d9 3b cd 59 65 3d 77 6c 82 3c
       0.02158622 0.00663491 0.055993844 0.01592086
0000b0 8c 64 03 3d 11 12 ac 3c 5a 0c 71 3d ad 2f 23 3b
       0.03207831 0.021004708 0.05884967 0.0024900243
0000c0 46 da 07 3d 05 51 a6 bc 8b 1a be 3c f4 ac 54 bc
       0.033167146 -0.020302305 0.023206016 -0.012980688
0000d0 60 05 4a 3d cc 49 50 3d 94 59 eb bc 17 07 9c 3d
       0.049321532 0.05085163 -0.028729238 0.0761854
0000e0 d0 a8 fe 3c 3a 81 3d bc d4 61 b9 3b 94 98 98 3c
       0.031086355 -0.011566455 0.005657414 0.018627442
0000f0 40 f2 23 3c 9a 1b eb 3c 67 ae 00 3d 6e ce fb 3c
       0.010006487 0.028699685 0.031416323 0.030738082
000100 c2 6e 7d 3c 82 f9 62 3c 0f 65 23 3d b1 57 e4 3c
       0.015468301 0.013853433 0.0398913 0.027873846
000110 75 c7 ae ba 6b 73 8f 3d 28 61 6f 3d 13 d9 3f 3d
       -0.0013334589 0.07004436 0.058442265 0.046837877
000120 51 fd 4f 3d 8f 20 2d 3d a5 30 94 3c f5 6a f3 bb
       0.05077869 0.04226738 0.018089602 -0.0074285218
000130 05 17 2c b9 a2 00 ea 3c f9 02 4e 3d 79 9b ed 3b
       -0.00016411774 0.028564755 0.050295804 0.0072512
000140 8a 0f aa 3c e1 cc 70 3d d0 38 03 3d c7 a9 04 3c
       0.020759363 0.058789138 0.032036602 0.008097119
000150 ac 8c eb 3b 9b b9 2a 3d 72 ba 00 bd 28 0b 2f 3d
       0.0071884003 0.041680913 -0.031427808 0.04273525
000160 e1 bc c1 3c 21 9f 9d 3d 21 32 96 3b 34 e2 60 bc
       0.023649635 0.07696367 0.0045836126 -0.013725806
000170 c0 f0 1b 3c 3c b0 78 3d de 61 c1 3c 78 03 ce 3c
       0.0095178485 0.060714945 0.023606237 0.025148138
000180 cf c1 3c 3a f5 b1 0d 3d aa 5c 82 bb 7f 65 82 3d
       0.00072005106 0.03459354 -0.0039783316 0.06367015
000190 8d 95 02 3b d9 0a 9f 3c 11 f1 f3 3b 9c 30 13 3d
       0.0019925565 0.019414352 0.007444509 0.03593503
0001a0 28 d2 1f bb c4 76 e9 3c 3b 06 9d 3c 7c 15 cc 3c
       -0.0024386737 0.028499015 0.01916801 0.024912588
0001b0 e1 7c 28 3d 07 cb 38 3c c7 74 bb bb 7c 6c 8b 3c
       0.04113472 0.011278874 -0.005720708 0.017019503
0001c0 52 c3 df 3b 80 f0 3c 3c f7 f5 14 3d 4d d6 43 3c
       0.006828704 0.011531949 0.036367383 0.011952949
0001d0 1e 1c 0b 3d cb 8f 5d 3c 82 ee 78 3c 24 69 b8 3c
       0.03396236 0.013523052 0.015193583 0.022511072
0001e0 d3 51 9d 3b 00 64 e0 3c ee fe 1a 3d 40 b4 3f 3c
       0.004801014 0.027391434 0.037840776 0.01170069
0001f0 63 9d 55 3d 40 a4 0a 3c 2f 5b d0 ba fc 77 a2 3d
       0.05215205 0.008462012 -0.0015896315 0.079330415

action_model._discrete_distribution.branches.0.weight f4 [3, 128]
000000 46 87 12 3d 80 9a 6e bc df 97 9c 39 63 21 ce bb
       0.035773538 -0.014563203 0.0002986779 -0.006290601
000010 7c 19 9f 3c d9 d1 42 bc 49 87 be 3c 73 1c 18 bc
       0.019421332 -0.011890852 0.023257868 -0.009284127
000020 c1 71 85 3d 73 91 07 bd 33 80 ef bc 35 ad 42 3d
       0.065158375 -0.033097696 -0.029235935 0.047528464
000030 a1 8c 2f 3d 25 89 07 bc ff f3 ab 3b b2 56 05 3c
       0.042858724 -0.008272444 0.0052475925 0.008138346
000040 cd 09 05 3c 32 5d ad bb 20 58 7f bb bf ca 27 3d
       0.0081200125 -0.0052906508 -0.0038962439 0.040964838
000050 b1 cb 87 bc 7e ca 9d ba 0e ba 04 3d 23 68 65 3d
       -0.01657662 -0.0012038497 0.032403998 0.056007516
000060 b4 d3 89 3d 90 7c 40 3c b0 0a f0 3c 50 cd 2c bc
       0.06729832 0.011748448 0.029301971 -0.010546997
000070 aa 54 7d 3d 84 e8 b0 ba 71 9b 83 3b f2 90 94 3d
       0.06184832 -0.001349703 0.004016333 0.072542086
000080 b9 75 38 3d 25 6e 56 bd 4a fb 73 3d 44 ae db 3a
       0.045034144 -0.052351136 0.05956582 0.0016760309
000090 01 34 65 bc bf 6c 42 bc bf a1 ce bc 54 7a 6c bc
       -0.0139894495 -0.011866747 -0.02522361 -0.014433462
0000a0 2e 0e 68 bc 16 16 08 3d 5f 4f 14 bc 87 1f d2 bc
       -0.014163537 0.033224188 -0.009052127 -0.025649799
0000b0 f4 6d 13 bd 79 49 33 3b 5a c8 90 3d d9 b3 04 bd
       -0.03599353 0.0027357026 0.07069464 -0.03239808
0000c0 54 1b fc 3c d3 5e 5f 3c 58 51 fb 3c 45 9b 15 3d
       0.03077475 0.013633448 0.030678436 0.03652503
0000d0 10 78 28 3d 50 c0 06 3d ed ea 24 3d 56 01 af bb
       0.041130126 0.032898247 0.040263105 -0.0053407354
0000e0 ec 9a 22 3d d8 ae 82 3b f2 76 37 3c 83 7a 9c 3c
       0.039698526 0.003988128 0.011197792 0.019101387
0000f0 df f8 ca 3b 67 ee 7b bc ba 87 08 3d 42 04 18 bc
       0.0061942185 -0.015376664 0.033332564 -0.009278359
000100 a1 61 e1 bb 61 a2 89 3c 18 20 99 3b ca fa 41 3d
       -0.0068780934 0.016801061 0.0046730153 0.04735831
000110 ec f4 da 3b 58 b8 f6 3b 25 03 a1 bc 49 a1 66 3c
       0.006682029 0.0075292997 -0.01965482 0.014076539
000120 dd 58 df 3b 1f 2a 99 3c 13 2d 11 3d 8f cf e3 bb
       0.0068160133 0.018696843 0.035443377 -0.006952233
000130 9c 64 2f 3d 38 d3 59 3c 69 d1 b8 bc 36 15 fd 3b
       0.042820558 0.013294987 -0.022560792 0.007723476
000140 37 30 ed 3c e7 aa d3 39 ed 50 1b 3d d0 a8 2c 3d
       0.028953655 0.00040372388 0.037918974 0.04215318
000150 cb c7 71 bc 61 66 2a bd 77 e0 55 bc 06 a6 1d 3c
       -0.014757107 -0.041601542 -0.013054005 0.009622103
000160 c8 36 bd 3a 59 4b 88 bb c2 7e 3d 3b 86 91 8b 3d
       0.0014435882 -0.0041593728 0.0028914665 0.06814866
000170 e6 8b c0 3c 55 81 8a bc fd e8 93 3d 3f 06 e6 bb
       0.023504209 -0.016907373 0.07222173 -0.0070197876
000180 07 68 8f 3d 01 09 41 bd de 47 ae 3c ba cd ad bc
       0.070022635 -0.047127727 0.021274503 -0.021216262
000190 7e 87 2d 3d 72 d4 db 3c 6d 24 38 3d 5c 0d 09 bc
       0.042365544 0.0268347 0.044956613 -0.0083650015
0001a0 36 60 eb bc 96 49 99 bc 90 12 eb bc f0 bb c7 3c
       -0.0287324 -0.018711846 -0.028695375 0.024381608
0001b0 ba 1d 2b bc 2b 5a 39 3c 0a 5e 96 3c f1 ff bd bc
       -0.010444099 0.011313002 0.018355388 -0.023193331
0001c0 8d b8 1b bc d3 f7 01 3d 54 21 93 bb d1 6c 5a 3d
       -0.00950445 0.031730484 -0.004490057 0.05332643
0001d0 9a 5f 1d bc fa 55 64 3d 59 7c b2 bc 04 28 e4 3c
       -0.009605313 0.055746056 -0.02178781 0.027851112
0001e0 8c 8f a1 3d 3f 0a a3 3c 09 7f d6 3c c1 8e 05 bd
       0.078887075 0.019902347 0.026183622 -0.032606844
0001f0 28 75 1b bd 36 dd a2 3c 34 90 26 3c 40 67 6e bc
       -0.037953526 0.019880872 0.010166217 -0.014550984
000200 c6 9f 39 bd 1d 69 ce 3c 01 b3 b1 3b a2 2d be bc
       -0.045318387 0.025196606 0.0054229503 -0.023215119
000210 c4 3a 28 bc 4a 11 bd 3c e4 12 c3 bc 3e 76 a0 bc
       -0.010267917 0.023079533 -0.023812719 -0.019587632
000220 e9 49 ed bc 78 b4 0f 3d df 7e 32 3d 42 a2 4e bd
       -0.028965907 0.035084218 0.043578025 -0.05044771
000230 ef 73 9c bc 6b 0a 1f 3b 91 45 58 3b 9f b8 0b 3c
       -0.01909825 0.0024267684 0.003300045 0.008527904
000240 6d 95 04 bd 32 c3 2c bd ed ab 34 3c a9 b1 92 bc
       -0.032369066 -0.04217834 0.011027318 -0.01790698
000250 3f 49 bb 3c 73 24 db 3c d6 f1 17 bd d9 cf 88 bd
       0.022862075 0.026750779 -0.037095867 -0.06680269
000260 59 45 9d bd 28 2d 25 bc 8d 51 dd bb 95 8d b9 3c
       -0.07679243 -0.010081567 -0.0067541064 0.02265052
000270 c7 2d 60 bd 76 75 56 3c ec 1d 34 3d d3 8d 58 bd
       -0.054731157 0.013089528 0.04397385 -0.05286963
000280 65 e0 0f bd 68 8f dd 3b 2f c7 48 bd 24 ce 79 3b
       -0.03512611 0.00676148 -0.04901808 0.0038117254
000290 86 33 36 3d ba fe c4 bc e5 7c e5 3b 7d ff a6 3c
       0.04448273 -0.024047244 0.007003414 0.020385498
0002a0 08 c7 37 3d 61 5a bf bc c0 71 a6 3c 0f 08 b1 3c
       0.044867545 -0.023358526 0.020317912 0.021610288
0002b0 3c 11 89 3c 1d 18 2b 3d 50 89 8c bd 81 05 5d bc
       0.01673185 0.041771043 -0.06862128 -0.013490082
0002c0 25 33 61 bc 4c 1c cb 3b 01 32 e1 bc 4c d8 15 bd
       -0.013745104 0.0061984416 -0.027489664 -0.03658323
0002d0 d3 fd 00 bd 3d b7 30 3d f0 18 3e bd 1d 7e b7 bb
       -0.031492066 0.0431435 -0.0464105 -0.0055997507
0002e0 be e7 81 bd cf a5 d2 bc 1c fb 52 bb f8 37 1c 3c
       -0.063430294 -0.02571383 -0.003219313 0.009534828
0002f0 95 58 ce 3b 30 be 1d 3d 09 ec f9 3a 12 95 54 3c
       0.006297181 0.038511455 0.0019067536 0.012974994
000300 21 18 0f bd 70 57 ad 3c 2a 3c 0c 3d b6 75 09 bd
       -0.03493512 0.021159858 0.034237064 -0.033559524
000310 a6 b1 7d bc b6 56 17 3c ba b7 0b 3d fa aa 6b 3c
       -0.015484249 0.009236982 0.034110762 0.014384026
000320 bd 39 95 3c 8f 5b 83 bd 0b d3 63 bd 86 81 f1 3a
       0.018216008 -0.06413948 -0.055621188 0.0018425442
000330 ed 02 0e bd a0 4c d0 3c 23 ed 52 3c 0f a9 3b 39
       -0.03467076 0.025427163 0.012873921 0.00017896689
000340 33 49 7c bc 18 5f 99 bc 04 37 39 bc d3 24 38 bd
       -0.015398311 -0.018722102 -0.011304621 -0.044956993
000350 22 f6 1e bc d4 d3 80 3c ff 97 be bc ca 00 5e bc
       -0.009702237 0.015726008 -0.023265837 -0.013549993
000360 1d 0e 2b 3c 7b 60 18 bc e6 f7 5b bc dd 29 8e bd
       0.010440377 -0.0093003465 -0.013425803 -0.069415785
000370 09 63 2f bd a7 b9 3a 3d c8 95 0f bd 8a d8 1c 3c
       -0.042819057 0.045587208 -0.035054952 0.009573111
000380 fa f6 dc bd f7 7d 54 3d 88 88 81 bd f0 90 63 bc
       -0.107892945 0.051877942 -0.063248694 -0.013889536
000390 66 3d b9 bc d1 4e 9d 3c 06 40 df bb 6c d1 4d bb
       -0.022612285 0.019202622 -0.006813052 -0.0031405343
0003a0 da 82 d4 3b ea 03 24 3d 48 28 cc 3a 63 bc 3b bd
       0.0064853253 0.040042795 0.001557597 -0.045833956
0003b0 66 e5 67 3c 8d 91 21 bd 26 b6 2b bd 82 4c e1 bc
       0.014153814 -0.03944545 -0.041921757 -0.027502302
0003c0 05 1f 25 bd 57 09 64 bd 6d 6a 09 3c 4f f1 4c bd
       -0.040312786 -0.05567297 0.00838719 -0.050034817
0003d0 49 d4 38 3d 2d 3d e2 bc 09 53 39 bb 1f 97 3a bc
       0.045124326 -0.027617062 -0.0028278253 -0.011388569
0003e0 f0 92 93 bd 72 fa b2 3c 22 8b 11 bd f5 60 84 3a
       -0.072057605 0.021847937 -0.035533078 0.0010099696
0003f0 b4 7c 23 3d a7 2f 2e bc 9d 70 39 bc 42 d4 95 3c
       0.039913848 -0.010631478 -0.011318353 0.018289689

action_model._discrete_distribution.branches.0.bias f4 [3]
000000 12 ce 40 bc 04 c7 da 3b a8 0f fb 3b
       -0.011767881 0.0066765565 0.0076617785

action_model._discrete_distribution.branches.1.weight f4 [9, 128]
000000 35 fb a7 3c 44 92 a6 bc 70 ad 01 3d 40 8b 98 3d
       0.020505527 -0.020333417 0.031659544 0.07448435
000010 6a 9b 57 bd f4 de c7 bc 32 6c 0f bc 9b f3 54 3d
       -0.05263845 -0.024398305 -0.008753823 0.051990133
000020 f9 1f b6 bb 3d 48 92 39 fd ee a4 bc 87 6b 4b 3c
       -0.0055580107 0.00027901112 -0.02013349 0.012415773
000030 45 33 2d bd 33 f2 21 bb 2a da 39 3d c7 5f 11 bc
       -0.042285223 -0.0024711012 0.045374073 -0.008872933
000040 7e 46 15 bd ad 27 a1 3b fb 9b 12 bd d9 ee ae 39
       -0.03644418 0.00491806 -0.035793286 0.00033365822
000050 38 ca 31 bd 04 ca 06 bd c1 81 e7 3c cc c9 cb 3c
       -0.04340574 -0.0329075 0.028260114 0.024876498
000060 77 c7 20 3d 9d c5 44 3d 22 83 26 bd 82 46 f1 3c
       0.039252724 0.04804002 -0.0406524 0.029452566
000070 d4 f1 a7 3c 8e 40 b2 3c 92 de 59 3b a3 6a f7 3b
       0.020501055 0.021759298 0.0033244235 0.007550554
000080 74 af 95 3d f8 09 1b bd 98 89 8c bc b9 d2 b6 3c
       0.07308856 -0.037851304 -0.017155454 0.022317277
000090 f8 b9 b3 bc 91 76 48 3c 70 ec 8e 3c 99 1c f8 bc
       -0.021939263 0.0122353 0.017446727 -0.030287074
0000a0 eb b6 9f 3d 3f 5c e5 3c b3 32 9c bd 2a 7f d0 3c
       0.07798561 0.027998088 -0.076268576 0.025451262
0000b0 39 9f 43 3d 8f 5d 7f ba f6 03 8f 3d 04 4d 22 bc
       0.04775927 -0.00097414193 0.06983177 -0.009906057
0000c0 da 7a a7 3c 87 8c e1 3a 5e fb 4b 3d f8 78 30 3d
       0.020444322 0.0017208018 0.04980027 0.043084115
0000d0 61 5c 71 37 d8 04 15 bc 42 e1 ea 3b dc 83 43 3c
       1.4386228e-05 -0.009095393 0.007167966 0.011933293
0000e0 a6 6a 9c 3c ae 1d a5 bd 70 98 08 bc ac d6 86 bb
       0.019093823 -0.080623016 -0.008337125 -0.0041149464
0000f0 e0 14 82 3d 13 8a db 3b 28 20 a6 bc bf 16 7b bb
       0.06351638 0.0066998093 -0.020279005 -0.0038313118
000100 f2 36 1c 3d b4 20 7a bd d2 d2 aa 3c ae 2c f1 bc
       0.038138337 -0.061066344 0.02085248 -0.02944025
000110 79 21 c4 3c 0d ce 39 bd 5b 0f b7 3a ea 20 7f bd
       0.023941742 -0.04536252 0.0013966368 -0.06228725
000120 9b b9 73 bd 55 13 dd bc f3 23 42 3d ef a2 81 3c
       -0.05950318 -0.026986757 0.047397565 0.015824763
000130 32 e8 b1 3c c8 00 91 bd da be 0e bd aa 90 5c bc
       0.021717165 -0.07080227 -0.03484998 -0.013462225
000140 b4 f5 fb bc 32 65 a3 3c ea 4d 91 bc 31 6a 15 bb
       -0.030756809 0.019945715 -0.017737348 -0.002279889
000150 6d 95 b5 bc 19 02 00 bc 58 4c cf bc 05 a4 3f 3b
       -0.022165978 -0.007813 -0.025304958 0.002924205
000160 49 89 7f bd 58 7d 1d bd 7d 8f ff 3c 47 f7 f8 3c
       -0.062386785 -0.038449615 0.03119635 0.030391349
000170 47 60 7a bb 18 15 04 3d 8d 4f 3b 3c 70 12 ba 3d
       -0.0038204358 0.03224668 0.011432541 0.09085548
000180 b6 7b 43 3d 61 fa 60 3d c6 53 89 3d b4 39 ef 3c
       0.0477254 0.05492628 0.06705432 0.02920232
000190 1a 5d 1c bd ca 5b 5d bd bc f8 8e bd 8c 85 6d bd
       -0.038174726 -0.054042615 -0.06981036 -0.05798869
0001a0 24 f4 27 bd 23 cc 93 bc 4f ed 10 3d 28 95 6c bd
       -0.041004315 -0.018041676 0.035382565 -0.057759434
0001b0 59 c8 ab 3b 87 f0 16 bd 0d cd 0b 3b 59 df 69 3d
       0.005242389 -0.03685048 0.0021331937 0.057097767
0001c0 b7 51 5c bd 0d c4 18 3d 1a aa 5b 3d 12 fa 9d bd
       -0.053788867 0.037296344 0.05362902 -0.07713713
0001d0 ed d8 56 bd cc 67 72 3a ea 60 f6 bc 0b 9f 25 bd
       -0.05245297 0.00092470343 -0.03007551 -0.04043488
0001e0 4c 51 05 3d 32 9a 58 3d 3c 90 c7 bc 93 b9 18 3b
       0.032548234 0.052881427 -0.024360768 0.002330397
0001f0 51 fc 42 3d a0 73 21 bc 1e 41 26 3c bd f3 d9 3c
       0.04760391 -0.009854227 0.010147361 0.026605481
000200 7b 90 a7 bc 17 47 2b 3c f6 4b 4e bc d6 12 9f bb
       -0.020454636 0.010453961 -0.012591353 -0.0048545403
000210 c8 b3 f0 bc cc 20 73 bc bd 37 94 bb dd 0b 95 3c
       -0.029382601 -0.014839362 -0.004523246 0.018194133
000220 d2 b3 aa bd 4c 6d f2 bc 91 2c ed bc 4c b5 fc bc
       -0.08335079 -0.029593132 -0.028951915 -0.030848168
000230 c2 ed 0c bc 11 42 04 bd 18 1d 22 3c b9 09 c8 3c
       -0.008601608 -0.03228957 0.009894632 0.024418699
000240 51 00 59 bb 0e 50 35 bd ad 44 00 3d 7d e1 07 bc
       -0.003311176 -0.0442658 0.031315494 -0.008293507
000250 43 84 c2 3a 49 48 c1 3c 94 e1 98 3b 60 7b c2 bc
       0.0014840442 0.023594039 0.004665563 -0.02374047
000260 a2 67 5e bc fb 7f 2f 3d 11 31 82 3d 4d 67 83 3d
       -0.013574513 0.04284666 0.06357015 0.064161874
000270 82 e7 83 bc 78 ed 6a bc 7e cb 35 3d 7e 11 b3 bc
       -0.016101602 -0.0143388435 0.04438352 -0.021858927
000280 42 1b 68 3a a9 f8 2a bd f7 df 84 bc 99 30 37 3b
       0.00088541594 -0.041741047 -0.016220076 0.002795255
000290 33 d9 cd 3c 12 c9 06 bc af 5b 28 bd f2 a6 2c ba
       0.025127983 -0.00822665 -0.04110306 -0.0006586156
0002a0 ae 75 5a bc 2d 91 c9 3a 2d 37 ce 3c 57 9a 62 bc
       -0.013333721 0.0015378349 0.025172794 -0.013830743
0002b0 43 c6 86 3b 26 d6 57 3d 71 c1 8b bb 05 09 63 3a
       0.00411299 0.052694462 -0.0042650034 0.0008660707
0002c0 4a bb 23 bd cb d6 d2 3c 57 a6 5d bd d4 ed 56 3a
       -0.039973535 0.025737187 -0.054113712 0.00081988913
0002d0 05 31 21 3d dc aa 25 3d ba bf a9 3b 9c 33 91 3c
       0.03935339 0.040446147 0.0051803263 0.017724805
0002e0 6d 06 02 bd cb 8c b8 bc 84 34 c0 bc cf 58 ed bb
       -0.03174441 -0.022528073 -0.023462541 -0.007243253
0002f0 b3 e4 96 3c aa d9 66 3d 4a 6e 37 3d 40 14 61 bc
       0.0184196 0.056359924 0.044782914 -0.013737738
000300 62 32 77 bc 0d 18 25 bc 81 86 d5 3b f5 a6 cf bb
       -0.015087696 -0.010076535 0.0065162783 -0.0063370415
000310 b9 60 65 bc e4 36 37 bd c8 02 38 bb 7f 29 86 3c
       -0.014000111 -0.044730082 -0.002807783 0.016377209
000320 de 7d ab 3b 30 a6 78 3c 41 19 a0 bb aa 72 22 bc
       0.0052335104 0.015176341 -0.004885823 -0.009915033
000330 0d 38 64 bc 09 6d f1 bc c8 1c e1 bc fa a2 7a bd
       -0.013929379 -0.029470937 -0.027479544 -0.061190583
000340 cf 3c 18 bd d2 1c 62 bc 21 fa db 3c 6a 71 13 3c
       -0.037167367 -0.013800817 0.02685267 0.008999208
000350 ba db 51 bc dd 57 cd 3b 33 f0 d4 bc 2c 7a 80 bb
       -0.012808735 0.0062665776 -0.025993442 -0.003920814
000360 8c b4 d5 3c 78 53 05 3d d8 9e ad bc 23 4e af bc
       0.026087068 0.032550305 -0.021193907 -0.021399563
000370 fc 24 0c bd 33 54 84 3c 6f 79 e1 bc 40 b8 4d 3c
       -0.03421496 0.01615343 -0.027523724 0.012556136
000380 57 d0 9a bc 4b cd 88 bb af 3b f1 bc 8d 63 11 3d
       -0.018898172 -0.0041748635 -0.029447405 0.03549533
000390 40 8e 34 3d d8 1f 2a bd 98 9b 96 bc f6 ff 32 bd
       0.044080973 -0.041534275 -0.01838474 -0.043701135
0003a0 6c 0d 0b bd 44 5a 2d bc 84 14 0a 3c a9 b7 03 bc
       -0.033948347 -0.010580603 0.008427743 -0.008039393
0003b0 b1 46 b3 3c 5e 64 27 bc a6 8f fe bb 2d 7c f4 3b
       0.021884294 -0.0102168005 -0.007768589 0.007461092
0003c0 6e 8d f8 3c 3f e9 7d bc 58 06 d6 bc 71 ff 6a bd
       0.030340876 -0.015497505 -0.026126072 -0.057372514
0003d0 d6 38 aa 3c f5 a0 0c bb a0 41 0a bd 62 a8 b8 bc
       0.020779055 -0.0021458243 -0.03375399 -0.022541229
0003e0 b2 77 de 3b e3 e7 80 3c 5d 81 e0 3b f9 9d 8e 3b
       0.006789171 0.015735572 0.006851359 0.004352328
0003f0 43 be 42 3d ba c0 4e 3c f2 b9 13 3c a7 09 34 3d
       0.04754473 0.012619192 0.009016501 0.043954518

action_model._discrete_distribution.branches.1.bias f4 [9]
000000 b2 75 59 bc 0f 67 ac 3c a0 f3 4d 3c 81 59 1e 3c
       -0.01327269 0.021045236 0.012570292 0.009664894
000010 a0 ab f0 3b 1c 36 93 bc 77 7a 06 bb ca 12 d4 ba
       0.007344678 -0.017970137 -0.0020519772 -0.0016179916
000020 98 50 04 bc
       -0.008075856

action_model._discrete_distribution.branches.2.weight f4 [225, 128]
000000 cd 7d 03 bd f3 2b 70 bc 93 00 87 bc 92 77 6f bc
       -0.032102395 -0.014658916 -0.016479766 -0.01461591
000010 82 fe 18 3c c6 b7 fb bc b9 37 a0 3b 04 33 a4 3b
       0.009338023 -0.030727278 0.004889455 0.0050109643
000020 5e 8a 05 bd d3 dc 4c 3c 0a a6 93 3c 67 ec a1 ba
       -0.03260266 0.0125038205 0.01802351 -0.0012353779
000030 99 10 2e bd 99 4c 56 3d 74 c8 f7 bb de c5 67 bc
       -0.042496298 0.052319143 -0.0075617377 -0.014146296
000040 04 59 e6 bb 76 18 e3 ba d0 2b f6 bc 31 2e 61 bd
       -0.0070296545 -0.0017326016 -0.030050188 -0.054975692
000050 2a 7d 44 bd 3e f2 8a 3c eb da be bc c0 b3 f8 bc
       -0.04797093 0.016961213 -0.023297748 -0.030359149
000060 a6 07 62 bb 84 6c 19 bb 95 3b 76 bc e8 2b bd bb
       -0.0034489422 -0.0023410628 -0.015028854 -0.0057730563
000070 f4 f8 32 bc 71 70 8c bc 76 04 fd bc 4d b7 6e bc
       -0.010923613 -0.01714346 -0.030885916 -0.0145700695
000080 43 ac c8 3c 0e 6e 79 3c 50 bd 95 bc 80 e2 03 bb
       0.024496203 0.015223993 -0.018278748 -0.0020124018
000090 9d d3 f2 bc 6d dd a2 bc db fd 30 3b b0 09 1e bd
       -0.02964192 -0.019880975 0.0027006778 -0.038583457
0000a0 4f 64 9e ba 91 1d ef bc 03 30 17 bc 54 12 15 3c
       -0.0012084338 -0.029188903 -0.0092277555 0.009098608
0000b0 49 d3 49 3c 0d a7 35 bd 86 95 ee 3c 6a 4e 70 3c
       0.012318441 -0.044348765 0.029124033 0.014667133
0000c0 ec 0b 67 bc a3 0f 98 bc 73 d5 e5 bc 19 c4 18 bd
       -0.0141019635 -0.018562144 -0.028055882 -0.03729639
0000d0 a3 44 3d bd 53 e2 40 bd cd 58 81 3c e6 33 0a 3b
       -0.046208035 -0.04709084 0.015789414 0.0021088063
0000e0 59 fb 7c ba 67 e7 b5 3b 82 7d 75 3b 48 66 64 bc
       -0.0009650491 0.005551267 0.0037458842 -0.013940401
0000f0 85 33 32 bd 5f e1 15 3c 18 0e 43 bd 49 e1 05 3c
       -0.043506164 0.009147971 -0.047620863 0.008171388
000100 36 43 38 3c 20 cd 17 bd ed 48 84 bc 6a 33 a3 bc
       0.011246493 -0.037060857 -0.016148055 -0.019921977
000110 66 2f 5f bc 4a e3 90 b9 94 7f c9 3c 81 0d 76 39
       -0.0136221405 -0.00027635164 0.024596967 0.00023465419
000120 17 2c 3b bc 10 31 94 ba 7a d2 6b 3c ab b8 6a bd
       -0.011424086 -0.0011306126 0.014393443 -0.05730502
000130 c4 99 02 bd 1c 7d 17 3b 0d 36 7a 3b 20 d1 d0 bc
       -0.031884924 0.0023115342 0.003817919 -0.025490344
000140 db 53 6a bd dd 66 7e bc 49 0a 41 bd 44 67 79 bd
       -0.057208877 -0.015527454 -0.04712895 -0.060889497
000150 7d 59 e8 bb 05 ee 68 bd a5 aa 8e bd 63 9d c3 bc
       -0.007090746 -0.056867618 -0.069661416 -0.023878759
000160 a5 3b 29 bc 92 0f 55 bb bb f8 a7 3c 94 c0 39 bd
       -0.010329162 -0.0032510501 0.020504346 -0.045349672
000170 66 ef 07 bd 2b ad 7e bc a7 ee 11 bd 6d cf 03 3c
       -0.033187293 -0.015544216 -0.035627987 0.00804506
000180 f9 87 5b 3b 9f 86 08 3d b0 72 e1 bc 7e b1 71 3c
       0.0033497794 0.03333151 -0.027520508 0.01475179
000190 bf 69 67 bd 0d fd 7d bd d1 f2 0b bd db eb 8a bc
       -0.05649733 -0.062008906 -0.034167115 -0.016958168
0001a0 40 2d 36 bd 11 7c 3d bc 10 6d 2c bc ca d8 2e bc
       -0.044476748 -0.011565224 -0.010524049 -0.010671804
0001b0 05 17 d7 bc fe aa ae bc 21 bb bc 3c 42 f4 d9 3b
       -0.026256094 -0.02132177 0.023038449 0.0066514323
0001c0 3e a0 57 bc 7a 63 9f bc 1e bf 2e bd 88 f3 61 bc
       -0.013160763 -0.019456614 -0.042662732 -0.0137909725
0001d0 75 f5 9a 3b 2a 98 cc bc e5 40 09 bd cd de 17 3a
       0.004728968 -0.024974901 -0.033509154 0.0005793393
0001e0 8f c0 9c 3b 44 ce 83 bd 66 e2 38 bd c8 fe 24 bd
       0.004783697 -0.064358264 -0.045137785 -0.04028204
0001f0 5f 41 88 3c 7b 9f a8 ba 79 b4 28 bc 40 73 00 bc
       0.016632734 -0.0012864912 -0.010296934 -0.007839978
000200 5e df c2 bc 96 92 8a bc e2 43 ca bc fc 6d 73 bc
       -0.02378815 -0.0169156 -0.024690572 -0.014857765
000210 43 46 1f 3d c6 53 92 3c 2a 9b b1 3c e6 7a e8 bc
       0.038885366 0.017862212 0.021680433 -0.028378915
000220 3a f3 b1 bc 45 db 43 3b ee a9 32 bc ff f5 f8 bc
       -0.021722425 0.0029885333 -0.010904772 -0.030390738
000230 a2 bb 22 bc 19 ef d6 b9 25 b5 67 3c 6a b1 c3 bc
       -0.00993243 -0.00040995402 0.014142309 -0.023888309
000240 ce 3d 23 bd 3c 7f cd 3b a3 75 be bb 5c 89 38 bd
       -0.039853863 0.006271271 -0.0058123632 -0.04505287
000250 ba 5b 91 3c 59 59 30 3b 0a c0 96 3a 1f 68 00 bd
       0.017743934 0.0026908724 0.0011501324 -0.031349298
000260 f7 ea 82 bd aa c5 43 bd 3c 39 d0 ba 73 78 05 bd
       -0.06392472 -0.04779593 -0.0015886198 -0.032585572
000270 6c d5 5a bc 04 6a 31 3c 0b 14 0a bd 9b 98 c8 bc
       -0.013356548 0.010828499 -0.03371052 -0.02448683
000280 aa c1 a6 bc 64 9d ab 3c 7a 92 d6 3c ac a2 a9 bc
       -0.020356018 0.020949073 0.026192892 -0.02070745
000290 ae c0 42 3c 94 a6 2c bc 4f c6 0f 3d c2 64 9c 3c
       0.011886759 -0.010537762 0.03510123 0.019091014
0002a0 cc bb 64 bc 0a b4 f9 bb cd 03 03 3d d9 c4 d0 3c
       -0.01396079 -0.0076203393 0.031986047 0.02548449
0002b0 47 31 a5 bc d1 f8 f3 b8 ce b7 40 bd 35 98 cb bb
       -0.020165099 -0.000116334886 -0.04705029 -0.006213213
0002c0 2e 06 4a 3c 44 25 0d bd 9b 0b 45 bd 79 e3 15 bc
       0.012330575 -0.034459367 -0.04810677 -0.009148472
0002d0 e1 c6 75 bd 19 7d a4 bb fe 67 f4 bc dc 3d f2 3b
       -0.06000412 -0.0050197956 -0.029834744 0.007392628
0002e0 d2 69 b7 3c c3 25 29 bc 13 c8 5c bd 28 a7 0e 3d
       0.022389326 -0.0103239445 -0.053901743 0.03482738
0002f0 fa ff 60 3d 00 f3 23 3d f7 85 ce 3c 0f 9b 54 bc
       0.05493162 0.040026665 0.025210364 -0.012976422
000300 1c 70 09 bd 7f 53 2c bc 5c 0c 9d bc 67 0d 94 3c
       -0.03355418 -0.010517954 -0.019170932 0.018072797
000310 24 5f 0d bd ca bb 5e 3c cf ab f8 3c ef 4a cd 3b
       -0.03451456 0.013594577 0.030355362 0.0062650363
000320 da 55 2a bb 63 6a 38 bd b5 6a d1 bc 4b bb 22 bc
       -0.0025991113 -0.045023333 -0.025563577 -0.009932349
000330 60 ef 1f bc de 7d 42 bc 7f 63 52 3d a7 53 e2 bc
       -0.009761661 -0.011870829 0.051364418 -0.02762778
000340 c4 78 b0 3b 59 99 c1 3b 5a 1a 84 bc 82 b3 2a bd
       0.00538549 0.005908173 -0.016125847 -0.0416751
000350 e5 26 5e 3c 78 fd 4b 3c d3 05 80 bc 54 a3 9f 3a
       0.013559078 0.012450568 -0.015627777 0.0012179413
000360 32 a6 11 bc ba 0e 5e bd f9 60 18 bd fa 5a 92 bc
       -0.008889722 -0.054213263 -0.037201855 -0.017865647
000370 42 13 3e 3b 73 ef 18 bc 59 e1 43 bc e7 07 98 bb
       0.0029003178 -0.009334433 -0.011955583 -0.004639614
000380 ea f2 e8 bc 71 5c eb 3b 05 79 c3 bc 80 e3 15 3d
       -0.028436143 0.0071826507 -0.023861418 0.036593914
000390 01 7e 11 38 1e d1 1b 3d 88 51 1a 3d 04 9c 10 bc
       3.4688044e-05 0.038041227 0.03767541 -0.0088262595
0003a0 e0 b5 dc 3c 48 12 08 bd 62 23 21 bd 9a bd 91 3c
       0.026942194 -0.03322056 -0.039340384 0.017790604
0003b0 dd 44 29 bc b5 aa 2b 3c ec be b0 bc 7f 92 0a bc
       -0.01033136 0.010477711 -0.021575414 -0.008457779
0003c0 e1 bc 41 bc d3 24 c7 bc d7 37 a1 bc bc 08 03 bd
       -0.011824817 -0.024309551 -0.019679947 -0.03199075
0003d0 d9 4f 00 3c f6 47 5d 3b 2c 42 cf 3c aa ff 03 bc
       0.007831537 0.0033764816 0.025300108 -0.0080565605
0003e0 20 99 d4 bc 53 33 45 3b 33 1b ad bc 9d bf 47 3c
       -0.025951922 0.0030090406 -0.021131134 0.01219168
0003f0 55 6e 29 3d ef f7 be bb c1 b6 cf bb 9a 3c 42 bd
       0.041364986 -0.005827896 -0.0063389246 -0.047421075
