Unity/RL-Framework/Assets/ML-Agents/Models/Experiment_3/AttackerBehavior.onnx (onnx, 208734 bytes, 11 tensors)

discrete_act_size_vector f4 [1, 2]
0	0x40400000	3.0
1	0x41100000	9.0

network_body.observation_encoder.processors.0.normalizer.running_mean f4 [246]
0	0x3fa524d3	1.2901863
1	0x3f9ea619	1.2394439
2	0x3fab9762	1.3405573
3	0x3fced55e	1.6158864
4	0x3fc3af14	1.5287805
5	0x40014c50	2.0202827
6	0x3fa07093	1.2534355
7	0x3fa242fa	1.267669
8	0x3fa31c28	1.2742968
9	0x3fa5116b	1.289594
10	0x3fcb7bc3	1.5897144
11	0x3f9f5f36	1.2450931
12	0x3f9e0b96	1.2347286
13	0x3fb8f379	1.4449302
14	0x3faef663	1.3668941
15	0x3fa398df	1.2781028
16	0x3fad5dcc	1.354425
17	0x3ffffea5	1.9999586
18	0x3ffffea5	1.9999586
19	0x4078b3ce	3.8859744
20	0x40055d70	2.083828
21	0x3fd558eb	1.6667761
22	0x3ffffea5	1.9999586
23	0x3ffffea5	1.9999586
24	0x3ffffea5	1.9999586
25	0x3ffffea5	1.9999586
26	0x3fab4f0d	1.3383499
27	0x3fa8e6d4	1.3195443
28	0x3faef9f3	1.3670028
29	0x3f9be818	1.2180204
30	0x3fb915b0	1.4459743
31	0x3fd324a7	1.649556
32	0x3ffffea5	1.9999586
33	0x3ffffea5	1.9999586
34	0x3fa62261	1.2979242
35	0x40a78a21	5.2356114
36	0x3fafcea2	1.3734934
37	0x3ffffea5	1.9999586
38	0x3fa67021	1.3002969
39	0x3fae3ff5	1.3613268
40	0x3ffffea5	1.9999586
41	0x3f9dad5b	1.2318529
42	0x3fbf60e1	1.495144
43	0x3f9c2d29	1.2201282
44	0x3fa61016	1.2973659
45	0x3ff415d2	1.9069159
46	0x3fbc5669	1.471387
47	0x3ffffea5	1.9999586
48	0x3ffffea5	1.9999586
49	0x3fb61e3f	1.422798
50	0x3fb1fa94	1.3904595
51	0x3fbcec59	1.4759628
52	0x3ffffea5	1.9999586
53	0x3fbc110c	1.4692702
54	0x40089a6b	2.134425
55	0x3ffffea5	1.9999586
56	0x3fb4cdcf	1.4125308
57	0x3fab743d	1.3394848
58	0x3f987589	1.1910869
59	0x3f9ec3d7	1.2403516
60	0x3fa83ac0	1.3142929
61	0x407471aa	3.8194375
62	0x3ffffea5	1.9999586
63	0x3ffffea5	1.9999586
64	0x407f9998	3.9937496
65	0x40139a70	2.306301
66	0x3fab82eb	1.3399328
67	0x3ffffea5	1.9999586
68	0x3fac18a7	1.3445023
69	0x3f9dfd5c	1.2342944
70	0x3ffffea5	1.9999586
71	0x3fc45706	1.5339057
72	0x3f9ca04e	1.2236421
73	0x3fa0d2da	1.2564347
74	0x3f9a4e64	1.2055173
75	0x40673a01	3.6129153
76	0x40abcc0d	5.3686585
77	0x3ffffea5	1.9999586
78	0x3ffffea5	1.9999586
79	0x409641ad	4.695517
80	0x3fab4dfa	1.3383172
81	0x3f9e3119	1.2358733
82	0x3ffffea5	1.9999586
83	0x3f9f2857	1.2434186
84	0x3fb59b9a	1.4188111
85	0x3ffffea5	1.9999586
86	0x3f9a3592	1.2047598
87	0x3fad77da	1.3552201
88	0x3f9e93f0	1.2388897
89	0x3fb09f22	1.3798563
90	0x401b4f3e	2.4267116
91	0x40bcbd0a	5.898076
92	0x3ffffea5	1.9999586
93	0x3ffffea5	1.9999586
94	0x406c7a76	3.6949744
95	0x4006c532	2.1057858
96	0x3fdc74db	1.7223161
97	0x3ffffea5	1.9999586
98	0x400cf858	2.2026577
99	0x3fcdfeb5	1.6093355
100	0x3ffffea5	1.9999586
101	0x3ffffea5	1.9999586
102	0x3ffffea5	1.9999586
103	0x407ffea5	3.9999173
104	0x3fa05200	1.2525024
105	0x40a48990	5.1417923
106	0x403ffed4	2.9999285
107	0x3ffffea5	1.9999586
108	0x3ffffea5	1.9999586
109	0x4099add9	4.8024716
110	0x40b7d086	5.7442045
111	0x3fb8bf59	1.4433395
112	0x3ffffea5	1.9999586
113	0x3fce9863	1.6140255
114	0x3fa7f25f	1.3120841
115	0x3fba23a4	1.4542127
116	0x3faa785e	1.3317983
117	0x3fae5927	1.3620957
118	0x3fa0b55b	1.2555345
119	0x3fad7f3e	1.3554456
120	0x40ccfe5b	6.4060493
121	0x3ffffea5	1.9999586
122	0x3ffffea5	1.9999586
123	0x3ffffea5	1.9999586
124	0x408328d1	4.0987325
125	0x3fa5e7b8	1.296134
126	0x3fcb92cf	1.5904177
127	0x3ffffea5	1.9999586
128	0x3fa5f230	1.2964535
129	0x3fa272a8	1.269124
130	0x3fadecb1	1.3587857
131	0x3fad45e0	1.3536949
132	0x3fbd5f46	1.47947
133	0x3faa6a3a	1.3313668
134	0x3fa56834	1.2922425
135	0x40a9640d	5.293463
136	0x3ffffea5	1.9999586
137	0x3ffffea5	1.9999586
138	0x3ffffea5	1.9999586
139	0x405f58d5	3.4897969
140	0x401ac0c3	2.4180152
141	0x3fa57741	1.2927018
142	0x3ffffea5	1.9999586
143	0x3fbb3596	1.4625728
144	0x3fc28c82	1.519913
145	0x3fa1916d	1.2622505
146	0x3f9c9101	1.2231752
147	0x3f9aa058	1.2080183
148	0x3f98ff92	1.1952994
149	0x3f9c4cb3	1.2210907
150	0x40951bca	4.659642
151	0x3ffffea5	1.9999586
152	0x3ffffea5	1.9999586
153	0x3ffffea5	1.9999586
154	0x405bda67	3.4352052
155	0x3fb5454a	1.416177
156	0x3fa484c6	1.2853019
157	0x3ffffea5	1.9999586
158	0x3fba9fab	1.4579977
159	0x3fa3263f	1.2746047
160	0x3fa2fbd2	1.27331
161	0x3f9f9c1b	1.2469515
162	0x3fa5c03f	1.2949294
163	0x3fa004bb	1.2501444
164	0x3f9f24f6	1.2433155
165	0x404e8b83	3.2272651
166	0x3ffffea5	1.9999586
167	0x3ffffea5	1.9999586
168	0x3ffffea5	1.9999586
169	0x4080a905	4.0206323
170	0x3fc027a4	1.5012097
171	0x4018c7e4	2.3872004
172	0x3ffffea5	1.9999586
173	0x3fbdad2a	1.481847
174	0x3faae1a7	1.3350114
175	0x3faf6047	1.3701257
176	0x3fa37a5a	1.2771714
177	0x3fae98b3	1.364035
178	0x3f972e46	1.1810997
179	0x3f959807	1.168702
180	0x3fb279b5	1.3943392
181	0x402de8f8	2.7173443
182	0x40b32530	5.5982895
183	0x3ffffea5	1.9999586
184	0x4020d012	2.5126996
185	0x3fb7e666	1.4367187
186	0x3fca55cf	1.5807437
187	0x3ffffea5	1.9999586
188	0x3fcdfa84	1.6092076
189	0x3fa2998f	1.2703112
190	0x3f9f4c2d	1.2445122
191	0x3f9d5709	1.2292186
192	0x3f9d09a3	1.2268566
193	0x3fa1025d	1.2578846
194	0x3fac5f3a	1.3466561
195	0x40302e20	2.7528152
196	0x3fc8e204	1.5693974
197	0x40725243	3.7862709
198	0x3ffffea5	1.9999586
199	0x3ffffea5	1.9999586
200	0x3ffffea5	1.9999586
201	0x3ffffea5	1.9999586
202	0x3ffffea5	1.9999586
203	0x3fb27120	1.3940773
204	0x3fde5b1b	1.7371553
205	0x3f9b76d5	1.214564
206	0x3fba5970	1.4558544
207	0x3f94988c	1.1609054
208	0x3f96b8e8	1.1775179
209	0x3f994ffd	1.1977535
210	0x3fa4d641	1.2877885
211	0x3fb0ca46	1.3811729
212	0x3fb502fb	1.4141535
213	0x3fac2c61	1.3451043
214	0x3fec5699	1.8463928
215	0x3fb9128d	1.4458786
216	0x3fa81b7b	1.3133386
217	0x3fa90fca	1.3207943
218	0x3fe6e566	1.8038757
219	0x3fa447df	1.2834433
220	0x3fa9601f	1.3232459
221	0x3fa7ca09	1.3108531
222	0x3f9cd909	1.2253734
223	0x3f9c9456	1.2232769
224	0x3fb13287	1.3843545
225	0x3f60c9c3	0.87807864
226	0x3e6581cd	0.22412796
227	0x3e8aa5d0	0.2707963
228	0x3f3b6c71	0.73212343
229	0x3ea7caa2	0.32771784
230	0x3ed02ee8	0.40660787
231	0x3eeaf426	0.45889395
232	0x3e2eaf11	0.1705897
233	0x3eec9cde	0.4621343
234	0x3fe90eff	1.8207701
235	0x400993e7	2.1496522
236	0x3fcae2f3	1.585051
237	0x3ecab82c	0.39593637
238	0x3ebb8764	0.36626732
239	0x3eab1f9c	0.33422554
240	0x3e0c0ace	0.13675997
241	0x3dbcc3c6	0.09217028
242	0x3e3da24f	0.18518947
243	0x3ca97433	0.02068529
244	0x3e6eb624	0.23311669
245	0x3f213b4b	0.629811

network_body._body_endoder.seq_layers.0.weight f4 [128, 246]
0	0xbccdbe3a	-0.025115121
1	0xbc9aa873	-0.018879151
2	0xbd4070af	-0.046982463
3	0x3ce11300	0.02747488
4	0x3c9d29d0	0.019184977
5	0xbd21a87d	-0.039467324
6	0x3c0fea23	0.00878385
7	0xbd80f824	-0.06297329
8	0xbd7c6edb	-0.061629158
9	0xbd787eaa	-0.06066767
10	0xbd3425ef	-0.04398149
11	0xbdc4e97e	-0.096148476
12	0xbd85c86c	-0.06532368
13	0xbd847e40	-0.06469393
14	0x3c52b4a1	0.012860448
15	0xb8f51195	-0.00011685785
16	0x3d9cc4e0	0.076547384
17	0xbce97d4f	-0.028502135
18	0x3cb49273	0.022042489
19	0xbd97c60c	-0.07410821
20	0x3d4122f0	0.04715246
21	0xbdc6c348	-0.09705216
22	0xbd817434	-0.06320992
23	0xbda7fb1e	-0.08202194
24	0xbd137b27	-0.03600612
25	0x3da63056	0.08114688
26	0xbcf8669c	-0.030322365
27	0x3b1ae950	0.00236376
28	0xbd24b349	-0.040210042
29	0x3c8c145a	0.017099548
30	0xbdc1c7df	-0.094619505
31	0xbd5e80df	-0.05432212
32	0xbdca37ca	-0.09873922
33	0x3d19adc9	0.03751925
34	0xbd3db9ad	-0.046319652
35	0xbddfd295	-0.10928837
36	0x3d7a4878	0.061104268
37	0x3bcb60e4	0.0062066186
38	0x3d926a5f	0.07149195
39	0xbd572408	-0.052524596
40	0x3dae1b70	0.08501327
41	0x3db0febd	0.086423375
42	0x3d61b1bc	0.05510114
43	0xbe005487	-0.12532245
44	0xbd36c701	-0.04462338
45	0x3dc84bf2	0.097801104
46	0xbd6b5b94	-0.057460383
47	0xbb6e2453	-0.003633757
48	0x3c37f55b	0.011227931
49	0x3ca316c3	0.019908315
50	0x3d12dbdf	0.035854217
51	0x3d9f7068	0.07785112
52	0x3d840b00	0.064474106
53	0xbe02edeb	-0.12786071
54	0x3d51d61e	0.05122959
55	0x3b1e7247	0.0024177001
56	0x3c97de25	0.018538544
57	0x3d9717b0	0.07377565
58	0xbd5e7d6f	-0.05431884
59	0xbdbe325f	-0.09286951
60	0x3c9ad8be	0.018902179
61	0x3d436ec4	0.047713056
62	0xbd2673c1	-0.040637735
63	0x3d86ca20	0.06581521
64	0x3d834528	0.06409675
65	0x3d0c874f	0.034308728
66	0x3d84f4bf	0.06491994
67	0xbcca80d1	-0.024719628
68	0xbd5ece96	-0.054396234
69	0xbc8900d3	-0.016724026
70	0x3ce6dd46	0.028181683
71	0xbdb9b4ed	-0.09067712
72	0xbc9af41c	-0.018915229
73	0xbd9dfda1	-0.077143915
74	0xbe02fd59	-0.12791957
75	0xbd8698b8	-0.065720975
76	0x3c9b0a27	0.01892574
77	0xbdd874c8	-0.10569149
78	0x3d138a81	0.03602076
79	0x3c64e7fc	0.013971325
80	0xbd86b96d	-0.06578336
81	0x3da00d85	0.07815079
82	0xbd91c496	-0.07117574
83	0xbe708e63	-0.23491816
84	0xbdb9eb49	-0.0907808
85	0xba94afef	-0.0011343936
86	0xbd492290	-0.049105227
87	0xbdad1660	-0.08451533
88	0xbd0c1f06	-0.034209274
89	0xbc07755d	-0.008267728
90	0xbdb6dc47	-0.08928733
91	0xbd1d7332	-0.038439937
92	0x3c6ad524	0.014333043
93	0x3cf72d6a	0.030173022
94	0xbbd5fe1d	-0.006530537
95	0xbd662113	-0.056183886
96	0x3dad4133	0.084597014
97	0xbc0250ef	-0.007953866
98	0x3d5ca3da	0.0538672
99	0xbd815435	-0.06314889
100	0x3d05ee4d	0.032697964
101	0xbdd9116e	-0.105990276
102	0xbd9c3efe	-0.07629202
103	0xbd277a58	-0.04088816
104	0x3d1cea01	0.0383091
105	0x3d633820	0.055473447
106	0xbdc209e8	-0.09474546
107	0xbd290251	-0.041261975
108	0xbd7d95ed	-0.06191056
109	0x3dcb9ca7	0.099419884
110	0x3cce248e	0.025163915
111	0xbdb00214	-0.08594146
112	0xbd219745	-0.039450902
113	0xbd165cb9	-0.03670952
114	0xbd02f49a	-0.03197155
115	0xbc4094b8	-0.011754207
116	0x3ceb299c	0.028706364
117	0x3b8be105	0.004268768
118	0x3d546734	0.051856235
119	0x3db92a71	0.09041298
120	0xbd47748b	-0.04869513
121	0xbd3ce1fd	-0.046113957
122	0xbd13d6d8	-0.036093563
123	0x3d756cee	0.059918337
124	0xbccef47d	-0.025263065
125	0xbdae0877	-0.08497708
126	0xbcc443f3	-0.023958182
127	0x3c91df6b	0.01780673
128	0x3d464e08	0.04841426
129	0x3e0f7cdd	0.14012475
130	0xbd6772b6	-0.05650588
131	0x3cb9a91e	0.02266365
132	0xbde258aa	-0.110520676
133	0xbc9e109a	-0.019295026
134	0x3d78fec6	0.060789846
135	0xbdd42f68	-0.103606045
136	0xbd295153	-0.041337322
137	0xbd5bb0c1	-0.053635363
138	0xbd2bdb77	-0.041957345
139	0xbd487c87	-0.048946884
140	0x3dc70384	0.097174674
141	0xbc650d60	-0.01398024
142	0xbd78b1ab	-0.060716312
143	0x3d6df2e8	0.05809298
144	0xbd15c6f2	-0.036566682
145	0xbca7c33a	-0.020478833
146	0x3e29241e	0.16517684
147	0x3d394cf8	0.04523942
148	0x3cdf8ddb	0.027289322
149	0x3d57286c	0.052528784
150	0x3dd3a845	0.10334829
151	0xbca99990	-0.020703107
152	0x3bdaa25f	0.006672188
153	0xbdb9bb9c	-0.09068987
154	0xbdab9337	-0.083776884
155	0xbdfb5f60	-0.12274051
156	0xbd97d79a	-0.074141696
157	0xbd441859	-0.047874782
158	0xbdf7100e	-0.12063609
159	0x3de065a8	0.109568894
160	0x3cee95f5	0.02912424
161	0x3d2571d0	0.040391743
162	0xbe0a12ca	-0.1348373
163	0xbc50ba10	-0.012739673
164	0xbdccb0e3	-0.09994676
165	0x3c9725bd	0.018450612
166	0xbe175163	-0.1477714
167	0xbe0cfeaf	-0.13769029
168	0xbd88f180	-0.066866875
169	0xbd486539	-0.04892466
170	0xbd98c29b	-0.07458993
171	0xbbfceb88	-0.007718507
172	0x3dbaa426	0.0911334
173	0xbe0dd648	-0.13851273
174	0x3da56cf6	0.08077423
175	0xbd1c4f3a	-0.038161494
176	0x3c67bc74	0.014144052
177	0x3d203bf1	0.039119665
178	0x3c7ccbfa	0.015429491
179	0xbb1c639f	-0.002386309
180	0xbd914bfd	-0.07094572
181	0x3db99457	0.09061497
182	0x3d830996	0.06398313
183	0x3d437f3f	0.047728773
184	0x3d5b2f91	0.05351216
185	0xbd8cdcdc	-0.06878063
186	0x3e083371	0.13300873
187	0x3d4c9997	0.049951162
188	0xbdabbd6f	-0.08385741
189	0x3bb60629	0.0055549336
190	0xbd5d4aee	-0.054026537
191	0x3d6cb876	0.057793103
192	0x3d971c7d	0.073784806
193	0xbda709c7	-0.08156162
194	0x3c5278ae	0.012846155
195	0x3d40d59e	0.04707872
196	0xbe11a51b	-0.14223139
197	0x3d6b46e7	0.057440665
198	0xbc8974b3	-0.01677928
199	0x3d0e854b	0.034795087
200	0x3cf436b9	0.02981125
201	0x3cbbd6a1	0.022929491
202	0x3d90c718	0.07069224
203	0xbdf6c8eb	-0.12050041
204	0xbb06afaa	-0.0020551481
205	0x3b3c1ad3	0.0028702512
206	0x3cdbb40a	0.026819248
207	0x3dcd9e01	0.100399025
208	0xbce42d20	-0.027853549
209	0xbda5a8e8	-0.08088857
210	0x3dfc1548	0.123087466
211	0x3d3fd5b2	0.046834655
212	0x3ddbc89f	0.10731625
213	0x3d80b963	0.0628536
214	0xbd611c8d	-0.05495887
215	0xbe0b1c8e	-0.13585111
216	0x3d0225c2	0.03177429
217	0xbd9e2972	-0.07722749
218	0x3d62e44d	0.055393506
219	0x3da812a6	0.08206682
220	0xbc1ab728	-0.009443082
221	0x3c7fcc62	0.0156126935
222	0xbbab9e01	-0.0052373414
223	0xbe210f19	-0.15728416
224	0xbd9e2dd0	-0.07723582
225	0xbcd142e5	-0.025544593
226	0x3d0c03a8	0.034183174
227	0xbc8de778	-0.017322287
228	0xbdde4274	-0.10852519
229	0x3dc00000	0.09375
230	0xbafc681a	-0.0019257099
231	0x3c60b084	0.01371396
232	0x3c0363b6	0.008019378
233	0x3d9fbdf6	0.07799904
234	0xbc763abd	-0.015028653
235	0x3e026017	0.12731968
236	0xbc8ecbd5	-0.017431179
237	0x3d07972d	0.033103157
238	0x3b9cc0a2	0.004783706
239	0xbcae3e5c	-0.02126997
240	0xbc975036	-0.018470865
241	0x3e1a665b	0.15078108
242	0x3d9af299	0.07565803
243	0x3c93e433	0.01805315
244	0x3cac22b5	0.021012643
245	0x3d5bd2f4	0.053667977
246	0xbd536106	-0.0516062
247	0x3c7b5df6	0.015342226
248	0x3d653f69	0.055968676
249	0x3cbb6627	0.022875858
250	0x3d5bdc5b	0.053676944
251	0xbdc6efcf	-0.097137086
252	0xbcfd8e13	-0.030951535
253	0x3d64dbae	0.055873565
254	0xbc2bbd50	-0.010482147
255	0x3d999857	0.0749976

network_body._body_endoder.seq_layers.0.bias f4 [128]
0	0xbc48dcd6	-0.012259683
1	0x3c87c267	0.01657219
2	0x3d67e453	0.05661423
3	0xbc289c21	-0.01029113
4	0x3b950150	0.0045472756
5	0x3d0596fa	0.032614686
6	0x3cd6a2af	0.02620062
7	0x3d34708b	0.04405264
8	0xbd056ae3	-0.03257264
9	0x3d249a49	0.0401862
10	0x3d9c0f12	0.07620062
11	0xbb98850a	-0.0046545314
12	0x3b345f56	0.0027522645
13	0x3d634199	0.05548248
14	0xbc8f515f	-0.017494855
15	0xbd18a863	-0.03726996
16	0xbba5b355	-0.0050567784
17	0xbc4f165d	-0.012639609
18	0xb9a414c2	-0.00031295983
19	0xbd284f26	-0.041091107
20	0x3c94c044	0.018158086
21	0xbc5c408c	-0.013443124
22	0x3d85076a	0.06495555
23	0x3cd2ec7f	0.025747536
24	0xbc0e7ceb	-0.008696775
25	0x3d1d0c86	0.03834202
26	0xbb65c6a9	-0.0035061038
27	0x3b8f92be	0.0043815067
28	0x3b8072d6	0.0039199395
29	0x3d39f63f	0.045400854
30	0xbc22f3e4	-0.009945843
31	0x3d0f3534	0.034962848
32	0x3c21a4f2	0.009865986
33	0x3c38fdc7	0.011290974
34	0x3d08e90e	0.033425383
35	0xbb6159ef	-0.003438588
36	0x3ce53ae1	0.027982177
37	0xbc9e9ba3	-0.019361323
38	0xbc9087c0	-0.017642856
39	0xbb246be5	-0.0025088724
40	0xba09e9db	-0.00052609824
41	0xbcf4e5cd	-0.029894734
42	0x3c25cc6e	0.010119541
43	0x3cc2ee11	0.02379516
44	0x3c27a610	0.0102324635
45	0x3d2604c4	0.04053189
46	0x3d2a6981	0.041604523
47	0x3d3ce862	0.046120055
48	0x3cbaf127	0.022820069
49	0x3cc133b7	0.02358423
50	0x3d18185c	0.037132606
51	0x3c2e9916	0.010656616
52	0x3b162d40	0.0022915155
53	0x3d1384be	0.036015265
54	0x3c9e9ff6	0.019363385
55	0xbb5c003a	-0.003356947
56	0xbbb98991	-0.005662151
57	0xbce7788e	-0.028255727
58	0x3c5407b1	0.012941287
59	0x3c1e0560	0.009644836
60	0xbbd362ae	-0.0064509725
61	0x3b5567c9	0.0032563081
62	0x3bc7edf5	0.0061013647
63	0x3ced93d7	0.02900116
64	0xbc0e372d	-0.008680147
65	0xbb1964fa	-0.0023406134
66	0x3d6ae6e8	0.057349116
67	0x3ba41915	0.005007873
68	0xbc3f043d	-0.011658725
69	0xbba50858	-0.005036395
70	0xbcdab8c8	-0.026699439
71	0xbcced841	-0.025249602
72	0x3c99e0be	0.018783923
73	0xbd408192	-0.046998568
74	0xbc550678	-0.013002031
75	0xbcdf3d0b	-0.027250787
76	0x3d60866c	0.054815695
77	0xbbe6145e	-0.007021471
78	0x3cde0f0e	0.027106788
79	0x393f5f97	0.0001825079
80	0xbdae2ff1	-0.08505238
81	0xbc52fa61	-0.012877078
82	0x3c5b5801	0.013387681
83	0xbc848649	-0.016177313
84	0x3c051a52	0.008123951
85	0x3d242000	0.04006958
86	0x3ccb5423	0.024820393
87	0x3cd57a38	0.026059255
88	0xbc9a5662	-0.018840019
89	0xba20845e	-0.000612324
90	0xbaaa5d1f	-0.0012997723
91	0xbc8f93ad	-0.017526472
92	0xbd37f63b	-0.044912558
93	0x3ca6ebc5	0.020376096
94	0x3cd70797	0.026248736
95	0x3d3478c0	0.04406047
96	0x3b6fd9ba	0.003659828
97	0x3cd15410	0.02555278
98	0xbcabb170	-0.020958632
99	0xbc352c05	-0.011057858
100	0x3cdb6dfa	0.02678584
101	0x3c057661	0.0081458995
102	0x3ca70e36	0.020392518
103	0xbcc6013a	-0.024170507
104	0x3c303018	0.010753654
105	0x3caaaca9	0.020834284
106	0xbd1f6186	-0.038911365
107	0x3c5925c6	0.013253635
108	0x3c56903a	0.01309591
109	0xbbdd3260	-0.00675039
110	0xbcfb30f7	-0.030662997
111	0x3c5f7203	0.013638022
112	0xbcb6a361	-0.022294702
113	0x3c1b5198	0.009479903
114	0xbbabc03f	-0.0052414234
115	0xbce493d9	-0.02790253
116	0xba05ebd7	-0.000510869
117	0xbc840837	-0.016117198
118	0x3c2e3488	0.010632642
119	0xbc90834f	-0.017640738
120	0x3cc5f3c3	0.024164086
121	0xbcfc1767	-0.030772878
122	0x3cb73b4e	0.022367146
123	0x3cb3be22	0.021941248
124	0xbc7f6c75	-0.015589823
125	0x39a378f8	0.00031179911
126	0x3d78849e	0.06067335
127	0x3cc0349b	0.023462584

network_body._body_endoder.seq_layers.2.weight f4 [128, 128]
0	0xbd2b2760	-0.041785598
1	0xbce7ccc6	-0.028295886
2	0x3c7962aa	0.015221277
3	0x3b96a012	0.0045967186
4	0x3dc4f457	0.096169166
5	0xbdea431e	-0.11438583
6	0x3bd9c661	0.006645963
7	0xbda07b87	-0.07836061
8	0xbd162fac	-0.036666557
9	0xbdea282e	-0.11433445
10	0x3d32c743	0.043647062
11	0x3b86bec8	0.0041120984
12	0x3dc346f3	0.09535017
13	0xbd406e97	-0.046980467
14	0x3db96e91	0.09054292
15	0x3da84bf4	0.08217612
16	0x3d66de95	0.056364615
17	0x3d051879	0.032494042
18	0x3c63cd47	0.013903922
19	0xbb5687e8	-0.0032734815
20	0x3dde0aec	0.10841927
21	0x3d0764d3	0.033055138
22	0x3df0c983	0.11757185
23	0xbccf390f	-0.025295762
24	0x3e85aeac	0.26109827
25	0x3db27275	0.08713237
26	0xbd93abe2	-0.072105184
27	0x3d9f02d8	0.07764214
28	0x3da3ef1c	0.08004591
29	0x3dffa192	0.12481989
30	0x3cf9d685	0.030497799
31	0xbd1fc035	-0.039001662
32	0xbd9fb834	-0.07798806
33	0x3d54e79a	0.051978685
34	0x3c357997	0.011076353
35	0x3dbd5281	0.09244252
36	0x3c16a056	0.0091935005
37	0x3c46df4e	0.012138201
38	0xbc7b4a03	-0.01533747
39	0xbe4562d6	-0.19275984
40	0x3ce5b1f2	0.028038952
41	0xbc26483c	-0.010149058
42	0xbe5aec77	-0.21379267
43	0x3d9aa658	0.07551259
44	0xbcf0e892	-0.029407773
45	0xbd782c14	-0.06058891
46	0xbd25b370	-0.040454328
47	0xbda0ff18	-0.07861155
48	0x3d2599eb	0.04042999
49	0x3d64d15a	0.055863716
50	0xbb39ccd5	-0.002835085
51	0xbdad5f45	-0.08465437
52	0x3d1edb51	0.038783375
53	0xbdfcd30a	-0.1234494
54	0xbe2b5b2b	-0.16733997
55	0x3e1529b0	0.14566684
56	0xbd933a0f	-0.07188808
57	0xbe0687c8	-0.13137734
58	0x3eb488e5	0.35260692
59	0xbd11e57d	-0.035619248
60	0xbd9d5351	-0.07681907
61	0xbd2f6373	-0.04281945
62	0xbd3c2a5e	-0.045938842
63	0x3c3f95ff	0.011693477
64	0xbda84e74	-0.08218089
65	0xbe1d7aff	-0.1537895
66	0x3c88e62a	0.016711313
67	0xbd774ad8	-0.06037411
68	0x3d19b9c8	0.03753069
69	0x3e137b07	0.144024
70	0x3d494045	0.049133558
71	0xbe2687fe	-0.16262814
72	0x3e46281a	0.19351235
73	0xbd32b4ed	-0.043629576
74	0x3cb19465	0.021677205
75	0xbdc91a65	-0.098194875
76	0xbd7f50c3	-0.06233288
77	0x3d62eba7	0.055400517
78	0xbe3b8318	-0.18311727
79	0x3d0bd6b5	0.034140307
80	0xbdc69df9	-0.096981
81	0x3d4ae540	0.049535036
82	0xbdc227f3	-0.09480276
83	0x3cb514b3	0.022104597
84	0x3d864db1	0.06557787
85	0x3d9ea6b1	0.077466376
86	0xbdf2cda6	-0.118556306
87	0x3db33eb6	0.087521955
88	0x3e0e8aaf	0.13920091
89	0x3d7dc048	0.06195095
90	0xbba72c0a	-0.0051016854
91	0xbd06f0cc	-0.032944486
92	0xbdaa41b1	-0.08313311
93	0x3c95930e	0.018258598
94	0xbddaad5f	-0.10677599
95	0x3d8688d8	0.065690696
96	0xbe10bc70	-0.14134383
97	0xbd6b24d0	-0.057408154
98	0xbdce182e	-0.10063206
99	0x3e31479e	0.17312476
100	0xbcf090d2	-0.02936593
101	0x3d27c775	0.0409617
102	0xbe5bc6d9	-0.21462573
103	0x3e41e774	0.18935949
104	0x3d0c69c5	0.034280557
105	0xbacb0d79	-0.0015491686
106	0xbdf6232d	-0.12018428
107	0xbda98454	-0.08277193
108	0x3df774cf	0.12082826
109	0x3e7eee5e	0.24895617
110	0xbcaafc8e	-0.02087238
111	0xbd477857	-0.04869875
112	0x3da4c360	0.08045077
113	0x3e194f35	0.14971621
114	0xbe104092	-0.14087132
115	0xbcdda4b0	-0.027056068
116	0x3cf3b0a8	0.029747322
117	0x3cc6b948	0.02425827
118	0x3e3118ad	0.1729457
119	0x3c93f8de	0.018063005
120	0x3d043aa0	0.03228247
121	0x3ce4b5ee	0.027918782
122	0x3de248c2	0.11049034
123	0xbd4eca8f	-0.050486144
124	0xbc54e139	-0.01299315
125	0x3db7eddb	0.08980914
126	0x3d725fef	0.05917352
127	0x3e1bf670	0.15230727
128	0x3ca72043	0.020401126
129	0x3d94a9bf	0.07258939
130	0x3d882df7	0.06649392
131	0xbd11d293	-0.03560121
132	0xbd89212b	-0.066957794
133	0xbe0cbf61	-0.1374488
134	0x3b068315	0.0020524908
135	0xbc711280	-0.014713883
136	0x3d0df168	0.03465405
137	0xbda501c8	-0.0805698
138	0xbe2f3ea4	-0.17113739
139	0x3d6287d6	0.055305324
140	0xbdd89d6a	-0.10576899
141	0x3e18e44d	0.1493084
142	0x3d85936b	0.06522258
143	0xbddfdc44	-0.10930684
144	0x3da7da73	0.08195963
145	0x3d194f70	0.037429273
146	0x3d54c8b5	0.05194922
147	0x3e36115f	0.17780064
148	0x3d63eb80	0.055644512
149	0x3da4a173	0.080386065
150	0x3df85bab	0.12126859
151	0xbcf4b5f6	-0.029871922
152	0x3d3f8860	0.046760917
153	0x3cdd056f	0.02698013
154	0xbda7238d	-0.08161078
155	0xbe0f358c	-0.1398527
156	0x3d3cd869	0.046104822
157	0xbc9ccc56	-0.019140404
158	0xbd2fefb0	-0.042953193
159	0x3db316da	0.08744593
160	0xbd84e3f7	-0.06488793
161	0x3de6e5d1	0.11274303
162	0x3bd8ac8b	0.0066123656
163	0x3de399f4	0.111133486
164	0xbe72702e	-0.23675606
165	0x3d8c6f14	0.06857124
166	0xbbfe55d6	-0.0077616973
167	0x3db55080	0.08853245
168	0x3dc0fea1	0.094235666
169	0x3da3f4fe	0.08005713
170	0xbe1aa2a7	-0.1510111
171	0x3c890610	0.016726524
172	0xbbdeb7a0	-0.006796792
173	0x3dea0aae	0.11427818
174	0xbdeee402	-0.11664583
175	0x3d2fd689	0.042929206
176	0xbba35201	-0.004984141
177	0x3dcbf24d	0.099583246
178	0xbe64535a	-0.22297421
179	0x3d9a324b	0.07529124
180	0xbe3acc11	-0.18241908
181	0x3d7391e4	0.059465304
182	0xbdfd4f40	-0.12368631
183	0xbdbf2d95	-0.09334866
184	0x3d0cc582	0.034368046
185	0xbd8397cc	-0.06425437
186	0x3dba3c7b	0.09093567
187	0x3c5e493c	0.013567265
188	0xbc09e56c	-0.008416515
189	0x3d055950	0.03255588
190	0x3d9f59df	0.077808134
191	0x3e3cc6b5	0.18435176
192	0xb6beaea1	-5.6827707e-06
193	0x3e1e6600	0.15468597
194	0xbe56f7d3	-0.20992975
195	0xbda30548	-0.07959992
196	0x3daab74c	0.08335742
197	0xbd35431f	-0.044253465
198	0xbe28af66	-0.16473159
199	0xba2264b7	-0.0006194817
200	0x3dcc3f87	0.099730544
201	0xbcd3c8f9	-0.025852667
202	0xbce7b091	-0.028282436
203	0xbd36ba25	-0.044611115
204	0x3c470b50	0.012148693
205	0xbd561e76	-0.052275144
206	0x3c904a5a	0.017613579
207	0x3d50036e	0.05078452
208	0x3d13a977	0.036050286
209	0x3dd2f6f7	0.10301011
210	0x3c430518	0.01190307
211	0xbd853499	-0.06504173
212	0x3ca500b0	0.02014193
213	0x3d574b8f	0.052562293
214	0xbe031195	-0.12799676
215	0x3dbe727f	0.09299182
216	0x3dbc8ab8	0.09206146
217	0x3dae5292	0.08511843
218	0xbd88e8e1	-0.06685043
219	0xbe0c07d7	-0.13674866
220	0xbd1743db	-0.036929946
221	0x3db57fa8	0.08862239
222	0x3d8c2464	0.068428785
223	0x3ccc461c	0.024935775
224	0x3db1139d	0.08646319
225	0x3d87f400	0.06638336
226	0x3d04cdb8	0.03242275
227	0xbd82672f	-0.06367337
228	0x3d3fb7c4	0.046806112
229	0x3ddebc8f	0.108758084
230	0x3d5738ce	0.052544408
231	0x3d10691c	0.03525649
232	0x3dcde3d5	0.10053221
233	0x3c49ced6	0.01231738
234	0xbd10112a	-0.03517262
235	0x3d634578	0.055486172
236	0xbd9db74a	-0.07700975
237	0xbcaa10ba	-0.020759929
238	0x3d781ca4	0.06057419
239	0xbc5dec38	-0.0135450885
240	0xbd0def5f	-0.03465211
241	0x3d3c5e8d	0.04598861
242	0x3e1d53be	0.15363976
243	0x3b823fd3	0.0039748936
244	0xbc222c0c	-0.009898197
245	0xbd5f7c7a	-0.05456207
246	0xbc2567d7	-0.010095558
247	0xbd16bffa	-0.036804177
248	0xbcb341db	-0.021881988
249	0xbd84deb9	-0.064877935
250	0x3d385980	0.04500723
251	0x3d924512	0.0714208
252	0xbd9ae483	-0.075631164
253	0x3e23b495	0.15986855
254	0x3da26076	0.07928555
255	0x3ccce8ec	0.02501341

network_body._body_endoder.seq_layers.2.bias f4 [128]
0	0x3bc99178	0.0061513744
1	0xbba79155	-0.0051137605
2	0xbadc7d01	-0.0016821922
3	0x3c9645bf	0.018343804
4	0x3c99b634	0.018763639
5	0xbc69e707	-0.014276273
6	0x3c9439d0	0.018093973
7	0xbcee8fa0	-0.02912122
8	0x3bac183a	0.0052519115
9	0x3c43e894	0.011957306
10	0xbc413fc3	-0.011794987
11	0x3cc59054	0.024116673
12	0x3d7bfc67	0.061520007
13	0x3d142f85	0.03617813
14	0xbbee218d	-0.007267183
15	0xbca4f9a5	-0.020138571
16	0x3c81e4e2	0.01585621
17	0xba73eb40	-0.00093047693
18	0x3ce50187	0.02795483
19	0xbcecb041	-0.028892638
20	0x3cd86983	0.0264175
21	0x3cf0cdc6	0.029394995
22	0x3b8ed07a	0.0043583484
23	0x3cf16df5	0.029471377
24	0xbcf850bf	-0.03031194
25	0x3bf4bad2	0.00746856
26	0xbc6f84af	-0.014619037
27	0x3baad265	0.0052130693
28	0xb948b0de	-0.00019139374
29	0xbc4be968	-0.012445785
30	0x3caaa454	0.02083031
31	0x3be89bb3	0.007098639
32	0x3c29d8c8	0.010366626
33	0x3d4c06a3	0.049811017
34	0x3d07f3c2	0.03319145
35	0xbcf8b654	-0.030360378
36	0xbc9396ca	-0.018016238
37	0xbcb7e27d	-0.022446865
38	0x3d0fb05d	0.035080303
39	0xbcdc6e60	-0.0269081
40	0x3c339826	0.010961568
41	0xbc69fbf1	-0.014281259
42	0x3d226189	0.039643798
43	0x3d05fd55	0.0327123
44	0xbba34edf	-0.0049837674
45	0xbcf36523	-0.029711312
46	0x3c9f00a7	0.01940949
47	0xbb56098c	-0.00326595
48	0x3b4544a4	0.0030100727
49	0xbc9cfdf0	-0.019164056
50	0xbc986323	-0.01860196
51	0x3c94dcea	0.018171746
52	0x3c0917ff	0.0083675375
53	0xbc6de2f8	-0.014519446
54	0xbc18550a	-0.009297619
55	0x3b0b66f8	0.002127109
56	0x3d1d3088	0.03837636
57	0x3ca9f174	0.020745017
58	0x3cde6ffd	0.02715301
59	0xbc1f3de1	-0.009719343
60	0xbbb630f3	-0.0055600344
61	0x3cc6dc4e	0.024274971
62	0xbc8fb2ed	-0.017541373
63	0xbc2bbb50	-0.0104816705
64	0xbc7ad5b3	-0.015309739
65	0xbd27b428	-0.040943295
66	0xbba79f77	-0.0051154452
67	0xbceb5c84	-0.028730638
68	0x3c7e1518	0.015507959
69	0x3b910b66	0.0044264076
70	0xbc3ca82b	-0.011514704
71	0xbc816390	-0.015794545
72	0xbc3c2a56	-0.011484703
73	0x3ccdd6d3	0.02512685
74	0xbd5c6ce8	-0.0538148
75	0x3ca32df4	0.019919373
76	0x3c12a8e7	0.008951402
77	0xbc2b2804	-0.010446552
78	0x3cce258d	0.02516439
79	0x3c6f2e29	0.014598408
80	0xbc2a9ab3	-0.01041286
81	0xbc05476a	-0.008134702
82	0x3cc9a740	0.024615884
83	0x3c18cacc	0.009325694
84	0x3c15cdff	0.009143352
85	0x3cc4b553	0.024012243
86	0x3d0e3652	0.034719773
87	0x3c6aa053	0.014320451
88	0x3c4f0057	0.012634358
89	0x3b24fbe4	0.0025174553
90	0x3c6150bb	0.013752158
91	0x3cc06de7	0.023489906
92	0xbbce4853	-0.006295243
93	0xbc9f81b1	-0.019471021
94	0x3d6066d1	0.054785553
95	0xbbc8f9e5	-0.0061333054
96	0x3c53688d	0.012903345
97	0x3c3ea6b7	0.011636428
98	0x3bc417e3	0.005984293
99	0x3c663739	0.014051252
100	0x3c5a8d27	0.013339317
101	0xbc15e53c	-0.009148892
102	0xbd38fb07	-0.045161273
103	0x3c6f9344	0.014622513
104	0xbb535bd1	-0.0032250772
105	0x3b60bdab	0.0034292738
106	0x3cb81ef6	0.0224757
107	0xbca1a19f	-0.019730387
108	0xbccdedff	-0.0251379
109	0xbcedabae	-0.029012527
110	0x3ca03f0a	0.01956131
111	0x3c18ae40	0.009318888
112	0xbc3b05c5	-0.01141495
113	0x3b08e424	0.0020887936
114	0x3d783d49	0.06060532
115	0xbc3dccbf	-0.01158446
116	0xbc010505	-0.007874732
117	0x3d22d290	0.03975159
118	0xbc388c70	-0.011263952
119	0x3d369a72	0.044580884
120	0xba93289f	-0.0011227316
121	0xbccb591d	-0.024822766
122	0x3d365158	0.04451117
123	0x3cc39c20	0.023878157
124	0xbbcb9663	-0.006212996
125	0x3c3f007e	0.011657832
126	0x3b328a26	0.0027242987
127	0x3cd98a44	0.026555188

action_model._discrete_distribution.branches.0.weight f4 [3, 128]
0	0x3d78ba11	0.06072432
1	0x3cc30801	0.023807527
2	0x3be84538	0.0070883296
3	0xbc5384ab	-0.0129100485
4	0x3b97fa49	0.0046379906
5	0xbc61b48f	-0.013775959
6	0x3d0f9064	0.03504981
7	0x39b8624c	0.00035168452
8	0xbcbaa838	-0.022785291
9	0x3c5b62af	0.013390227
10	0xbb441af4	-0.0029923292
11	0xb8e694b5	-0.000109949535
12	0xbcf5c485	-0.030000934
13	0xbca34100	-0.019928455
14	0x3bb9b628	0.0056674667
15	0x3c574644	0.013139311
16	0x3d204af6	0.03913399
17	0x3c990d9b	0.018683245
18	0x3cacf910	0.021114856
19	0x3cba15d0	0.02271548
20	0x3cd18079	0.025573956
21	0x3c98e4c0	0.018663764
22	0xbced98a4	-0.029003449
23	0xbcbe318b	-0.023216983
24	0xbcf632d4	-0.030053534
25	0x3caa4676	0.020785552
26	0x3c924aca	0.017857928
27	0x3a58f450	0.00082761515
28	0x3d0c38ec	0.034233972
29	0x3c854da2	0.01627237
30	0x3c9f7c50	0.019468457
31	0x3c90d328	0.017678812
32	0x3b935f42	0.0044974396
33	0x3c85ff2b	0.016357025
34	0xbc0500ef	-0.008117898
35	0x3c57911c	0.013157155
36	0x3c1328ca	0.008981893
37	0x3aed2532	0.001809275
38	0x3c13234a	0.008980582
39	0x3c33a16e	0.010963781
40	0x3c6df4f5	0.014523734
41	0xbc45cb62	-0.012072416
42	0x3d2e7663	0.04259337
43	0xbaafe2e6	-0.0013419061
44	0xbc9568a4	-0.018238373
45	0x3cce4c18	0.025182769
46	0x3cc61720	0.024180949
47	0x3b9c9d12	0.0047794664
48	0xbd5e9dfe	-0.05434989
49	0x3cc8c1f0	0.02450654
50	0x3ccf2f2f	0.025291054
51	0x395ee8a3	0.00021258234
52	0x3d894c78	0.067040384
53	0xbbb52d73	-0.0055290996
54	0xbc8d3caf	-0.01724085
55	0x3be1a94e	0.006886638
56	0xbd95784b	-0.07298335
57	0xbaa9ba6b	-0.0012949234
58	0x3c934930	0.017979234
59	0x3cbca4cc	0.0230278
60	0xbc015809	-0.007894524
61	0x3c31c049	0.010849067
62	0xbb92900c	-0.004472738
63	0xbd3b59e1	-0.045740012
64	0xbbd81978	-0.006594833
65	0xbae67829	-0.0017583418
66	0xbd15bcd5	-0.036557037
67	0x3b118958	0.0022207107
68	0xbd0d1fa0	-0.034453988
69	0x3c9044b2	0.017610881
70	0xbc9ec2e3	-0.019380039
71	0x3d20912a	0.03920094
72	0xbafd4af2	-0.0019324704
73	0x3b92b799	0.004477453
74	0xbcc70b6f	-0.024297444
75	0x3ad14a24	0.001596753
76	0x3c82fb7b	0.015989056
77	0xbb19d56d	-0.002347316
78	0x3d23705d	0.03990208
79	0x3c4867ca	0.0122317765
80	0x3caf53e3	0.021402305
81	0x3cfc8a6d	0.030827725
82	0x3ce39b95	0.027784148
83	0xbc616109	-0.013756045
84	0xbc9fae25	-0.019492218
85	0xbd97451b	-0.07386228
86	0x3c8dcaa3	0.017308539
87	0xbc0606c4	-0.008180324
88	0xbd1aa9ea	-0.0377597
89	0x3d070b20	0.032969594
90	0x3ce9a933	0.028523063
91	0xbd002ba8	-0.031291634
92	0x3ccafd79	0.024779068
93	0x3cdcdfca	0.02696218
94	0x3cf8531a	0.030313063
95	0xbd0a8b95	-0.033824522
96	0xbb36f111	-0.0027914683
97	0xbcdcc2c0	-0.026948333
98	0x3d2d0729	0.042243157
99	0x3ca562f4	0.020188786
100	0x3b0d8b2c	0.0021597845
101	0x3d159619	0.036520097
102	0x3c80caee	0.015721764
103	0xbc3b8edb	-0.011447634
104	0xbb6e9ad5	-0.0036408205
105	0xba87a736	-0.0010349515
106	0x3c675c0e	0.014121069
107	0xbc904777	-0.017612202
108	0x3a6fa75c	0.0009142065
109	0x3c522d64	0.012828205
110	0x3ce8760b	0.0283766
111	0x3bf4419c	0.0074541103
112	0xbb976560	-0.004620239
113	0xbd030bcd	-0.031993676
114	0x3d173d32	0.036923595
115	0x3d0da1ed	0.034578253
116	0x3cec59dc	0.028851442
117	0x3c493bab	0.012282292
118	0x3ce3d358	0.027810737
119	0x3d4a7e20	0.04943669
120	0xbba1650c	-0.004925376
121	0x3c972231	0.01844892
122	0xbb3807c6	-0.0028080805
123	0x3ce5f149	0.028069155
124	0xbac6be4f	-0.0015162918
125	0x3c66f6e6	0.014096951
126	0x3cfd008c	0.03088405
127	0x3c7d9eb5	0.015479733
128	0xbc3261b5	-0.010887553
129	0xbccf58bf	-0.025310872
130	0x3bf05ec9	0.007335518
131	0x3ca2433c	0.01980745
132	0x3d086832	0.033302493
133	0x3c626d22	0.013819965
134	0xbcffaf82	-0.031211618
135	0xbc8c1d95	-0.01710395
136	0x3cdadb43	0.02671588
137	0xbcee7bd3	-0.029111778
138	0xbc836b41	-0.016042354
139	0x3d04ab94	0.032390192
140	0xbb7fd1c3	-0.003903494
141	0x3bca9946	0.0061828224
142	0xbc3ff35d	-0.011715737
143	0xbc9dce15	-0.019263307
144	0xbd257062	-0.04039038
145	0x3c80b83d	0.015712852
146	0xbd2fd48d	-0.042927314
147	0xbc63dd08	-0.013907678
148	0xbd1eacb1	-0.03873891
149	0xbc880701	-0.016604902
150	0x3d7dbc05	0.061946888
151	0x3c127fce	0.008941604
152	0x3d0ad3c2	0.033893354
153	0x3cd31188	0.025765195
154	0x3ad0140d	0.0015875116
155	0xbc911cb6	-0.017713886
156	0xbc4aaf00	-0.012370825
157	0xbc961d3c	-0.018324487
158	0xbc64fda0	-0.013976485
159	0xbb3813c0	-0.0028087944
160	0x3ca014c8	0.01954116
161	0xbd55a792	-0.05216176
162	0x3baef517	0.0053392756
163	0xbcca4a87	-0.02469374
164	0x3a410c09	0.0007364159
165	0x3ceedb59	0.029157327
166	0x3b23edca	0.002501356
167	0x3c9ed1d1	0.019387158
168	0xbd2ab890	-0.04167992
169	0x3b45402a	0.003009806
170	0xbc42c630	-0.011888072
171	0xbce3b571	-0.027796479
172	0xbd6fa314	-0.058505133
173	0xbd0a349f	-0.03374159
174	0xbcaf0b13	-0.021367585
175	0xbc23766e	-0.009976966
176	0xbc80f5ef	-0.01574227
177	0xbd0d8069	-0.03454629
178	0xbb7533d0	-0.0037414916
179	0xbcaf96f6	-0.021434288
180	0xbca2c9c7	-0.019871606
181	0x3cf80919	0.030277776
182	0xbc00ee17	-0.007869265
183	0xbcea99de	-0.028637823
184	0x3d0b564d	0.03401785
185	0xbcbe8d33	-0.023260688
186	0x3bf1c108	0.0073777474
187	0xbc59c8a0	-0.013292462
188	0xbcd9ddd4	-0.026595034
189	0xbcdd2922	-0.026997153
190	0x3d1f787d	0.038933266
191	0x3d3d8106	0.046265624
192	0x3caa403d	0.020782584
193	0x3c0622cf	0.00818701
194	0x3d1da873	0.038490724
195	0xbcbbb4c1	-0.022913339
196	0x3ca88a04	0.020573623
197	0x3c988c1f	0.018621502
198	0xbcd7967c	-0.026316874
199	0xbc54dbd0	-0.0129918605
200	0x3ca7cb49	0.020482676
201	0x3ac2efb0	0.0014872458
202	0xbbe61dd4	-0.0070225988
203	0xbd056dc4	-0.032575384
204	0xbc72a39f	-0.014809518
205	0xbc9a5960	-0.018841445
206	0xbc300403	-0.010743144
207	0xbd1ad79d	-0.03780328
208	0xbcea8abc	-0.028630607
209	0x3cd51095	0.026008883
210	0xbc93b2f4	-0.018029667
211	0x3b5e6271	0.0033933187
212	0x3c5f26c5	0.013620083
213	0x3b418d9a	0.0029533864
214	0xbd8cc247	-0.06872993
215	0x3c34395a	0.011000002
216	0x3d2a6b90	0.041606486
217	0xbc7eb42c	-0.015545886
218	0x3c9c95fa	0.019114483
219	0x3c85a7a2	0.016315285
220	0xba957cb0	-0.0011404958
221	0xbc75872b	-0.01498584
222	0xbcf230a1	-0.029564204
223	0x3ca79d2c	0.020460688
224	0xbc6e5142	-0.014545741
225	0xbc765260	-0.015034288
226	0xbd52f5e8	-0.051504046
227	0xba942461	-0.0011302346
228	0xbd149667	-0.036276247
229	0xbb293b6f	-0.0025822779
230	0x3c21ed33	0.009883213
231	0x3c57067c	0.013124105
232	0xbd0570e3	-0.03257836
233	0xbc1d4566	-0.009599065
234	0xbd13f8ec	-0.036126062
235	0x3a7199d3	0.0009216342
236	0x3c418a1f	0.011812716
237	0xbaaae42a	-0.0013037969
238	0x3c16e2ea	0.009209374
239	0xbc827237	-0.015923603
240	0xbb60cb8f	-0.0034301018
241	0x3d431336	0.047625743
242	0x3cb27806	0.021785747
243	0xbd2cac52	-0.042156525
244	0xbcbb3352	-0.02285162
245	0xbda857cf	-0.08219873
246	0xbc07c2f5	-0.0082862275
247	0xbcdef346	-0.027215611
248	0x3ca58e68	0.020209506
249	0xbc5a2b28	-0.013315953
250	0xbcccdaff	-0.02500677
251	0xbc9e1e58	-0.019301578
252	0x3b929a67	0.0044739726
253	0x38fbce40	0.0001200703
254	0x3b885e0a	0.004161601
255	0xbd4f9c0a	-0.05068592

action_model._discrete_distribution.branches.0.bias f4 [3]
0	0x3c12eff6	0.008968344
1	0x3aeb21c1	0.0017939137
2	0xbc13baac	-0.009016674

action_model._discrete_distribution.branches.1.weight f4 [9, 128]
0	0xbd3b45b3	-0.045720767
1	0xbc96ca21	-0.01840693
2	0xbcd004fe	-0.025393005
3	0xbd06aeab	-0.03288142
4	0x3cab55e4	0.02091498
5	0xbc9ce433	-0.019151783
6	0x3cf4a4f3	0.02986381
7	0x3cd2034f	0.025636343
8	0xbd291b1a	-0.04128561
9	0x3d386c3b	0.04502509
10	0x3cbc5b41	0.022992732
11	0x3d5b319c	0.053514108
12	0xbc7578af	-0.0149823865
13	0x3c9328f0	0.017963856
14	0x3b651f2a	0.0034961202
15	0xbba42030	-0.00500872
16	0x3b512bbc	0.0031916937
17	0x3d40614c	0.04696779
18	0x3d66b389	0.05632356
19	0xbcd76691	-0.026294025
20	0xbce9c569	-0.028536515
21	0xbc96f6a8	-0.018428162
22	0x3b579dcd	0.0032900453
23	0xbc39697c	-0.011316653
24	0xbca78a48	-0.02045168
25	0x3c6dcba9	0.014513888
26	0x3d18464f	0.037176427
27	0x3a99b81a	0.001172784
28	0x3d29dd8f	0.04147106
29	0x3c9662a5	0.018357584
30	0xbcea3c0d	-0.028593088
31	0x3c8073af	0.015680162
32	0x3b417455	0.0029518802
33	0x3cad2a0d	0.021138215
34	0xbcc36ea2	-0.023856465
35	0x3c09a1a2	0.008400353
36	0x3cca9f93	0.024734294
37	0x3c271b44	0.010199372
38	0x3d2b31a4	0.041795388
39	0x3c4594ec	0.0120594315
40	0x3cd167d8	0.025562212
41	0x3d2d4004	0.04229738
42	0xbbc40af5	-0.0059827515
43	0x3c0219e6	0.007940745
44	0x3c1f606c	0.009727579
45	0xbaf3f33a	-0.0018611916
46	0x3d98cd37	0.074610166
47	0x3d5f6cd7	0.054547157
48	0xbcacdcf4	-0.021101452
49	0x3be1859d	0.006882383
50	0x3bfa043f	0.0076299007
51	0xbbf6c9bb	-0.0075313724
52	0xbd4b205f	-0.04959142
53	0xbd0bc2fc	-0.0341215
54	0xbc10a99c	-0.0088295005
55	0x3d3666f4	0.044531778
56	0x3c208cf7	0.009799234
57	0x3ce914cc	0.0284523
58	0x3c491a85	0.012274389
59	0x3ba16295	0.004925082
60	0xbc4236b1	-0.01185386
61	0xbcaf9527	-0.021433426
62	0xbc3cde7b	-0.011527653
63	0x3cb4dc57	0.022077722
64	0xbd25c5f8	-0.040472
65	0x3c73ea39	0.014887386
66	0xbda22862	-0.07917859
67	0x3cec6a4a	0.028859276
68	0xbcb916df	-0.022593914
69	0xbd9abcfa	-0.07555576
70	0xbcd3b0cd	-0.025841141
71	0x3ccee36c	0.025254928
72	0xbc8d6f0f	-0.01726487
73	0x3cfc097d	0.030766243
74	0xbd130fa1	-0.035903577
75	0x3cab93c8	0.020944491
76	0xbd47a1ba	-0.04873822
77	0xbcb5f861	-0.022213163
78	0x3cdd53bb	0.027017465
79	0x3c9f8ab1	0.019475313
80	0xbca3e6a4	-0.020007439
81	0xbd1abfaf	-0.03778046
82	0x3d65843f	0.056034323
83	0xbd509297	-0.05092105
84	0x3cf87e73	0.030333733
85	0x3d249c8b	0.040188354
86	0xbd3cecd3	-0.04612429
87	0x3d38743b	0.04503272
88	0x3d216965	0.039407153
89	0x3ced9745	0.029002795
90	0x3d01264f	0.031530675
91	0x3b014ac2	0.0019728397
92	0xbc9b89c9	-0.0189866
93	0x3a93a90a	0.0011265588
94	0x3c180a3c	0.009279784
95	0xbd638d5e	-0.05555474
96	0x3cc4f14f	0.024040846
97	0x3c26a371	0.010170803
98	0xbac6b6cd	-0.001516068
99	0xbc5e4721	-0.013566763
100	0xbc933471	-0.017969342
101	0x3ce16684	0.027514704
102	0x3c0c36e0	0.008558005
103	0x3cbbdad7	0.0229315
104	0xbd0aacf1	-0.033856336
105	0xbd4b8638	-0.049688548
106	0xbb05ac61	-0.0020396935
107	0xbaae9470	-0.0013319384
108	0x3b83e3bd	0.0040249513
109	0xbc23a956	-0.009989103
110	0x3c1b8040	0.009491026
111	0xbc9e7c0b	-0.019346258
112	0xb9da55bd	-0.0004164408
113	0xbcb279d3	-0.021786606
114	0x3c6ebd87	0.014571554
115	0xbca6f56f	-0.020380704
116	0xbd22bbc8	-0.039729863
117	0x3d18f3e9	0.037341986
118	0x3d3a198a	0.045434512
119	0xbca3cc56	-0.019994896
120	0xbb9aa5f8	-0.004719492
121	0x3cf5e482	0.030016188
122	0xbcdb3f62	-0.026763622
123	0x3d0bddbe	0.034147017
124	0x3c56cc8a	0.013110289
125	0xbd97b5e4	-0.0740774
126	0xbd95f182	-0.073214546
127	0x3d3dee8f	0.046370085
128	0x3da7d781	0.08195401
129	0xbd10b6f4	-0.035330728
130	0xbcb55cdc	-0.022139005
131	0x3b540f1b	0.0032357636
132	0xbb9854a1	-0.0046487604
133	0xbc7da3ee	-0.015480978
134	0x3d03d7ca	0.032188214
135	0xbce71808	-0.028209701
136	0xbcaa6b49	-0.02080311
137	0xbd251466	-0.040302657
138	0xbcddc939	-0.02707349
139	0x3d6445a9	0.055730496
140	0x3d842cbc	0.06453845
141	0xbc3fdc6a	-0.011710266
142	0x3d4864ce	0.04892426
143	0xbc820038	-0.015869245
144	0xbcffbc03	-0.03121758
145	0x3c6c063d	0.014405784
146	0x3daa9545	0.08329252
147	0xbc426b5a	-0.011866415
148	0x3c24da24	0.010061774
149	0x3b95a452	0.0045667076
150	0xbcc97a35	-0.024594406
151	0xbd643636	-0.055715762
152	0xbcc1051a	-0.023562003
153	0xbd8bc093	-0.0682384
154	0xbcd82f23	-0.026389664
155	0x39d7c59d	0.0004115523
156	0xbb667b32	-0.0035168645
157	0xbd00b2aa	-0.031420387
158	0x3d2a0145	0.041505117
159	0x3ce179f2	0.027523968
160	0x3c0e19c4	0.008673135
161	0x3dadef4e	0.08492909
162	0x3d8b3601	0.0679741
163	0xbd27c7d6	-0.040962063
164	0xbc7ddeed	-0.015495044
165	0xbc2520d1	-0.010078625
166	0x3cfe180e	0.03101733
167	0xbd39f96e	-0.04540389
168	0xbd09b3e7	-0.033618834
169	0xbd7c85bc	-0.061650977
170	0x3d09ba80	0.033625126
171	0x3d3218d5	0.043480713
172	0x3d26d53e	0.040730707
173	0xbd1f6903	-0.038918506
174	0xbd3f9f9c	-0.046783075
175	0xbccc9afb	-0.024976244
176	0xbd34cf2e	-0.044142894
177	0x3cc75705	0.024333486
178	0xbc11f9f3	-0.00890969
179	0xbca9ec48	-0.02074255
180	0x3c0ef8d9	0.008726322
181	0xbd123e97	-0.03570422
182	0x3a87468b	0.0010320706
183	0x3c915a9c	0.017743401
184	0x3ce8fde6	0.02844138
185	0xbcf37038	-0.029716596
186	0x3c037985	0.008024578
187	0xbbea533e	-0.0071510365
188	0x3cf78598	0.03021507
189	0x3cfd239b	0.030900767
190	0xbbebb251	-0.007192888
191	0xbd8deadc	-0.069295615
192	0xbc2b290d	-0.010446799
193	0xbd0159ea	-0.03157989
194	0x3c63fcfb	0.013915296
195	0xbcdb856b	-0.026797017
196	0x3bd0bf86	0.0063704876
197	0x3cc2a695	0.023761073
198	0xbaceaf9c	-0.0015768888
199	0x3cab29c6	0.020893943
200	0xbd546468	-0.051853567
201	0x3dab0a12	0.0835153
202	0xbcdb9b43	-0.026807433
203	0x3d04b183	0.03239585
204	0xbd4de874	-0.050270513
205	0x3b881bdd	0.004153712
206	0x3cb0d2e1	0.02158493
207	0x3acf5584	0.0015818332
208	0x3c84e497	0.016222281
209	0xbc31ecb6	-0.010859659
210	0x3ca3d186	0.01999737
211	0x3d01320a	0.03154186
212	0x3cde9b04	0.027173527
213	0xbcb6e1cd	-0.022324467
214	0x3d9c6193	0.07635798
215	0xbcd0340e	-0.025415447
216	0xbd5231ed	-0.051317144
217	0xbbf55c1e	-0.007487788
218	0xbcae2359	-0.02125709
219	0xbcf0d2a4	-0.029397316
220	0xbcaa9722	-0.020824019
221	0xbb883ca0	-0.0041576177
222	0x3de35af9	0.11101336
223	0xbd6f40e5	-0.058411498
224	0x3cbd776f	0.02312824
225	0xbc6864ee	-0.01418422
226	0xbd61e30b	-0.055148166
227	0x3cd02024	0.02540595
228	0x3d687bd3	0.056758713
229	0x3c507127	0.01272229
230	0xbcf1890b	-0.029484292
231	0xba4f3abd	-0.0007905176
232	0xbd51d273	-0.05122609
233	0x3c976be3	0.018484062
234	0x3d1005fb	0.035161953
235	0xbca8d849	-0.020610945
236	0x3c98a397	0.018632693
237	0xbcb678c2	-0.022274379
238	0x3c1e7752	0.009672003
239	0x3d23e906	0.04001715
240	0xbc2f6a70	-0.010706529
241	0x3b1db378	0.002406327
242	0x3c4bef6f	0.012447222
243	0x3bddbd0b	0.0067669204
244	0x3cce33ab	0.025171122
245	0x3ca233f6	0.019800168
246	0xbd2e1318	-0.042498678
247	0x3d123692	0.035696574
248	0xbb3a8e75	-0.0028466259
249	0x3b19b919	0.0023456274
250	0x3dc607a0	0.09669423
251	0xbc831dee	-0.016005483
252	0xbc807519	-0.015680837
253	0x3d99b85d	0.07505868
254	0xbc1e46c9	-0.009660431
255	0x39b27e21	0.0003404478

action_model._discrete_distribution.branches.1.bias f4 [9]
0	0x3c09366b	0.008374791
1	0x3ce8cf97	0.028419299
2	0x3c701118	0.014652513
3	0xbc9f6f04	-0.019462116
4	0x3b08ac6a	0.002085472
5	0xbcd6cb6b	-0.026220044
6	0x3bba2b48	0.005681429
7	0x3c317cc4	0.010832969
8	0xbc17ba34	-0.009260703

onnx::Div_68 f4 [246]
0	0x3fc1decc	1.5146117
1	0x3faf7007	1.3706063
2	0x3fd26eb3	1.6440033
3	0x400d4574	2.207364
4	0x40017152	2.0225415
5	0x40313196	2.7686515
6	0x3fb6733a	1.4253914
7	0x3fbbfde6	1.4686859
8	0x3fbc2867	1.469983
9	0x3fc295a1	1.5201913
10	0x40099cdf	2.1501997
11	0x3fb20953	1.3909096
12	0x3fae8c34	1.3636537
13	0x3fef138d	1.8677841
14	0x3fd9aea3	1.700642
15	0x3fbe508b	1.486833
16	0x3fd5ef9d	1.6713749
17	0x3a395c15	0.0007070911
18	0x3a395c15	0.0007070911
19	0x40842d23	4.13051
20	0x4035e457	2.8420618
21	0x4011bdd3	2.277211
22	0x3a395c15	0.0007070911
23	0x3a395c15	0.0007070911
24	0x3a395c15	0.0007070911
25	0x3a395c15	0.0007070911
26	0x3fd30349	1.6485378
27	0x3fcba3f9	1.5909415
28	0x3fda9128	1.7075548
29	0x3fa7a0df	1.3095969
30	0x3ff02eeb	1.8764318
31	0x400f8fe0	2.2431564
32	0x3a395c15	0.0007070911
33	0x3a395c15	0.0007070911
34	0x3fc36f2c	1.5268302
35	0x408d5a0c	4.417242
36	0x3fdcfc25	1.7264448
37	0x3a395c15	0.0007070911
38	0x3fc4a85e	1.5363882
39	0x3fd7bf86	1.6855323
40	0x3a395c15	0.0007070911
41	0x3fad5369	1.354108
42	0x3ffd5dfa	1.9794304
43	0x3fa8d45e	1.3189809
44	0x3fc3e26d	1.5303475
45	0x4028c50a	2.6370263
46	0x3ff5b9b5	1.9197298
47	0x3a395c15	0.0007070911
48	0x3a395c15	0.0007070911
49	0x3fea1351	1.8287145
50	0x3fe10d9e	1.7582281
51	0x3ff683d2	1.9258978
52	0x3a395c15	0.0007070911
53	0x3ff6a4b4	1.9269013
54	0x40399b25	2.9000943
55	0x3a395c15	0.0007070911
56	0x3fe693bf	1.8013839
57	0x3fd0e955	1.6321207
58	0x3f9e07a5	1.2346083
59	0x3fb01149	1.3755275
60	0x3fca7f46	1.5820091
61	0x40834c4d	4.103064
62	0x3a395c15	0.0007070911
63	0x3a395c15	0.0007070911
64	0x4085aa1a	4.1770144
65	0x40456387	3.0841997
66	0x3fd1852b	1.6368765
67	0x3a395c15	0.0007070911
68	0x3fd1aa2f	1.6380061
69	0x3fae4b01	1.3616639
70	0x3a395c15	0.0007070911
71	0x40026116	2.0371757
72	0x3fa9fad0	1.3279667
73	0x3fb6bbc1	1.4276048
74	0x3fa37b0e	1.2771928
75	0x40803cd9	4.0074277
76	0x408d1b9b	4.40962
77	0x3a395c15	0.0007070911
78	0x3a395c15	0.0007070911
79	0x408b25d8	4.3483696
80	0x3fcffb9e	1.6248662
81	0x3fb08194	1.3789544
82	0x3a395c15	0.0007070911
83	0x3fb1b8d3	1.3884529
84	0x3fe78097	1.8086118
85	0x3a395c15	0.0007070911
86	0x3fa30437	1.2735661
87	0x3fd572a1	1.6675607
88	0x3fb10744	1.3830342
89	0x3fdea689	1.7394572
90	0x404d58b6	3.2085395
91	0x408d1f06	4.410037
92	0x3a395c15	0.0007070911
93	0x3a395c15	0.0007070911
94	0x4081b005	4.0527368
95	0x4038f448	2.8899097
96	0x4017d27e	2.3722224
97	0x3a395c15	0.0007070911
98	0x403ebfdf	2.980461
99	0x400b1bb0	2.173565
100	0x3a395c15	0.0007070911
101	0x3a395c15	0.0007070911
102	0x3a395c15	0.0007070911
103	0x3aaae495	0.0013038093
104	0x3fb42cf5	1.407622
105	0x408d5e88	4.4177895
106	0x3a83119a	0.0009999753
107	0x3a395c15	0.0007070911
108	0x3a395c15	0.0007070911
109	0x408bbd20	4.3668365
110	0x408d11d6	4.4084272
111	0x3fee1d86	1.860276
112	0x3a395c15	0.0007070911
113	0x400c75d0	2.1946907
114	0x3fc98451	1.5743505
115	0x3ff0c649	1.8810512
116	0x3fcee700	1.6164246
117	0x3fd847c9	1.6896907
118	0x3fb5afea	1.419431
119	0x3fd80fc1	1.6879808
120	0x408a5cd8	4.3238335
121	0x3a395c15	0.0007070911
122	0x3a395c15	0.0007070911
123	0x3a395c15	0.0007070911
124	0x4086b64b	4.2097526
125	0x3fc4560d	1.5338761
126	0x40098358	2.1486416
127	0x3a395c15	0.0007070911
128	0x3fc539cd	1.5408264
129	0x3fbb30be	1.462425
130	0x3fd89d97	1.6923093
131	0x3fd6d64e	1.6784151
132	0x3ff8ecce	1.9447267
133	0x3fd1664e	1.6359346
134	0x3fc26a68	1.5188723
135	0x408d3932	4.413232
136	0x3a395c15	0.0007070911
137	0x3a395c15	0.0007070911
138	0x3a395c15	0.0007070911
139	0x407ced08	3.9519672
140	0x404c3e49	3.1913016
141	0x3fc2a153	1.5205482
142	0x3a395c15	0.0007070911
143	0x3ff3c479	1.9044334
144	0x4000678a	2.0063195
145	0x3fb8f615	1.4450098
146	0x3fa9d42e	1.3267877
147	0x3fa4debb	1.2880472
148	0x3f9fd5e6	1.2487152
149	0x3fa9dea1	1.3271066
150	0x408abed8	4.3357964
151	0x3a395c15	0.0007070911
152	0x3a395c15	0.0007070911
153	0x3a395c15	0.0007070911
154	0x407c0c83	3.9382637
155	0x3fe855c6	1.8151176
156	0x3fc07180	1.5034637
157	0x3a395c15	0.0007070911
158	0x3ff28f80	1.8950043
159	0x3fbce656	1.4757793
160	0x3fbce6e6	1.4757965
161	0x3fb2b15e	1.3960378
162	0x3fc27065	1.519055
163	0x3fb37f8a	1.4023297
164	0x3fb19f38	1.3876715
165	0x4073f2b4	3.8116884
166	0x3a395c15	0.0007070911
167	0x3a395c15	0.0007070911
168	0x3a395c15	0.0007070911
169	0x4085bb20	4.1790924
170	0x400001ff	2.0001218
171	0x404a65bd	3.1624596
172	0x3a395c15	0.0007070911
173	0x3ffaeeea	1.9604161
174	0x3fd07b70	1.628767
175	0x3fdc2c33	1.7200989
176	0x3fbe26b5	1.4855562
177	0x3fda603e	1.7060621
178	0x3f9a10b6	1.203635
179	0x3f951dab	1.1649679
180	0x3fe3ffc3	1.7812427
181	0x405d665b	3.4593723
182	0x408d71dd	4.4201493
183	0x3a395c15	0.0007070911
184	0x4052bbf1	3.292721
185	0x3feb149b	1.8365663
186	0x4007f03c	2.1240377
187	0x3a395c15	0.0007070911
188	0x400b55d7	2.1771142
189	0x3fbc4cbf	1.4710921
190	0x3fb280fb	1.3945612
191	0x3fae68f3	1.3625778
192	0x3faba8a4	1.341084
193	0x3fb78fe7	1.434079
194	0x3fd3b6a6	1.6540115
195	0x405f9b3a	3.4938493
196	0x4006da48	2.1070728
197	0x408324cd	4.0982423
198	0x3a395c15	0.0007070911
199	0x3a395c15	0.0007070911
200	0x3a395c15	0.0007070911
201	0x3a395c15	0.0007070911
202	0x3a395c15	0.0007070911
203	0x3fe1c28f	1.76375
204	0x401933f6	2.3937964
205	0x3fa6a664	1.3019528
206	0x3ff15d45	1.8856589
207	0x3f8fa615	1.1222559
208	0x3f98e1fe	1.1943967
209	0x3fa152d8	1.2603407
210	0x3fc21d10	1.5165119
211	0x3fde07b8	1.7346106
212	0x3fe68fff	1.8012694
213	0x3fd2ec6c	1.64784
214	0x402302b5	2.5470402
215	0x3fee7714	1.863009
216	0x3fc9b69f	1.5758857
217	0x3fccf1ec	1.6011329
218	0x401f7672	2.4916043
219	0x3fbeebcd	1.4915711
220	0x3fccd12d	1.6001335
221	0x3fc79578	1.5592489
222	0x3fab070a	1.3361523
223	0x3faaddff	1.3348998
224	0x3fde6bea	1.7376683
225	0x3fc032d5	1.5015513
226	0x3f48a19a	0.78371584
227	0x3f5a8ec1	0.85374075
228	0x3f83489c	1.0256534
229	0x3f3b56c2	0.73179257
230	0x3f3da58f	0.7408075
231	0x3f4feb1a	0.8121811
232	0x3ed601c8	0.41798234
233	0x3f3d373c	0.73912406
234	0x4056b7be	3.3549647
235	0x4088575f	4.2606654
236	0x404462b4	3.0685244
237	0x3f5a3c49	0.8524824
238	0x3f60d108	0.87818956
239	0x3f42dcb3	0.7611801
240	0x3ef135de	0.4711141
241	0x3eb313bf	0.34976003
242	0x3f13489a	0.57532656
243	0x3d9ce025	0.0765994
244	0x3e2b3343	0.16718774
245	0x3e96235a	0.29323846
