Unity/RL-Framework/Assets/ML-Agents/Models/Experiment_3/DefenderBehavior.onnx (onnx, 327093 bytes, 13 tensors)

discrete_act_size_vector f4 [1, 3]
3.0 9.0 225.0
00000000: 0000 4040 0000 1041 0000 6143

network_body.observation_encoder.processors.0.normalizer.running_mean f4 [246]
1.2901859 1.2394482 1.3405675 1.6158953 1.5287998 2.0203035 1.2534413 1.2676722
1.2743038 1.2896069 1.5897181 1.2450994 1.234736 1.4449385 1.3669035 1.2781076
1.3544359 1.9999584 1.9999584 3.8860314 2.083844 1.666792 1.9999584 1.9999584
1.9999584 1.9999584 1.3383396 1.3195559 1.3670082 1.2180144 1.445984 1.6495812
1.9999584 1.9999584 1.2979261 5.2356453 1.3735014 1.9999584 1.3003073 1.3613322
1.9999584 1.2318623 1.4951545 1.2201346 1.2973645 1.9069312 1.4713954 1.9999584
1.9999584 1.4228238 1.3904682 1.475969 1.9999584 1.469298 2.1344588 1.9999584
1.4125396 1.3394959 1.1910945 1.2403587 1.3142815 3.8194346 1.9999584 1.9999584
3.9937196 2.306303 1.339944 1.9999584 1.344515 1.2343023 1.9999584 1.5339174
1.2236444 1.2564389 1.2055147 3.6129038 5.368682 1.9999584 1.9999584 4.695503
1.3382872 1.2358743 1.9999584 1.2434255 1.4188235 1.9999584 1.2047606 1.35523
1.2388906 1.3798684 2.4267423 5.8980236 1.9999584 1.9999584 3.6949666 2.1057792
1.72233 1.9999584 2.202674 1.609308 1.9999584 1.9999584 1.9999584 3.9999168
1.2525048 5.1418476 2.9999285 1.9999584 1.9999584 4.8024316 5.744156 1.4433458
1.9999584 1.6140411 1.3120885 1.4542117 1.3318064 1.3620912 1.2555442 1.3554567
6.406133 1.9999584 1.9999584 1.9999584 4.0987363 1.2961404 1.590428 1.9999584
1.296457 1.2691356 1.3588047 1.3537006 1.4794786 1.3313727 1.2922454 5.2935095
1.9999584 1.9999584 1.9999584 3.4897866 2.4180448 1.2927165 1.9999584 1.4625691
1.5199244 1.2622659 1.2231808 1.2080191 1.1953037 1.2210915 4.6597195 1.9999584
1.9999584 1.9999584 3.4352384 1.4161831 1.2853111 1.9999584 1.4580042 1.2746108
1.273319 1.2469548 1.2949338 1.2501463 1.2433227 3.227281 1.9999584 1.9999584
1.9999584 4.0206532 1.5012143 2.3872366 1.9999584 1.4818597 1.3350176 1.3701357
1.2771792 1.3640431 1.1811076 1.1687046 1.3943515 2.7173834 5.5983152 1.9999584
2.512718 1.4367323 1.5807573 1.9999584 1.6092198 1.2703251 1.2445104 1.2292249
1.2268622 1.2578846 1.3466623 2.7527838 1.5693817 3.7862904 1.9999584 1.9999584
1.9999584 1.9999584 1.9999584 1.3940827 1.737175 1.2145671 1.4558325 1.1609125
1.1775304 1.1977587 1.287791 1.3811798 1.4141638 1.3451177 1.8464205 1.4458964
1.313343 1.3208034 1.803898 1.2834531 1.3231937 1.3108362 1.2253786 1.2232791
1.3843809 0.8780991 0.2241335 0.27079934 0.7321265 0.32772323 0.4066229 0.45888877
0.17058912 0.46214506 1.8208046 2.149701 1.5850872 0.39592868 0.36626863 0.33423045
0.13674775 0.09217048 0.18519136 0.026278298 0.040797338 0.629807
00000000: d024 a53f 3da6 9e3f b797 ab3f a8d5 ce3f
00000010: b6af c33f a74c 0140 c470 a03f 1543 a23f
00000020: 631c a33f d711 a53f e27b cb3f 6b5f 9f3f
00000030: d40b 9e3f bff3 b83f b2f6 ae3f 0899 a33f
00000040: 285e ad3f a3fe ff3f a3fe ff3f bdb4 7840
00000050: b35d 0540 7159 d53f a3fe ff3f a3fe ff3f
00000060: a3fe ff3f a3fe ff3f b64e ab3f 35e7 a83f
00000070: 20fa ae3f e5e7 9b3f 0116 b93f 7a25 d33f
00000080: a3fe ff3f a3fe ff3f 7122 a63f 688a a740
00000090: e5ce af3f a3fe ff3f 7870 a63f 2240 ae3f
000000a0: a3fe ff3f aaad 9d3f 3961 bf3f 5f2d 9c3f
000000b0: 0a10 a63f 5216 f43f af56 bc3f a3fe ff3f
000000c0: a3fe ff3f 171f b63f ddfa b13f 8dec bc3f
000000d0: a3fe ff3f f511 bc3f f99a 0840 a3fe ff3f
000000e0: 19ce b43f 9a74 ab3f c975 983f 13c4 9e3f
000000f0: 603a a83f 9e71 7440 a3fe ff3f a3fe ff3f
00000100: 1a99 7f40 789a 1340 4983 ab3f a3fe ff3f
00000110: 1119 ac3f 9efd 9d3f a3fe ff3f 6857 c43f
00000120: 61a0 9c3f fdd2 a03f 4e4e 9a3f d139 6740
00000130: 3ecc ab40 a3fe ff3f a3fe ff3f 9041 9640
00000140: ff4c ab3f 2131 9e3f a3fe ff3f 9128 9f3f
00000150: 029c b53f a3fe ff3f 9835 9a3f 2d78 ad3f
00000160: f893 9e3f 879f b03f bf4f 1b40 9cbc bc40
00000170: a3fe ff3f a3fe ff3f 557a 6c40 16c5 0640
00000180: 4f75 dc3f a3fe ff3f 9cf8 0c40 cefd cd3f
00000190: a3fe ff3f a3fe ff3f a3fe ff3f a3fe 7f40
000001a0: 1452 a03f 048a a440 d4fe 3f40 a3fe ff3f
000001b0: a3fe ff3f 85ad 9940 20d0 b740 8ebf b83f
000001c0: a3fe ff3f e698 ce3f 84f2 a73f 9c23 ba3f
000001d0: a278 aa3f 0159 ae3f acb5 a03f 9b7f ad3f
000001e0: 0bff cc40 a3fe ff3f a3fe ff3f a3fe ff3f
000001f0: d928 8340 eee7 a53f 2593 cb3f a3fe ff3f
00000200: 4ef2 a53f 0973 a23f 50ed ad3f 1046 ad3f
00000210: 8e5f bd3f 6c6a aa3f 4c68 a53f 6e64 a940
00000220: a3fe ff3f a3fe ff3f a3fe ff3f aa58 5f40
00000230: 3fc1 1a40 bc77 a53f a3fe ff3f 7735 bb3f
00000240: e28c c23f ee91 a13f 3091 9c3f 5fa0 9a3f
00000250: b6ff 983f ba4c 9c3f 6c1c 9540 a3fe ff3f
00000260: a3fe ff3f a3fe ff3f f2da 5b40 7d45 b53f
00000270: 1385 a43f a3fe ff3f e29f ba3f 7226 a33f
00000280: 1efc a23f 379c 9f3f 64c0 a53f cb04 a03f
00000290: 3325 9f3f c68b 4e40 a3fe ff3f a3fe ff3f
000002a0: a3fe ff3f 31a9 8040 ca27 c03f 7cc8 1840
000002b0: a3fe ff3f 94ad bd3f dbe1 aa3f 9b60 af3f
000002c0: 9c7a a33f f798 ae3f 892e 973f 1d98 953f
000002d0: 1c7a b23f 9ce9 2d40 6625 b340 a3fe ff3f
000002e0: 5fd0 2040 d8e6 b73f 4156 ca3f a3fe ff3f
000002f0: eafa cd3f 039a a23f 1e4c 9f3f 3e57 9d3f
00000300: d209 9d3f 5d02 a13f 6e5f ac3f 9c2d 3040
00000310: 80e1 c83f 9552 7240 a3fe ff3f a3fe ff3f
00000320: a3fe ff3f a3fe ff3f a3fe ff3f 4d71 b23f
00000330: c05b de3f ef76 9b3f b858 ba3f c898 943f
00000340: 51b9 963f 2850 993f 56d6 a43f 80ca b03f
00000350: 5203 b53f d12c ac3f 8257 ec3f 2213 b93f
00000360: a01b a83f 1610 a93f 21e6 e63f 3148 a43f
00000370: 695e a93f 7bc9 a73f 35d9 9c3f 6994 9c3f
00000380: 6533 b13f 1acb 603f 4183 653e 36a6 8a3e
00000390: a46c 3b3f 57cb a73e e030 d03e 78f3 ea3e
000003a0: eaae 2e3e 479e ec3e 2010 e93f b494 0940
000003b0: 23e4 ca3f 2ab7 ca3e 9087 bb3e 4120 ab3e
000003c0: 9a07 0c3e e0c3 bc3d cea2 3d3e 9645 d73c
000003d0: 1c1b 273d 083b 213f

network_body._body_endoder.seq_layers.0.weight f4 [128, 246]
0.051493127 -0.027056178 -0.1763326 0.05305473 0.0508234 -0.06564276 0.12845565 0.18273892
-0.058372967 0.045463663 0.05546821 -0.023406623 -0.072772205 -0.00760985 -0.14699794 0.00233709
-0.05905752 0.04882311 -0.008414028 -0.24813142 -0.08605703 0.052544095 0.1189127 0.058969446
0.0604461 0.10407652 -0.08039533 -0.06711271 0.043991987 0.11431234 0.1050792 -0.05360211
0.05920042 0.012815522 0.0356338 0.014382938 -0.06760837 0.052674808 -0.10895752 -0.0720451
0.00450059 0.004354429 -0.0927986 -0.012740056 -0.11972771 0.06946968 -0.0017004284 -0.071051806
0.020433603 -0.024056954 0.008382773 -0.052075457 0.07393144 0.07090593 0.001741275 0.2463369
0.03580958 0.026993603 0.026102984 -0.17680945 0.018589353 -0.12718894 0.10684954 0.09099881
0.05782833 0.019118052 0.052767433 0.0039935242 0.022238072 0.018012298 0.054048315 0.088772155
-0.06461727 0.015180182 -0.030017043 0.16934507 0.09877802 0.10309555 0.022418177 -0.06655221
0.021139638 -0.021547642 0.030135222 -0.037774216 0.15136592 0.090573296 0.009120893 0.0063300743
-0.06932404 -0.028977668 -0.06722013 0.03893265 0.03879521 0.06567438 0.13705999 -0.032502234
0.048717305 0.11961593 0.009686769 -0.003227679 0.079756215 -0.12414603 0.01828917 0.04390057
-0.00413926 -0.083403826 0.04636487 0.011725429 0.0424864 0.1607962 0.050923347 -0.04350674
-0.011324473 -0.037201285 -0.032971233 -0.013367259 -0.16934125 -0.013991439 0.07810544 0.09949964
-0.16435423 0.056814745 0.12160876 0.018911073 -0.08152352 -0.031925227 0.11071086 0.0036166501
0.10704877 -0.048793465 -0.027107721 -0.09465553 0.025828661 0.08498525 0.08111822 -0.07338449
0.15327291 0.06949063 0.18754049 0.09831651 0.05347047 0.11075354 0.08498065 0.087286875
0.05472737 -0.027432822 0.04625572 0.17854512 0.054133043 0.046475884 0.021863239 -0.010723848
-0.021344738 0.15155803 0.0067657274 -0.14393571 0.03110604 0.110264525 -0.015643226 -0.07339362
-0.0015837568 -0.07086216 -0.046620484 -0.097277924 -0.1450034 0.010491675 -0.01800727 0.06913239
0.098107204 -0.056085434 -0.022434063 0.02217304 0.11254117 -0.12899826 -0.19833224 0.060442246
-0.037596222 0.037758183 0.011499035 -0.02271988 -0.0015059991 -0.118240446 -0.009402745 0.033035815
0.04920955 0.0655024 -0.08826487 0.11692189 -0.10438964 -0.0018472767 -0.017434098 -0.010767667
-0.032123145 0.05967607 -0.11148051 -0.14405832 -0.02679491 0.039343074 0.16673453 0.039996438
0.08195244 0.1939732 0.11188424 0.07587959 -0.048853993 0.046551447 -0.021769855 -0.0026278489
0.019656582 0.020158315 -0.01526561 -0.11294906 -0.093450144 -0.0030624536 0.041318357 0.0967161
0.04032336 0.027671477 0.0368511 -0.085282974 0.061491724 0.03294634 -0.15842779 0.02223569
-0.024411164 0.007592746 0.08391491 -0.08222197 -0.026672577 0.015863111 0.014431283 0.053250622
0.07970247 0.00017485731 -0.1731901 0.011207972 -0.106469534 0.038679566 0.040821195 0.016331011
-0.16280665 -0.0533805 -0.070504785 0.17410253 -0.014499197 -0.15259002 -0.036551584 0.08012988
0.124774866 -0.19522654 0.104567155 0.11234854 -0.05382487 0.023558654 0.08799123 -0.10856807
00000000: 75ea 523d eba4 ddbc 8890 34be eb4f 593d
00000010: 332c 503d b66f 86bd e189 033e e91f 3b3e
00000020: 7e18 6fbd 1b38 3a3d a232 633d 3fbf bfbc
00000030: 9809 95bd 0c5c f9bb a186 16be dd29 193b
00000040: 4ce6 71bd befa 473d feda 09bc 2a16 7ebe
00000050: ab3e b0bd 7a38 573d 8088 f33d f289 713d
00000060: 5496 773d 1226 d53d 4fa6 a4bd 6372 89bd
00000070: f130 343d 971c ea3d c333 d73d e38d 5bbd
00000080: 247c 723d 32f8 513c bff4 113d 6aa6 6b3c
00000090: 4276 8abd 8ac1 573d 1f25 dfbd 628c 93bd
000000a0: af79 933b 99af 8e3b 310d bebd abbb 50bc
000000b0: cd33 f5bd 1f46 8e3d e9e0 deba 9c83 91bd
000000c0: 5f64 a73c 1713 c5bc e657 093c 134d 55bd
000000d0: 5e69 973d 2137 913d 7e3b e43a be3f 7c3e
000000e0: 11ad 123d b021 dd3c edd5 d53c 890d 35be
000000f0: b348 983c d13d 02be eed3 da3d 965d ba3d
00000100: 66dd 6c3d 769d 9c3c aa22 583d 1cdc 823b
00000110: 9e2c b63c 878e 933c c461 5d3d 2dce b53d
00000120: 0f56 84bd 4cb6 783c 4de6 f5bc cb68 2d3e
00000130: 214c ca3d c223 d33d 53a6 b73c 864c 88bd
00000140: 092d ad3c ae84 b0bc 24de f63c 23b9 1abd
00000150: abff 1a3e 7e7e b93d cc6f 153c 836c cf3b
00000160: c3f9 8dbd 9362 edbc b5aa 89bd d877 1f3d
00000170: bae7 1e3d 4a80 863d 7459 0c3e 1021 05bd
00000180: cc8b 473d 32f9 f43d 41b5 1e3c 7887 53bb
00000190: 3a57 a33d 4640 febd 2bd3 953c 16d1 333d
000001a0: a1a2 87bb a0cf aabd 17e9 3d3d 041c 403c
000001b0: 3806 2e3d c2a7 243e 0095 503d 2034 32bd
000001c0: 488a 39bc 6060 18bd d80c 07bd 5902 5bbc
000001d0: cb67 2dbe 593c 65bc bff5 9f3d 78c6 cb3d
000001e0: 7a4c 28be 94b6 683d 030e f93d 65eb 9a3c
000001f0: cef5 a6bd 07c4 02bd 60bc e23d 5205 6d3b
00000200: 633c db3d a8db 47bd 0311 debc c2da c1bd
00000210: a196 d33c bf0c ae3d 4f21 a63d 9c4a 96bd
00000220: 93f3 1c3e 1a51 8e3d 9d0a 403e 2b5a c93d
00000230: da03 5b3d c1d2 e23d 560a ae3d 76c3 b23d
00000240: cf29 603d ccba e0bc a376 3d3d 88d4 363e
00000250: 9cba 5d3d 7f5d 3e3d 891a b33c 14b3 2fbc
00000260: 29db aebc 0732 1b3e 09b3 dd3b e263 13be
00000270: 18d2 fe3c 5ed2 e13d 3926 80bc 654f 96bd
00000280: 0f96 cfba 2e20 91bd 1ff5 3ebd a639 c7bd
00000290: c57b 14be 46e5 2b3c fb83 93bc 4895 8d3d
000002a0: 6eec c83d d7b9 65bd a4c7 b7bc 3ca4 b53c
000002b0: fc7b e63d 1f18 04be 9b17 4bbe 4a92 773d
000002c0: 7ffe 19bd 53a8 1a3d 7366 3c3c 0b1f babc
000002d0: f264 c5ba 0c28 f2bd f90d 1abc 9050 073d
000002e0: f48f 493d 1f26 863d 36c4 b4bd be74 ef3d
000002f0: 3cca d5bd 5220 f2ba f4d1 8ebc de6a 30bc
00000300: 8f93 03bd e56e 743d e54f e4bd 0684 13be
00000310: 0081 dbbc 3426 213d 75bc 2a3e 4ed3 233d
00000320: aed6 a73d e9a0 463e 9023 e53d c266 9b3d
00000330: 201b 48bd bbac 3e3d b256 b2bc fd37 2cbb
00000340: d706 a13c 0d23 a53c 9c1c 7abc d651 e7bd
00000350: ca62 bfbd 72b3 48bb 703d 293d 1713 c63d
00000360: 1c2a 253d 4baf e23c 2ef1 163d d7a8 aebd
00000370: bfde 7b3d bef2 063d e53a 22be 9f27 b63c
00000380: ecf9 c7bc 92cc f83b 95db ab3d fe63 a8bd
00000390: 7380 dabc 5bf3 813c 3071 6c3c 531d 5a3d
000003a0: 0c3b a33d e759 3739 bf58 31be a4a1 373c
000003b0: b30c dabd 776e 1e3d 2034 273d 9dc8 853c
000003c0: c9b6 26be 83a5 5abd d064 90bd ef47 323e
000003d0: 0a8e 6dbc 8f40 1cbe 1db7 15bd 221b a43d
000003e0: f789 ff3d 77e9 47be 4e27 d63d fe16 e63d
000003f0: 7877 5cbd 14fe c03c bf34 b43d f058 debd

network_body._body_endoder.seq_layers.0.bias f4 [128]
0.032066263 0.038998533 0.062956624 0.055288713 0.016155707 0.04742035 0.045568813 0.024452254
0.058762033 0.043817475 0.041418165 0.027759634 0.025890946 0.038894735 0.018968869 -0.0072632586
-0.009094632 0.0023502354 0.019711347 0.04339486 0.07341327 0.025877623 0.028116882 0.016728925
0.01828121 0.057573356 0.037198246 0.041873716 0.06397948 0.02698354 0.036561955 0.01898756
0.034348495 0.050954998 0.029902497 0.006986444 0.048537593 0.07988387 0.017210161 0.07348664
0.078107156 0.02408543 0.049201608 0.08794077 0.06994 0.07883997 0.04251115 0.0501256
0.009717842 0.06619803 0.023528153 0.010870477 0.008666657 0.0043617287 0.08028587 0.05917137
0.01820194 0.031153305 0.03519541 0.03420251 0.032047205 0.03525664 0.025615076 0.041690852
0.012235924 0.045485698 0.044670817 0.011068016 0.027740734 0.045661915 0.105037116 0.018000374
0.043645557 0.044149637 0.02754072 0.025326412 0.023632444 0.04728101 0.051425494 0.049194425
0.048614923 0.06875951 0.03498096 0.010389438 0.07092985 0.031403743 0.057111707 0.023150591
0.05484445 -0.025466854 0.07241275 0.05966573 0.008231513 -0.034851994 0.013725098 0.056538343
0.040138993 0.051506337 0.025372677 0.04846182 0.018757079 0.014246925 0.019815385 -0.007777746
0.058684964 0.069634736 0.0030150572 0.05960085 0.0031473865 0.07895458 0.05550219 0.062879734
0.018565496 0.05007782 0.0747612 0.017545277 0.02524098 0.02346515 0.04964281 0.054218676
0.040512603 0.046569433 0.035882737 0.011365658 0.06443019 0.069646396 0.049031038 0.06302417
00000000: ea57 033d edbc 1f3d 67ef 803d 6b76 623d
00000010: f958 843c d73b 423d 5da6 3a3d 1850 c83c
00000020: 75b0 703d f479 333d 18a6 293d 2c68 e33c
00000030: 4019 d43c 1650 1f3d 9a64 9b3c a100 eebb
00000040: a701 15bc 6806 1a3b b179 a13c cfbe 313d
00000050: b259 963d 4ffd d33c 6055 e63c 190b 893c
00000060: 7ac2 953c 0ad2 6b3d 305d 183d c683 2b3d
00000070: ac07 833d 960c dd3c fdc1 153d cd8b 9b3c
00000080: 02b1 0c3d 30b6 503d 15f6 f43c 8aee e43b
00000090: 5bcf 463d 289a a33d 53fc 8c3c 2a80 963d
000000a0: a5f6 9f3d cf4e c53c a087 493d 4a1a b43d
000000b0: b43c 8f3d da76 a13d 2c20 2e3d 8050 4d3d
000000c0: 9537 1f3c d592 873d 1dbe c03c 161a 323c
000000d0: 98fe 0d3c d5ec 8e3b eb6c a43d ae5d 723d
000000e0: 3c1c 953c 3735 ff3c 1029 103d ee17 0c3d
000000f0: ee43 033d 4469 103d b5d6 d13c 07c4 2a3d
00000100: 2f79 483c 364f 3a3d bff8 363d a056 353c
00000110: 8940 e33c fd07 3b3d b31d d73d 8575 933c
00000120: afc5 323d 40d6 343d 139d e13c 5679 cf3c
00000130: d498 c13c bba9 413d 8aa3 523d 1880 493d
00000140: 7120 473d c9d1 8c3d 3248 0f3d 7638 2a3c
00000150: ab43 913d 36a1 003d f7ed 693d 4fa6 bd3c
00000160: 93a4 603d dd9f d0bc 234d 943d 0d64 743d
00000170: 78dd 063c f7c0 0ebd 3cdf 603c c094 673d
00000180: c968 243d 4ff8 523d 5cda cf3c e77f 463d
00000190: 72a8 993c ef6b 693c e053 a23c 76dc febb
000001a0: a55f 703d a89c 8e3d 4498 453b 0520 743d
000001b0: 6244 4e3b f0b2 a13d 4456 633d 17c7 803d
000001c0: ab16 983c 661e 4d3d 661c 993d 1dbb 8f3c
000001d0: 2cc6 ce3c fc39 c03c 4256 4b3d 6714 5e3d
000001e0: 8bf0 253d 97bf 3e3d c7f9 123d 0637 3a3c
000001f0: faf3 833d c5a2 8e3d c5d4 483d d112 813d

network_body._body_endoder.seq_layers.2.weight f4 [128, 128]
-0.12140252 0.06512312 -0.007885592 -0.009098613 -0.02574226 -0.046473663 -0.10057017 0.18900189
0.054138698 0.16180149 -0.009954735 0.09702005 0.13224053 0.0965998 0.14405802 -0.058708794
-0.075594224 0.13115214 0.0074200644 0.14228873 0.013190695 -0.12338655 -0.12779336 -0.113450676
-0.0051273345 0.06950113 0.106676176 -0.005992306 0.08149729 0.13292114 -0.030336961 0.10219133
0.103093214 -0.08072378 0.021532785 0.118094735 -0.10815958 0.1263444 -0.08632761 -0.07735243
0.07918037 -0.001632214 -0.14327851 0.04128758 0.14749923 -0.008530392 0.09132755 -0.0971475
-0.08967978 -0.115185685 -0.0813116 -0.22328423 -0.021573234 0.045952104 0.069459826 -0.12311463
-0.021024605 -0.124643125 0.056340788 0.1412123 0.02433448 -0.03692415 -0.021665392 -0.12958668
0.08110016 -3.4594123e-05 0.1503495 -0.006046372 -0.09421002 -0.03269218 0.051139407 -0.015545392
0.12636124 0.035023525 -0.07523256 -0.09775763 0.048817653 0.09482704 -0.062135708 0.08302657
0.11960751 0.23964743 0.098129965 0.097051814 -0.06838218 0.0012698822 0.075468004 -0.022103963
-0.18568163 -0.08800242 0.050758906 0.00080843235 -0.08532389 0.08918371 0.07758152 -0.01174865
0.020701168 -0.10543973 0.05273451 0.20997258 0.09573241 -0.15087703 0.074222624 0.0019744535
-0.08224146 0.12124789 0.18566124 -0.094430365 -0.084040105 -0.002080853 -0.15021893 -0.02632804
0.032427177 -0.06467486 -0.061597943 0.007334004 -0.050805014 0.05762443 0.06780133 -0.11804151
-0.21429434 0.1020399 -0.033446863 0.17398892 -0.028733881 0.057793915 0.19658467 -0.05107497
0.14343742 0.10888025 0.12867053 -0.043115374 0.07869171 0.1151874 0.098277815 -0.11569392
-0.1265698 -0.073133335 -0.078513406 -0.162992 0.08942468 0.045794692 0.013834748 0.06719783
-0.104058996 -0.03486212 0.08212468 -0.038151413 -0.18658215 -0.12393474 0.09042282 0.050777014
-0.12371024 -0.14759026 0.052543744 0.053687964 -0.119387284 0.041526977 0.13960111 -0.043329936
-0.12404957 -0.027969358 -0.06292355 0.05184484 -0.122577555 -0.057728916 0.14876354 -0.05741827
-0.098143704 0.04549467 -0.2731059 0.07844113 -0.14388256 -0.084404916 -0.09059631 -0.0028049285
0.10050772 -0.12731098 0.11770861 0.09208659 0.11493405 -0.0713658 -0.015889991 -0.116873816
-0.19470684 0.012704008 -0.018256467 0.059366003 -0.026185853 -0.08660128 -0.0485648 -0.017003274
0.005895405 0.02699821 -0.058280453 -0.059593026 0.07514966 0.0906182 -0.15916249 0.16447878
-0.096373476 0.018591436 -0.013440147 -0.16268021 0.10602269 -0.08929307 -0.08397792 -0.20122719
-0.056790154 -0.033250593 0.053124275 -0.026779989 -0.021855116 0.0075350534 0.123301215 0.10065119
-0.0012427763 -0.006694506 0.2517128 0.05291353 0.029846184 0.28147888 0.13255431 -0.088622995
0.11298071 -0.034775607 0.13437976 -0.15517893 -0.10426473 0.03817632 -0.14796735 0.19056013
0.069549784 0.18830912 0.14498886 -0.1138439 -0.12308013 0.01872525 -0.16789377 -0.021178015
-0.073355444 -0.042659346 -0.10235254 -0.0033201072 -0.08686354 -0.18543333 0.20293684 0.057709817
0.04110707 0.10077015 0.17652641 -0.08075184 0.11757945 -0.17415495 -0.054040615 0.3149362
00000000: e2a1 f8bd 455f 853d 9232 01bc 5912 15bc
00000010: 6fe1 d2bc 2b5b 3ebd bcf7 cdbd b689 413e
00000020: 8ac0 5d3d 4aaf 253e 2f19 23bc 73b2 c63d
00000030: 106a 073e 1ed6 c53d f283 133e a278 70bd
00000040: 25d1 9abd bf4c 063e 0324 f33b 23b4 113e
00000050: c91d 583c 16b2 fcbd 43dc 02be d458 e8bd
00000060: 3303 a8bb 9c56 8e3d 0a79 da3d 1b5b c4bb
00000070: 0de8 a63d 7b1c 083e 3885 f8bc b049 d13d
00000080: 8922 d33d 8252 a5bd 8665 b03c a7db f13d
00000090: c582 ddbd 6d60 013e 88cc b0bd f36a 9ebd
000000a0: 5129 a23d 04f0 d5ba 9ab7 12be 2a1d 293d
000000b0: 0a0a 173e 0fc3 0bbc f009 bb3d 45f5 c6bd
000000c0: 08aa b7bd 79e6 ebbd b286 a6bd 9fa4 64be
000000d0: 5aba b0bc 4638 3c3d f440 8e3d 8623 fcbd
000000e0: cb3b acbc e544 ffbd 99c5 663d f599 103e
000000f0: 1a59 c73c c73d 17bd 9f7b b1bc 5fb2 04be
00000100: d717 a63d 2819 11b8 38f5 193e a520 c6bb
00000110: 2ff1 c0bd 3ce8 05bd 8e77 513d 1ab2 7ebc
00000120: d764 013e d474 0f3d 8713 9abd 2735 c8bd
00000130: 05f5 473d ae34 c23d 0382 7ebd d609 aa3d
00000140: c8f4 f43d 2366 753e 5df8 c83d 1ac3 c63d
00000150: f50b 8cbd 2d72 a63a f88e 9a3d 5f13 b5bc
00000160: 5323 3ebe 9d3a b4bd 92e8 4f3d faec 533a
00000170: 4bbe aebd f3a5 b63d 0fe3 9e3d 697d 40bc
00000180: 7f95 a93c c9f0 d7bd 2400 583d 0d03 573e
00000190: 5b0f c43d 827f 1abe 0802 983d d565 013b
000001a0: 366e a8bd d050 f83d fb1d 3e3e b564 c1bd
000001b0: 381d acbd ec5e 08bb fed2 19be e7ad d7bc
000001c0: 5cd2 043d 4174 84bd 204e 7cbd 1652 f03b
000001d0: eb18 50bd 9807 6c3d 6cdb 8a3d bfbf f1bd
000001e0: fa6f 5bbe 4cfa d03d 94ff 08bd 272a 323e
000001f0: 5163 ebbc 50b9 6c3d 7e4d 493e fd33 51bd
00000200: 42e1 123e 9cfc de3d 35c2 033e bf99 30bd
00000210: 1f29 a13d 5fe7 eb3d e145 c93d eff0 ecbd
00000220: 839b 01be eec6 95bd a3cb a0bd 60e7 26be
00000230: 4924 b73d 3793 3b3d 24ab 623c 049f 893d
00000240: e21c d5bd 95cb 0ebd fc30 a83d a844 1cbd
00000250: 640f 3fbe 7fd1 fdbd 992f b93d 8ffb 4f3d
00000260: cb5b fdbd e721 17be 1c38 573d e9e7 5b3d
00000270: 5281 f4bd 3118 2a3d 98f3 0e3e bb7a 31bd
00000280: b30d febd ff1f e5bc 10de 80bd 415b 543d
00000290: f109 fbbd 2875 6cbd 7855 183e 6b2f 6bbd
000002a0: 91ff c8bd 9e58 3a3d 89d4 8bbe bea5 a03d
000002b0: f355 13be 7cdc acbd 8f8a b9bd e4d2 37bb
000002c0: fed6 cd3d cf5d 02be 3611 f13d e597 bc3d
000002d0: 8b62 eb3d 3c28 92bd ba2b 82bc 8a5b efbd
000002e0: 3b61 47be 7924 503c 968e 95bc c429 733d
000002f0: b783 d6bc 035c b1bd e2eb 46bd 734a 8bbc
00000300: 3e2e c13b 5a2b dd3c 7cb7 6ebd d117 74bd
00000310: 11e8 993d 0996 b93d 7efb 22be 206d 283e
00000320: 755f c5bd 114d 983c 1034 5cbc a495 26be
00000330: 6d22 d93d 49df b6bd 9efc abbd 800e 4ebe
00000340: cb9c 68bd c631 08bd d798 593d b561 dbbc
00000350: 8009 b3bc 9ce8 f63b 5985 fc3d 3622 ce3d
00000360: a7e4 a2ba 965d dbbb 80e0 803e dcbb 583d
00000370: fc7f f43c 001e 903e 51bc 073e f97f b5bd
00000380: 6e62 e73d de70 0ebd d99a 093e 3ae7 1ebe
00000390: bf88 d5bd c65e 1c3d c184 17be 3222 433e
000003a0: 1e70 8e3d 1bd4 403e f677 143e fe26 e9bd
000003b0: 6f11 fcbd b265 993c 58ec 2bbe 847d adbc
000003c0: 613b 96bd 91bb 2ebd 359e d1bd 2896 59bb
000003d0: 83e5 b1bd 3ce2 3dbe adce 4f3e 2161 6c3d
000003e0: e35f 283d 9560 ce3d 57c3 343e 3861 a5bd
000003f0: 7fcd f03d ad55 32be b159 5dbd 513f a13e

network_body._body_endoder.seq_layers.2.bias f4 [128]
0.01961355 -0.013372482 0.020463275 -0.009286136 0.0199425 0.010153394 0.017016545 0.0038419561
0.0127465855 0.028314708 -0.029414983 0.062899716 0.022896633 0.006694291 -0.0063804453 0.006140574
0.024890913 0.03321887 0.024063757 0.011183591 0.0011998076 0.026738971 0.0365667 -0.0067576244
0.038933564 0.022013532 -0.002541095 -0.008060793 -0.0034670408 0.037180636 -0.0059282486 0.0346657
0.055672556 0.01883324 0.021972122 -0.02729721 -0.007115718 0.010979062 0.032125916 0.011464821
0.04470421 0.016326072 -0.042872887 -0.03719562 -0.037326075 0.0018175924 -0.005836597 0.054494385
0.027020814 -0.028824925 -0.023197202 -0.050879184 -0.00302824 0.039402697 0.0006254766 0.000281135
0.004727006 0.023270905 -0.024825698 0.043912563 0.029219227 0.005900894 0.0294635 0.046699326
-0.0008467724 -0.009608743 0.042723726 0.007941272 -0.006767709 -0.030451193 -0.032750133 -0.009854241
0.010520773 0.019509507 0.015310387 0.015750991 0.012654481 -0.05573379 0.019688264 -0.02566161
-0.008626682 0.011899984 0.02750735 0.01991872 -0.012416064 0.003901857 -0.015580909 -0.014851066
0.022205368 0.03773367 -0.014813604 -0.034642886 -0.0005778041 -0.024550702 -0.0040165107 -0.019084128
0.01611952 0.021735808 -0.0027582897 0.026799357 0.0072268457 0.038876683 0.028459197 0.010679313
0.009262338 -0.0071683843 -0.02004613 -0.0021191966 0.0036328537 0.043752864 0.0012112244 0.016663045
-0.036692884 0.015894117 0.024254618 0.04670745 -0.028780662 0.01619328 -0.00529589 0.024098102
-0.015473316 0.038771328 0.0027191134 -0.00510086 0.04962016 -0.0077495542 -0.04395185 0.061445482
00000000: 98ac a03c 4118 5bbc 99a2 a73c e124 18bc
00000010: 745e a33c 6c5a 263c 4866 8b3c 54c9 7b3b
00000020: 0ed7 503c 3ff4 e73c b1f7 f0bc 91d1 803d
00000030: b891 bb3c c85b db3b 0e13 d1bb de36 c93b
00000040: 07e8 cb3c 8310 083d 5b21 c53c 613b 373c
00000050: dd42 9d3a b00b db3c f7c6 153d 106f ddbb
00000060: cd78 1f3d b955 b43c 8088 26bb 6b11 04bc
00000070: 4b37 63bb b94a 183d c141 c2bb 9ffd 0d3d
00000080: e808 643d 2b48 9a3c e1fe b33c 669e dfbc
00000090: f82a e9bb 86e1 333c 7796 033d f2d6 3b3c
000000a0: c31b 373d 41be 853c 7b9b 2fbd 6f5a 18bd
000000b0: 3ae3 18bd 483c ee3a ed40 bfbb 8135 5f3d
000000c0: c15a dd3c 4022 ecbc 0f08 bebc b166 50bd
000000d0: 7075 46bb b964 213d 06f7 233a 4d65 9339
000000e0: 00e5 9a3b a0a2 be3c 435f cbbc a9dd 333d
000000f0: 295d ef3c 495c c13b 705d f13c cb47 3f3d
00000100: eff9 5dba fd6d 1dbc 13ff 2e3d 1c1c 023c
00000110: a8c3 ddbb c874 f9bc 0125 06bd af73 21bc
00000120: 525f 2c3c 67d2 9f3c 6bd8 7a3c 3908 813c
00000130: be54 4f3c 1d49 64bd 4849 a13c 4c38 d2bc
00000140: ed56 0dbc 27f8 423c 1857 e13c 952c a33c
00000150: bf6c 4bbc 4cb6 7f3b 1247 7fbc e351 73bc
00000160: 08e8 b53c 9f8e 1a3d c2b4 72bc b3e5 0dbd
00000170: c777 17ba 8e1e c9bc ef9c 83bb 5156 9cbc
00000180: 150d 843c 4b0f b23c 6cc4 34bb 538a db3c
00000190: 2dcf ec3b 283d 1f3d 4323 e93c 49f8 2e3c
000001a0: 10c1 173c c4e4 eabb c837 a4bc 38e2 0abb
000001b0: 2c15 6e3b 3436 333d f2c1 9e3a f080 883c
000001c0: 474b 16bd 6134 823c 9fb1 c63c 5050 3f3d
000001d0: 6cc5 ebbc c5a7 843c 2589 adbb 6269 c53c
000001e0: cb83 7dbc afce 1e3d 2733 323b 1d25 a7bb
000001f0: 823e 4b3d f9ef fdbb db06 34bd 42ae 7b3d

action_model._discrete_distribution.branches.0.weight f4 [3, 128]
0.03565956 -0.035352994 -0.02262358 -0.028904604 0.0024274539 -0.034025524 0.048433416 -0.008694111
0.077640735 -0.0072574113 0.009511838 -0.028768104 -0.017529165 0.011411367 -0.022463553 0.032669686
0.0055131693 0.030444078 -0.022748346 -0.0146643 0.041823648 -0.015118527 -0.0012805227 0.0076892343
-0.0033251725 0.02366359 0.021805443 -0.013887177 -0.003355208 0.0103200665 0.03400422 0.09843889
-0.0019683756 0.054461434 0.00031191934 -0.035156716 -0.007568194 0.04855743 0.003089127 -0.0387576
0.047231738 -0.01857787 0.009717303 0.0052234866 0.00830569 0.010786097 0.030415453 0.011833419
0.029139087 0.005433022 -0.01895627 0.006903305 0.0012316534 0.018890698 -0.0036666528 -0.016433934
0.060051054 0.02281889 0.005327711 0.006875309 -0.01946093 0.044817694 0.008002096 0.026188465
-0.018108232 0.025688697 -0.0049921977 -0.010861196 0.019237256 0.049546305 0.031624485 -0.00085855223
-0.016133884 -0.013666516 0.015961995 -0.005292613 -0.037155285 -0.016132848 -0.016624387 0.034826703
0.054536268 0.0048272475 0.094805576 -0.00027091804 -8.637501e-05 0.029890032 -0.00072342984 0.053817246
0.03973522 0.017058069 -0.03917775 -0.015197196 -0.025626093 -0.02029579 -0.009098408 0.036349498
-0.014776006 -0.009415402 0.031011775 0.03439959 0.044137094 -0.020791428 -0.035835218 -0.018155377
-0.032986987 -0.009072427 -0.04297284 -0.016159244 -0.00088412385 -0.025792336 0.0062293126 0.0072770035
0.0037784185 0.02457413 0.03245484 0.003668513 0.008638493 -0.0222291 0.012587358 -0.017219512
-0.006858101 0.02329723 0.002266823 0.01992788 0.052941646 0.031261154 0.025523936 0.022426588
-0.04105284 0.040073507 0.040963754 -0.035097804 -0.019508837 0.017964715 -0.040680848 0.044223
-0.0889328 -0.0031690716 -0.020097395 0.02531974 0.059085343 -0.004713628 0.02376794 -0.030085724
0.0071898946 -0.11841474 -2.6917784e-05 0.024950827 -0.010812262 0.0013663644 0.00955534 -0.015441849
-0.051697962 0.009906235 0.0041106557 -0.0015450893 -0.004162732 0.017623106 -0.02586903 -0.15675189
0.007654458 -0.05040642 0.009325821 0.036667615 -0.026488766 -0.019195253 -0.018507577 0.019030802
-0.04071512 0.027428325 0.00747696 0.027751917 0.007985382 0.03643709 -0.068598226 0.015019601
-0.08453539 -0.021304233 0.023710748 0.027472766 -0.034331605 -0.013102235 -0.0023098786 0.028828727
-0.08280086 -0.041874763 -0.0060794447 -0.017234292 0.04578563 -0.06888473 -0.008969428 -0.005984679
0.009800262 -0.022916418 0.028841102 0.0049019894 -0.012849971 -0.03533861 -0.05143986 0.03078494
0.026174404 0.015109886 -0.041595735 0.02400577 0.0061536473 -0.0005800938 -0.008852866 -0.025314072
-0.0037882312 -0.004712196 -0.105453506 -0.028974775 0.02287807 0.019251967 0.00985834 -0.027671667
-0.0432391 -0.09934079 -0.0013144524 0.045270197 0.050088953 -0.01354543 0.050753713 -0.06665705
0.025801754 0.033205055 -0.06879339 -0.018495925 -0.03620915 0.030401234 -0.0017832619 0.038937725
0.0002053589 -0.02052589 0.011474926 0.051265515 -0.036183946 0.043052323 -0.006984455 0.011244776
0.012783061 -0.010453483 -0.033360086 0.063794695 0.008442069 -0.008893983 -0.020496076 0.008166716
0.009871164 -0.017491877 0.04428081 -0.0033380901 0.02608344 -0.050390497 0.0103085 -0.03997841
00000000: c20f 123d 4dce 10bd 1655 b9bc 59c9 ecbc
00000010: eb15 1f3b 595e 0bbd 1e62 463d bf71 0ebc
00000020: 1b02 9f3d 94cf edbb 8ad7 1b3c 16ab ebbc
00000030: 5399 8fbc bef6 3a3c 7c05 b8bc a6d0 053d
00000040: d1a7 b43b dc65 f93c bd5a babc 8842 70bc
00000050: 464f 2b3d b3b3 77bc 36d7 a7ba f9f5 fb3b
00000060: 23eb 59bb 25da c13c 54a1 b23c 0b87 63bc
00000070: 0de3 5bbb 7f15 293c 0248 0b3d 549a c93d
00000080: ddff 00bb f412 5f3d 1b89 a339 7d00 10bd
00000090: 9dfe f7bb 28e4 463d f372 4a3b 4ac0 1ebd
000000a0: 1176 413d 9e30 98bc 5335 1f3c c829 ab3b
000000b0: 9714 083c 2bb8 303c d429 f93c f5e0 413c
000000c0: 18b5 ee3c 7e07 b23b 2e4a 9bbc 1f35 e23b
000000d0: 6e6f a13a aac0 9a3c 3a4c 70bb 75a0 86bc
000000e0: 18f8 753d aeee ba3c 1494 ae3b 464a e13b
000000f0: 876c 9fbc c292 373d 391b 033c 3189 d63c
00000100: b757 94bc 1a71 d23c 9795 a3bb 28f3 31bc
00000110: 7397 9d3c 11f1 4a3d ad88 013d 7710 61ba
00000120: 352b 84bc 86e9 5fbc bbc2 823c a86d adbb
00000130: 2430 18bd 0929 84bc de2f 88bc 72a6 0e3d
00000140: 6c61 5f3d e32d 9e3b 6d29 c23d 010a 8eb9
00000150: 3b24 b5b8 f1db f43c 8ea4 3dba 796f 5c3d
00000160: 66c1 223d 5dbd 8b3c d978 20bd a9fd 78bc
00000170: d0ed d1bc 5b43 a6bc 7d11 15bc 36e3 143d
00000180: 1017 72bc 0f43 1abc 680c fe3c 96e6 0c3d
00000190: 19c9 343d c952 aabc f3c7 12bd 96ba 94bc
000001a0: 5d1d 07bd 84a4 14bc 4a04 30bd 6460 84bc
000001b0: 8cc4 67ba 734a d3bc 431f cc3b ee73 ee3b
000001c0: 589f 773b b04f c93c 5eef 043d 6f6b 703b
000001d0: 7788 0d3c cd19 b6bc 353b 4e3c ef0f 8dbc
000001e0: ecb9 e0bb d5d9 be3c fb8e 143b cb3f a33c
000001f0: 57d9 583d b20b 003d 9317 d13c f7b7 b73c
00000200: 0627 28bd 1e24 243d 9cc9 273d b7c2 0fbd
00000210: ffd0 9fbc bd2a 933c f6a0 26bd 2d23 353d
00000220: 6622 b6bd 33b0 4fbb 4ba3 a4bc 586b cf3c
00000230: 7903 723d c774 9abb fcb4 c23c 5676 f6bc
00000240: 3599 eb3b 6d83 f2bd 80cd e1b7 ad65 cc3c
00000250: ea25 31bc 9517 b33a 008e 1c3c cfff 7cbc
00000260: 3ec1 53bd c34d 223c aeb2 863b 9884 caba
00000270: 8767 88bb 555e 903c 4aeb d3bc 9183 20be
00000280: 3fd2 fa3b f676 4ebd 54cb 183c c830 163d
00000290: f8fe d8bc 5d3f 9dbc 349d 97bc 7ce6 9b3c
000002a0: e6c4 26bd 5eb1 e03c 4901 f53b fd57 e33c
000002b0: 1fd5 023c 0f3f 153d 3a7d 8cbd c614 763c
000002c0: e420 adbd 3786 aebc 0b3d c23c 910e e13c
000002d0: 4c9f 0cbd c2aa 56bc 5561 17bb 392a ec3c
000002e0: 7f93 a9bd df84 2bbd 1436 c7bb ee2e 8dbc
000002f0: b689 3b3d 7013 8dbd 82f4 12bc 201b c4bb
00000300: 4791 203c 36bb bbbc 2d44 ec3c dea0 a03b
00000310: af88 52bc 38bf 10bd 9ab2 52bd b330 fc3c
00000320: b46b d63c 758f 773c 4a60 2abd c0a7 c43c
00000330: 89a4 c93b 7011 18ba 9c0b 11bc 755f cfbc
00000340: f943 78bb c468 9abb 02f8 d7bd 825c edbc
00000350: ca6a bb3c 4db6 9d3c e084 213c b1af e2bc
00000360: 7c1b 31bd 2f73 cbbd b449 acba 3e6d 393d
00000370: 132a 4d3d a7ed 5dbc 20e3 4f3d 7e83 88bd
00000380: 335e d33c 0602 083d 8de3 8cbd c484 97bc
00000390: 0c50 14bd 020c f93c 57bc e9ba 2a7d 1f3d
000003a0: 9c55 5739 e925 a8bc 5401 3c3c cafb 513d
000003b0: 9e35 14bd a257 303d dbdd e4bb 023c 383c
000003c0: 0b70 513c 1645 2bbc 96a4 08bd cba6 823d
000003d0: 9b50 0a3c 12b8 11bc 63e7 a7bc b1cd 053c
000003e0: aaba 213c 204b 8fbc cb5f 353d dcc3 5abb
000003f0: f0ac d53c 4466 4ebd fce4 283c 67c0 23bd

action_model._discrete_distribution.branches.0.bias f4 [3]
0.004507436 -0.0015432098 0.0047075655
00000000: 1db3 933b 8745 caba ec41 9a3b

action_model._discrete_distribution.branches.1.weight f4 [9, 128]
0.029445294 -0.026962664 -0.07723902 -0.03398891 -0.024399117 0.02015636 -0.014789076 -0.019071564
-0.016113374 -0.023705166 0.04200142 -0.05527833 -0.06154152 0.0091487765 -0.017162824 0.016142104
-0.019454984 -0.0044386266 -0.0213747 -0.042845067 0.039829534 -0.0028993045 -0.03795672 0.052846905
-0.018537156 -0.04095177 -0.034715947 -0.007688137 -0.015663 0.007033578 0.012683134 -0.075177796
-0.0051375115 -0.028584868 0.022806568 -0.05018993 0.023717355 0.02396426 0.010225671 0.02383487
0.0005108697 -0.0065675857 0.036952604 0.021869227 0.032231096 -0.029876914 -0.030382397 0.0148791205
-0.048891425 0.040727004 -0.036726076 0.013330462 -0.023176936 -0.0584909 0.010283485 0.027353477
-0.047219038 -0.014676017 0.034643665 -0.023693997 0.024178714 -0.030704645 0.0073331236 0.03377274
-0.012475975 -0.0066038584 0.037006143 0.008376413 0.008111603 -0.011793536 -0.02690543 -0.004628714
-0.022919958 0.004117413 0.0070589585 0.016348945 -0.02555805 -0.0116637815 0.013818459 -0.004310945
0.007820267 -0.03747326 -0.06466326 -0.01151714 -0.023208352 0.00034414523 0.008093633 -0.037163418
-0.030610858 -0.006169477 0.023962703 -0.021416007 0.012242885 0.020160567 0.024972487 -0.03992435
-0.026360393 -0.019381136 0.01381377 0.012499849 0.05431337 -0.016927022 -0.024913207 0.036496088
-0.02171445 -0.011152273 -0.00079889095 0.05364257 0.055967223 0.04681531 0.01906997 -0.039886978
-0.04368526 -0.0050824424 -0.045637235 -0.02606516 0.008116603 0.043040678 -0.022048743 0.010583356
-0.019754611 -0.01832912 -0.006336174 -0.011518078 0.05401549 -0.0045031104 -0.007863158 -0.026845474
0.035320748 0.004978456 0.028756037 -0.039663363 0.04432438 0.027758999 0.016092071 0.008179441
0.04347323 -0.0014548439 0.039634604 0.049311347 0.067573406 0.05231004 0.06265794 0.013414117
0.02353049 0.023109408 0.01650941 0.068368696 -0.017587733 0.02076071 -0.03670296 0.038684655
0.019168995 -0.055155795 0.026850762 0.0056944364 0.0033425586 0.035998996 -0.028429013 -0.02787294
0.04424031 0.020252867 -0.020623235 -0.02582539 -0.03914648 0.050921798 0.08044103 -0.04826404
0.0045831804 -0.036433805 -0.0077298055 0.036954347 -0.011131051 0.03932605 -0.023737842 0.07228103
-0.0091125965 -0.0068521565 0.003039377 -0.04507444 0.018017868 -0.015762677 -0.0018621531 0.015993178
-0.013843196 0.03201257 -0.014364781 -0.02847203 0.039571326 0.03182836 -0.003551429 0.007287229
-0.032643788 0.011105808 0.0324413 0.02343548 0.039098848 -0.010056771 -0.0008151438 -0.03260934
0.030171325 0.00981664 0.03426531 -0.025485124 -0.0051334663 0.028236125 -0.051191024 -0.020757582
-0.05811365 0.040604196 0.026594015 0.020680409 0.02905738 0.054738138 0.016083632 0.029142773
-0.02467124 0.0124563305 -0.010654117 -0.012502984 -0.053543966 0.032283816 -0.006251164 0.029322933
0.016341638 -0.028504848 -0.014145097 0.030384548 -0.02472428 -0.03360211 -0.011689248 0.00031566937
0.017251633 -0.021910328 0.013088239 -0.02244195 -0.021322729 0.032683503 -0.014486728 0.041461483
-0.006215389 -0.039669953 -0.026867026 0.027372345 -0.0064023063 -0.047243576 0.034772668 0.043712117
-0.00070924405 0.033797592 -0.07174022 -0.0050500226 -0.016645733 -0.041183665 -0.031953547 0.035305575
00000000: 4237 f13c cee0 dcbc 7e2f 9ebd f537 0bbd
00000010: a8e0 c7bc f31e a53c e14d 72bc f83b 9cbc
00000020: 3200 84bc 5631 c2bc ae09 2c3d 886b 62bd
00000030: f612 7cbd c0e4 153c 0d99 8cbc 723c 843c
00000040: 0f60 9fbc e671 91bb ff19 afbc 4f7e 2fbd
00000050: 4b24 233d 4202 3ebb 8178 1bbd ff75 583d
00000060: 3cdb 97bc 0bbd 27bd 4f32 0ebd c4ec fbbb
00000070: b14f 80bc ee79 e63b ebcc 4f3c d1f6 99bd
00000080: 9258 a8bb d02a eabc d7d4 ba3c f593 4dbd
00000090: e64a c23c b250 c43c 9389 273c 5841 c33c
000000a0: e3eb 053a e734 d7bb 9d5b 173d 1827 b33c
000000b0: c104 043d 6ec0 f4bc 81e4 f8bc 8ec7 733c
000000c0: 6042 48bd 5cd1 263d 156e 16bd 0368 5a3c
000000d0: 8fdd bdbc 2794 6fbd 107c 283c 6614 e03c
000000e0: c068 41bd ad73 70bc 84e6 0d3d ea19 c2bc
000000f0: 7012 c63c 4f88 fbbc b34a f03b 4955 0a3d
00000100: 0868 4cbc 2e65 d8bb c193 173d 393d 093c
00000110: 87e6 043c ad39 41bc c768 dcbc 78ac 97bb
00000120: a3c2 bbbc 5deb 863b d64e e73b 39ee 853c
00000130: 1e5f d1bc 7219 3fbc d166 623c d442 8dbb
00000140: 9420 003c 907d 19bd 2c6e 84bd 63b2 3cbc
00000150: 711f bebc 646e b439 289b 043c ab38 18bd
00000160: 9fc3 fabc 5329 cabb 6e4d c43c 9f70 afbc
00000170: 6296 483c c627 a53c 1a93 cc3c b787 23bd
00000180: c0f1 d7bc 30c5 9ebc 2753 623c 2bcc 4c3c
00000190: b277 5e3d 8aaa 8abc c816 ccbc ec7c 153d
000001a0: 81e2 b1bc 06b8 36bc aa6c 51ba 50b8 5b3d
000001b0: e33d 653d 69c1 3f3d a038 9c3c 8760 23bd
000001c0: 51ef 32bd 9e8a a6bb 1cee 3abd 9a86 d5bc
000001d0: 80fb 043c 6c4b 303d 919f b4bc d065 2d3c
000001e0: 6cd4 a1bc f326 96bc ae9f cfbb 52b6 3cbc
000001f0: 593f 5d3d d48e 93bb 7ad4 00bc 0aeb dbbc
00000200: 7dac 103d 5122 a33b c891 eb3c 0d76 22bd
00000210: 7b8d 353d d766 e33c 85d3 833c 1003 063c
00000220: fc10 323d 76b0 beba e557 223d b2fa 493d
00000230: ed63 8a3d 0d43 563d ce52 803d e2c6 5b3c
00000240: 04c3 c03c f14f bd3c be3e 873c e304 8c3d
00000250: 2614 90bc 5d12 aa3c d855 16bd cd73 1e3d
00000260: 4c08 9d3c 0beb 61bd 21f6 db3c 6598 ba3b
00000270: d40e 5b3b af73 133d f6e3 e8bc cb55 e4bc
00000280: 5435 353d 57e9 a53c 0ff2 a8bc c58f d3bc
00000290: 0f58 20bd 6093 503d 44be a43d 84b0 45bd
000002a0: 812e 963b 9d3b 15bd 4f4a fdbb 715d 173d
000002b0: 035f 36bc 5a14 213d dd75 c2bc 1408 943d
000002c0: 004d 15bc 0e88 e0bb 4930 473b fa9f 38bd
000002d0: 359a 933c bb20 81bc 7d13 f4ba 2004 833c
000002e0: 93ce 62bc 9d1f 033d 425a 6bbc 2d3e e9bc
000002f0: 8b15 223d 745e 023d 17bf 68bb b5c9 ee3b
00000300: 7eb5 05bd 23f5 353c 2be1 043d c4fb bf3c
00000310: 1d26 203d 28c5 24bc 60af 55ba 5f91 05bd
00000320: db29 f73c f9d5 203c c859 0c3d 2ec6 d0bc
00000330: a336 a8bb 724f e73c aead 51bd ce0b aabc
00000340: 9408 6ebd 9650 263d b1db d93c f669 a93c
00000350: be09 ee3c 1935 603d d2c1 833c d3bc ee3c
00000360: 571b cabc a315 4c3c 9b8e 2ebc 51d9 4cbc
00000370: eb50 5bbd 093c 043d 90d6 ccbb a636 f03c
00000380: e6de 853c 0083 e9bc d6c0 67bc 04e9 f83c
00000390: 938a cabc 5ea2 09bd 4284 3fbc 6d80 a539
000003a0: 4c53 8d3c 4a7d b3bc 0e70 563c 2ed8 b7bc
000003b0: 01ad aebc 23df 053d be59 6dbc 84d3 293d
000003c0: 76aa cbbb f67c 22bd 3d18 dcbc f83b e03c
000003d0: 70ca d1bb 7b82 41bd c96d 0e3d 7a0b 333d
000003e0: 90ec 39ba 586f 0a3d 89ec 92bd a97a a5bb
000003f0: a25c 88bc 34b0 28bd b9e1 02bd 949c 103d

action_model._discrete_distribution.branches.1.bias f4 [9]
-0.011626788 0.016859565 -0.008705469 0.010085134 0.014788781 -0.017667627 0.004819012 0.00861058
0.0038464933
00000000: 497e 3ebc 121d 8a3c 62a1 0ebc 1e3c 253c
00000010: a54c 723c b3bb 90bc cde8 9d3b 6413 0d3c
00000020: 7315 7c3b

action_model._discrete_distribution.branches.2.weight f4 [225, 128]
0.003248103 -0.042800307 -0.008575901 0.030878233 0.03862027 -0.034929838 -0.03756842 -0.0053397585
-0.029988373 0.010063582 0.025421936 0.04754446 -0.010562517 0.037299704 -0.035837255 -0.07942921
0.0029365087 -0.07388561 -0.037318885 0.051336333 -0.04800168 0.013924765 0.014563917 -0.028510923
-0.032507103 -0.07267441 0.029964484 -0.023323987 -0.03614238 0.02282999 0.010407593 -0.07993267
0.031489767 -0.034447275 -0.039840244 -0.027415983 0.023121344 0.038131356 -0.016235635 -0.028517548
-0.00040634055 -0.016652077 0.009015788 -0.035143863 0.02209628 -0.015792487 -0.0016138497 -0.027177576
-0.04228647 0.04063442 -0.01832613 -0.020238385 0.0030788532 -0.020179857 0.03697132 0.014035684
-0.030191906 -0.050788593 -0.015418598 0.011440154 0.07516547 -0.0012374119 -0.044439696 0.0329306
-0.055074755 -0.00034953374 0.045413513 -0.0135448 0.0053046294 -0.020349715 0.026362374 0.0046167094
-0.029564347 -0.02830017 0.014734727 0.050515097 0.0090837395 0.018164918 -0.016145712 -0.0034765343
0.056058276 -0.07269804 -0.014081033 -0.024817593 -0.011151051 -0.028466769 -0.022056475 0.026066812
0.025051203 -0.018244421 0.058290254 0.060325027 0.014793953 0.027350832 -0.042070113 -0.007761538
-0.022096042 -0.02646147 -0.038000792 0.019298088 -0.025869172 -0.08422943 0.014189995 -0.014943989
0.050655495 0.03897628 -0.05034475 0.054361273 0.050909705 -0.019191671 -0.032444756 -0.085861914
-0.0042377342 -0.03288955 -0.010794529 -0.061706115 -0.0029808308 0.023791956 0.033635285 0.021859922
-0.07708041 -0.032466725 -0.037495054 -0.013427244 -0.038798906 -0.056336313 -0.019530801 -0.033212688
-0.0312715 -0.014225818 0.028093774 -0.018165795 -0.04404991 0.014576127 -0.006191037 0.03234759
-0.058160268 0.007172481 0.062061347 -0.007378423 0.026496459 -0.024549134 -0.048952017 -0.036383454
-0.048483495 0.043711934 -0.013776822 0.00829546 -0.00666663 -0.053472266 0.030528422 -0.014296127
-0.0051022377 0.02368638 -0.021455262 -0.019810077 0.042620774 0.0077747516 -0.033680145 -0.0036260986
-0.02742024 0.055451762 -0.023346208 -0.010370432 0.003258216 -0.011655847 0.037648518 -0.028992375
0.043642614 0.011791278 -0.043335564 0.030313032 -0.022026088 -0.029780941 0.014207924 -0.035147976
0.015444036 -0.00743128 -0.03015725 0.047031183 0.07241208 0.013834905 0.0018184757 -0.049620293
-0.028218377 0.010066639 -0.03475423 0.011705373 -0.023168506 -0.04680771 -0.016757308 0.04443919
0.043208636 9.3415794e-05 0.008464054 -0.031694457 0.025492156 0.0031230715 -0.019390194 -0.02355441
0.031562764 0.03870039 -0.027823884 -0.028680695 0.0064286613 -0.017442212 -0.014323227 -0.008571845
0.008789478 0.039534103 -0.04665246 0.04126816 -0.005280808 -0.027389362 -0.047397524 -0.0770585
0.002734819 -0.022374831 -0.023824016 0.017321965 -0.009736363 0.057532135 0.031507906 -0.015959542
-0.0025960333 0.033346545 -0.00016539612 0.03600961 0.033393018 -0.044825427 0.04491985 -0.043709554
-0.030429557 0.005869514 0.022860195 -0.053123564 -0.03968678 0.010736796 0.012860741 0.052438147
0.018825112 0.010149846 0.005184969 -0.012351151 -0.010298164 0.044925462 0.009267121 0.023861032
-0.038896844 0.024227098 -0.047461607 0.006920049 0.017494563 -0.03480625 -0.009619991 -0.02616557
00000000: 20de 543b 604f 2fbd f081 0cbc 59f4 fc3c
00000010: 4a30 1e3d 9712 0fbd 58e1 19bd 24f9 aebb
00000020: 2daa f5bc b9e1 243c aa41 d03c fbbd 423d
00000030: 680e 2dbc 93c7 183d 16ca 12bd c8ab a2bd
00000040: 7172 403b 5751 97bd b0db 18bd 0c46 523d
00000050: 699d 44bd b324 643c 7f9d 6e3c bd8f e9bc
00000060: 2b26 05bd 52d6 94bd 1478 f53c f211 bfbc
00000070: 080a 14bd f605 bb3c 9c84 2a3c bdb3 a3bd
00000080: 6afb 003d 9618 0dbd 862f 23bd 7c97 e0bc
00000090: f968 bd3c a02f 1c3d 9800 85bc a29d e9bc
000000a0: 1b0a d5b9 f069 88bc f5b6 133c 03f3 0fbd
000000b0: 4203 b53c 3f5f 81bc cf87 d3ba 82a3 debc
000000c0: 9434 2dbd 4770 263d ae20 96bc f8ca a5bc
000000d0: 96c6 493b 3a50 a5bc 3d6f 173d edf5 653c
000000e0: 0455 f7bc b307 50bd 4a9e 7cbc 7c6f 3b3c
000000f0: 5bf0 993d a730 a2ba 6606 36bd 3de2 063d
00000100: 1196 61bd a041 b7b9 8503 3a3d 02eb 5dbc
00000110: 75d2 ad3b 72b4 a6bc e8f5 d73c c447 973b
00000120: ee30 f2bc c2d5 e7bc ed69 713c ebe8 4e3d
00000130: f7d3 143c 98ce 943c 0344 84bc 91d6 63bb
00000140: 5d9d 653d b6e2 94bd 22b4 66bc 444e cbbc
00000150: e6b2 36bc 2433 e9bc c8af b4bc 118a d53c
00000160: 2e38 cd3c 5375 95bc c3c1 6e3d 6017 773d
00000170: 5662 723c da0e e03c b651 2cbd 8054 febb
00000180: c202 b5bc bac5 d8bc b8a6 1bbd 0617 9e3c
00000190: 96eb d3bc 7b80 acbd 277d 683c a2d7 74bc
000001a0: 237c 4f3d 97a5 1f3d 4c36 4ebd eda9 5e3d
000001b0: b286 503d da37 9dbc cbe4 04bd 5fd8 afbd
000001c0: b1dc 8abb 31b7 06bd 89db 30bc 8dbf 7cbd
000001d0: 0b5a 43bb 59e7 c23c 27c5 093d 9413 b33c
000001e0: 56dc 9dbd d4fb 04bd 6a94 19bd f1fd 5bbc
000001f0: 9aeb 1ebd e8c0 66bd 0fff 9fbc 070a 08bd
00000200: 8b16 00bd 6813 69bc ea24 e63c 6fd0 94bc
00000210: ae6d 34bd b5d0 6e3c 2fde cabb e87e 043d
00000220: 7639 6ebd 2207 eb3b 0a34 7e3d b3c6 f1bb
00000230: 1a0f d93c 441b c9bc e981 48bd d106 15bd
00000240: a196 46bd 490b 333d 2eb8 61bc aee9 073c
00000250: bf73 dabb bc05 5bbd be16 fa3c 4d3a 6abc
00000260: ac30 a7bb f009 c23c f2c2 afbc be48 a2bc
00000270: 1f93 2e3d 58c3 fe3b 31f4 09bd d7a3 6dbb
00000280: 69a0 e0bc 6321 633d 8c40 bfbc bfe8 29bc
00000290: cb87 553b 2af8 3ebc 5535 1a3d 6b81 edbc
000002a0: 99c2 323d 3430 413c a280 31bd 0953 f83c
000002b0: 0e70 b4bc 29f7 f3bc 5ac8 683c 53f7 0fbd
000002c0: fb08 7d3c 1882 f3bb 560c f7bc c5a3 403d
000002d0: c94c 943d ccab 623c eb59 ee3a a63e 4bbd
000002e0: 3a2a e7bc 8bee 243c 745a 0ebd e5c7 3f3c
000002f0: e1cb bdbc 71b9 3fbd 9f46 89bc de05 363d
00000300: 8afb 303d 39e8 c338 d1ac 0a3c 0cd2 01bd
00000310: edd4 d03c 72ac 4c3b 2fd8 9ebc 2ef5 c0bc
00000320: f547 013d 4d84 1e3d eaee e3bc c7f3 eabc
00000330: 85a7 d23b f8e2 8ebc f8ab 6abc ec70 0cbc
00000340: be01 103c 83ee 213d a616 3fbd cd08 293d
00000350: a10a adbb a85f e0bc e823 42bd d9d0 9dbd
00000360: a63a 333b 6c4b b7bc 952a c3bc cbe6 8d3c
00000370: 4485 1fbc d1a6 6b3d 6f0e 013d 96bd 82bc
00000380: 3622 2abb 6396 083d 2f6e 2db9 d07e 133d
00000390: 1ec7 083d de9a 37bd e0fd 373d ca08 33bd
000003a0: 6847 f9bc 0d55 c03b 4e45 bb3c 1898 59bd
000003b0: 9b8e 22bd 63e9 2f3c dbb5 523c 62c9 563d
000003c0: 1f37 9a3c 8a4b 263c ace6 a93b 7b5c 4abc
000003d0: a1b9 28bc c303 383d 1fd5 173c 3678 c33c
000003e0: 4c52 1fbd e877 c63c 1a67 42bd 94c1 e23b
000003f0: c250 8f3c 0091 0ebd 2b9d 1dbc 2d59 d6bc

action_model._discrete_distribution.branches.2.bias f4 [225]
-0.008827768 -0.03877796 -0.0051706103 0.0017552023 0.046672262 0.024772018 0.0017326782 0.003312647
-0.0022493473 -0.022406911 0.021513406 -0.02437523 -0.016235612 -0.025668966 0.0130351 0.013434153
-0.0056695556 0.046954654 -0.0069405627 0.014462448 0.019551596 0.047769133 0.022696579 -0.0016415671
-0.020778038 -0.0028870779 0.029911693 -0.025597654 0.028018937 -0.025092572 0.041418903 0.012509443
0.013017377 0.009203007 0.031235626 0.026155053 -0.00020116741 0.016845608 0.009941638 0.027092382
-0.0028844776 -0.017803852 0.04223563 -0.003350755 -0.0068268 0.004677539 -0.013309663 -0.0028478713
-0.02401325 0.036015786 0.048222013 0.020260237 0.0028949894 -9.173813e-05 -0.018287085 0.006003516
0.032200463 -0.008636378 -0.022956025 0.0034915435 0.0058918125 0.010628662 0.020148877 0.0397198
0.0029567648 0.010986851 0.00050985 0.028211923 0.039215837 0.011300406 -0.027032966 0.02181571
0.008245115 -0.0063250186 -0.02626273 -0.018723434 0.05701387 0.007860663 -0.007942095 0.01754875
0.028722469 -0.019476147 -0.012097174 -0.008924937 0.0074124015 0.010383981 -0.029595744 -0.0005128004
-0.03223408 -0.012924062 0.016462184 0.0019483076 -0.0048849103 0.0025285096 0.027119288 0.027228428
-0.006343675 0.0035936455 0.03740489 0.0134086665 0.016880725 0.054763846 -0.0007738857 7.594122e-05
0.015351706 0.007292547 -0.00283621 0.022278488 -0.015998412 0.058604866 0.032115396 0.037180025
0.01309787 0.0011563567 0.015116088 0.010843184 0.017498335 0.020246413 -0.022163318 -0.0002958936
0.009268108 0.00014024609 0.037910447 -0.006136312 0.014586584 -0.007991074 0.015448985 -0.014492638
0.017942864 -0.019695638 0.038057804 -0.00039306676 0.033335652 -0.01031348 0.019983182 0.03971814
-0.012753787 0.003176283 -0.013426979 0.057594076 0.006567163 -0.03081729 -0.005675168 -0.002589473
0.004402133 0.017233348 0.013014201 -0.013380634 -0.0424091 -0.010337894 0.060389206 0.032075014
0.017887088 0.010503154 0.0064584063 0.0030137503 -0.004657253 0.026067385 0.0051448797 -0.014714823
0.0041058687 -0.034705065 0.011829588 -0.01705997 0.011931181 -0.003426881 0.020870354 -0.02025594
0.0502302 0.031225897 0.034232214 0.029216118 -0.018200247 0.00583822 0.004165382 0.0036131232
-0.0068085343 -0.026946314 -0.0355875 -0.035825696 -0.0011739598 -0.008708187 0.011805349 0.012469486
0.036793806 0.033451803 0.010818903 0.012803956 -0.010842751 0.0018093821 -0.013807896 -0.010721132
-0.020023046 -0.027978202 0.028230295 -0.0022902633 0.0076098605 0.023322461 0.024692358 0.0059880745
0.00528353 0.0107065 -0.00037101482 0.012303911 0.03136122 0.011492979 0.037753295 -0.013996227
-0.04551502 -0.05697276 -0.029148499 0.012397999 0.028078103 0.027469428 0.018118821 0.046293166
-0.014244745 -0.008868339 0.03552066 -0.0005299062 -0.013964081 0.025656419 -0.016037144 -0.0061776694
0.03350972
00000000: 58a2 10bc a3d5 1ebd 396e a9bb d10e e63a
00000010: 6a2b 3f3d b0ee ca3c 081b e33a ff18 593b
00000020: c969 13bb b38e b7bc e23c b03c 90ae c7bc
00000030: 8c00 85bc b947 d2bc 2c91 553c ec1a 5c3c
00000040: aec7 b9bb 8653 403d a96d e3bb e7f3 6c3c
00000050: ab2a a03c 91a9 433d 2dee b93c da29 d7ba
00000060: b436 aabc 2135 3dbb 5e09 f53c 2cb2 d1bc
00000070: f887 e53c f08e cdbc dea6 293d 68f4 4c3c
00000080: d646 553c 36c8 163c dbe1 ff3c 1f43 d63c
00000090: 77f0 52b9 cdff 893c 41e2 223c d8f0 dd3c
000000a0: 8109 3dbb 62d9 91bc 45ff 2c3d 5798 5bbb
000000b0: 59b3 dfbb 0b46 993b c610 5abc 5aa3 3abb
000000c0: 6fb7 c4bc 4a85 133d 7284 453d ccf8 a53c
000000d0: ddb9 3d3b 8963 c0b8 ccce 95bc 24b9 c43b
000000e0: a2e4 033d 987f 0dbc 460e bcbc 61d2 643b
000000f0: 1b10 c13b d723 2e3c 420f a53c 3bb1 223d
00000100: 48c6 413b 3102 343c 74a7 053a b11c e73c
00000110: c9a0 203d 5725 393c 3d74 ddbc dcb6 b23c
00000120: 8516 073c 1a42 cfbb f024 d7bc e361 99bc
00000130: 6087 693d 03ca 003c 901f 02bc 65c2 8f3c
00000140: 624b eb3c 718c 9fbc 3a33 46bc e639 12bc
00000150: bbe3 f23b 9321 2a3c c672 f2bc 746d 06ba
00000160: e207 04bd 72bf 53bc b4db 863c 5b5e ff3a
00000170: 9911 a0bb 5ab5 253b 4529 de3c 270e df3c
00000180: 9ade cfbb 5e83 6b3b df35 193d 06b0 5b3c
00000190: 7249 8a3c 0e50 603d 97de 4aba a242 9f38
000001a0: b985 7b3c 51f6 ee3b b5df 39bb 6081 b63c
000001b0: 1a0f 83bc a80b 703d 6f8b 033d 154a 183d
000001c0: 7398 563c e490 973a 78a9 773c 9ca7 313c
000001d0: ab58 8f3c cedb a53c d98f b5bc 2b22 9bb9
000001e0: 43d9 173c 060f 1339 fc47 1b3d 1e13 c9bb
000001f0: 91fc 6e3c feec 02bc bd1d 7d3c 8872 6dbc
00000200: eafc 923c bf58 a1bc 80e2 1b3d 8714 ceb9
00000210: f78a 083d dff9 28bc c5b3 a33c 7daf 223d
00000220: 43f5 50bc 3029 503b d5fc 5bbc c4e7 6b3d
00000230: 5b31 d73b 8b74 fcbc c2f6 b9bb 26b4 29bb
00000240: c53f 903b f32c 8d3c 8439 553c 723a 5bbc
00000250: 2ab5 2dbd 4560 29bc ac5a 773d 1761 033d
00000260: f187 923c 6c15 2c3c 0aa1 d33b 5782 453b
00000270: df9b 98bb 458b d53c 6196 a83b 7116 71bc
00000280: 868a 863b e626 0ebd e3d0 413c 5ac1 8bbc
00000290: 007b 433c 8695 60bb 4ef8 aa3c c9ef a5bc
000002a0: 2fbe 4d3d 74cd ff3c 1437 0c3d a456 ef3c
000002b0: af18 95bc 8a4e bf3b c27d 883b 26ca 6c3b
000002c0: 201a dfbb 84be dcbc 33c4 11bd f7bd 12bd
000002d0: 8edf 99ba c9ac 0ebc 396b 413c d14c 4c3c
000002e0: 1ab5 163d c204 093d c541 313c afc7 513c
000002f0: cba5 31bc ca28 ed3a 833a 62bc b0a7 2fbc
00000300: 5f07 a4bc 8b32 e5bc 3843 e73c 3e18 16bb
00000310: 235c f93b bf0e bf3c a147 ca3c 9c37 c43b
00000320: 7621 ad3b 516a 2f3c c484 c2b9 5896 493c
00000330: 9f74 003d 0c4d 3c3c 33a3 1a3d 6e50 65bc
00000340: f56d 3abd 455c 69bd d5c8 eebc fa20 4b3c
00000350: 0d04 e63c 9107 e13c ec6d 943c e79d 3d3d
00000360: ca62 69bc 824c 11bc 1d7e 113d 67e9 0aba
00000370: 9ac9 64bc 692d d23c 5460 83bc 0c6e cabb
00000380: 7d41 093d
