Experiments/Results/Experiment_6/DefenderBehavior.onnx (onnx, 327093 bytes, 13 tensors)

discrete_act_size_vector f4 [1, 3]
00000000: 0000 4040 0000 1041 0000 6143
3.0 9.0 225.0

network_body.observation_encoder.processors.0.normalizer.running_mean f4 [246]
00000000: 14c1 813f 38ba 813f 108d 843f c2a8 823f
00000010: 74fd 8c3f d7cd 893f 91eb 813f 0060 b83f
00000020: 9ff5 873f 855b 813f 99ba 813f be02 873f
00000030: ac18 823f 1f82 863f 8cd6 823f ed7a 813f
00000040: acfb 813f a2fe ff3f a2fe ff3f ac16 833f
00000050: eb96 8d3f 2fc7 903f a2fe ff3f a2fe ff3f
00000060: a2fe ff3f a2fe ff3f 25f0 833f c793 893f
00000070: cacb 813f 55cd 813f d979 843f 0bdb 913f
00000080: a2fe ff3f a2fe ff3f 2c9b 8e3f 5b9c 813f
00000090: 6fb8 813f a2fe ff3f 28b1 813f 8fd0 813f
000000a0: a2fe ff3f 629a 823f 672a 823f 9383 823f
000000b0: 2b2c 823f 8bb2 8c3f e949 833f a2fe ff3f
000000c0: a2fe ff3f 019f 873f 1627 813f bcd3 813f
000000d0: a2fe ff3f ac1a 823f 1ecf 813f a2fe ff3f
000000e0: aac6 813f d705 823f 2f92 823f 5a44 843f
000000f0: 673e 853f a867 903f a2fe ff3f a2fe ff3f
00000100: aa8e 823f d4cd 813f e136 833f a2fe ff3f
00000110: 9017 833f ca9b 813f a2fe ff3f dae5 833f
00000120: b010 823f c5eb 813f b532 833f d0de 853f
00000130: 4793 8b3f a2fe ff3f a2fe ff3f e443 993f
00000140: ca84 823f ec2e 813f a2fe ff3f 67c1 8b3f
00000150: 5e4b 823f a2fe ff3f 2fc3 823f a67b 823f
00000160: 5015 823f aab7 823f 26f2 823f 5378 833f
00000170: a2fe ff3f a2fe ff3f bcd8 813f 1c51 853f
00000180: 3223 823f a2fe ff3f 0c82 823f 2a91 913f
00000190: a2fe ff3f a2fe ff3f a2fe ff3f a2fe 7f40
000001a0: b99e 823f da98 813f d1fe 3f40 a2fe ff3f
000001b0: a2fe ff3f 3e4f 813f f17c 823f 935d 823f
000001c0: a2fe ff3f 72a2 8a3f 49b0 823f db13 813f
000001d0: 2ea8 823f c3b3 813f b6a6 813f 2a80 823f
000001e0: aa2d 883f a2fe ff3f a2fe ff3f a2fe ff3f
000001f0: e260 8a3f aa9b 823f 94b4 9a3f a2fe ff3f
00000200: 54e4 813f c05a 813f fa4c 813f 9978 843f
00000210: 33ae 813f a020 813f 8098 813f e34e 853f
00000220: a2fe ff3f a2fe ff3f a2fe ff3f 4c8d 8d3f
00000230: bdba 2740 9797 863f a2fe ff3f 5d27 823f
00000240: e2e7 813f 296e 813f d10c 823f e492 813f
00000250: d5b3 823f 0792 813f 64e5 813f a2fe ff3f
00000260: a2fe ff3f a2fe ff3f e995 823f 1925 833f
00000270: cbac 823f a2fe ff3f d8cc 823f cc96 813f
00000280: fe16 843f 5aea 843f 8b01 833f 8510 823f
00000290: 2dcd 813f adb0 823f a2fe ff3f a2fe ff3f
000002a0: a2fe ff3f 7a15 873f ca04 823f 6860 863f
000002b0: a2fe ff3f b5f0 833f 8698 833f c2f9 813f
000002c0: c46e 823f 1f03 823f 0f2c 813f 6a28 813f
000002d0: 8b9e 883f e014 8f3f 0d99 833f a2fe ff3f
000002e0: bbcf 813f eaef 8b3f 8704 8a3f a2fe ff3f
000002f0: 4bc3 813f 5e3e 813f b8a6 813f 661c 813f
00000300: 3555 813f 4f42 843f 0abf 813f 39c8 813f
00000310: e1bd 873f 7759 833f a2fe ff3f a2fe ff3f
00000320: a2fe ff3f a2fe ff3f a2fe ff3f c968 813f
00000330: 4cc8 813f d246 833f ef55 833f 819c 813f
00000340: 49a6 813f c1e4 813f cf72 843f 0b18 883f
00000350: 59bd 863f 5ac8 813f 19e6 813f 9bc1 823f
00000360: 2ce1 833f 23ae 813f 8888 e43f 78e0 823f
00000370: 3524 833f 8539 813f c20e 833f ab23 833f
00000380: 45cf 813f 30c8 933d 3501 e93c 0000 0000
00000390: 5769 4d3d 61e6 ce3c 0000 0000 71af 8e3c
000003a0: c4ea d93b 0000 0000 9f25 573e 4ed0 783f
000003b0: 0000 0000 48eb 0e3f de39 d73f 0000 0000
000003c0: 2eb4 c43e a08f 153f 0000 0000 8c43 8d3e
000003d0: 944b d43b dc3e 233c
1.0137048 1.0134954 1.0355549 1.0207751 1.1014848 1.0765942 1.0150014 1.4404297
1.0621833 1.0106055 1.013507 1.0547712 1.0163779 1.050846 1.0221725 1.0115639
1.0154929 1.9999583 1.9999583 1.0241294 1.1061682 1.1310786 1.9999583 1.9999583
1.9999583 1.9999583 1.0307661 1.0748223 1.0140316 1.0140787 1.0349685 1.1394972
1.9999583 1.9999583 1.1141105 1.0125841 1.013441 1.9999583 1.0132189 1.0141772
1.9999583 1.0203364 1.016919 1.0196403 1.0169729 1.0991987 1.025693 1.9999583
1.9999583 1.0595399 1.0090053 1.0142741 1.9999583 1.016439 1.0141332 1.9999583
1.0138752 1.0158032 1.0200862 1.0333359 1.0409669 1.1281633 1.9999583 1.9999583
1.0199788 1.0140939 1.0251123 1.9999583 1.0241566 1.0125668 1.9999583 1.030452
1.0161343 1.0150076 1.024985 1.0458622 1.090432 1.9999583 1.9999583 1.1973844
1.0196774 1.0092444 1.9999583 1.0918397 1.017925 1.9999583 1.0215815 1.0193985
1.0162754 1.02123 1.0230148 1.0271095 1.9999583 1.9999583 1.0144267 1.0415378
1.0166991 1.9999583 1.0195937 1.1372426 1.9999583 1.9999583 1.9999583 3.9999166
1.0204688 1.0124772 2.9999278 1.9999583 1.9999583 1.0102308 1.0194379 1.0184807
1.9999583 1.0830824 1.0210048 1.0084184 1.0207574 1.0132984 1.0129001 1.0195363
1.0638936 1.9999583 1.9999583 1.9999583 1.0810816 1.0203755 1.2086358 1.9999583
1.0147805 1.010582 1.0101616 1.0349303 1.0131286 1.0088081 1.0124664 1.0414699
1.9999583 1.9999583 1.9999583 1.1058745 2.6207726 1.0515012 1.9999583 1.0168263
1.014889 1.0111743 1.0160161 1.0122952 1.021113 1.0122689 1.014813 1.9999583
1.9999583 1.9999583 1.0201999 1.0245696 1.0208982 1.9999583 1.0218763 1.0124145
1.0319517 1.0384018 1.0234846 1.0161291 1.014074 1.0210167 1.9999583 1.9999583
1.9999583 1.0553429 1.0157712 1.0498171 1.9999583 1.0307833 1.0280921 1.0154345
1.0190053 1.0157202 1.0091571 1.0090458 1.0673383 1.1178246 1.0281082 1.9999583
1.0141519 1.0932591 1.0782632 1.9999583 1.0137724 1.0097158 1.0129004 1.0086792
1.0104128 1.0332736 1.0136425 1.0139228 1.0604821 1.0261678 1.9999583 1.9999583
1.9999583 1.9999583 1.9999583 1.0110103 1.0139251 1.0255988 1.02606 1.0125886
1.0128871 1.0147935 1.0347537 1.0632337 1.0526534 1.0139267 1.0148345 1.0215334
1.0303092 1.0131267 1.7854166 1.0224752 1.0245425 1.0095679 1.0238879 1.024526
1.0141379 0.07215917 0.028442958 0.0 0.050149288 0.025256338 0.0 0.017417641
0.0066503007 0.0 0.21010445 0.9719285 0.0 0.5582776 1.6814535 0.0
0.38418716 0.5842228 0.0 0.27590597 0.006478736 0.009963717

network_body._body_endoder.seq_layers.0.weight f4 [128, 246]
00000000: a5ef 0bbd 6a8c acbd be76 ddbd 0229 a7bd
00000010: 8b49 f63c 7c66 86bd 6b0e 3bbd 59e0 03be
00000020: 93e6 123c 559f cdba 8257 90bc fcc0 63bd
00000030: 8907 62bc 3b40 3c3d 002b 43bc 20de 30bd
00000040: 6535 afbb 48ee 303e 9406 b23d d0d8 ff3d
00000050: 5af7 adbd e706 ed3c 2dd6 863c bce6 083e
00000060: 48cf 503e 087a 2a3e e6ae 23bd 2f85 ae3c
00000070: 0c6a 003d 3341 043d eede 403d a02a 0d3d
00000080: 48ba 2f3e 5ada 373e 2c7e c93b a84e 6d3c
00000090: 7a65 83bd 761a 283e 0705 103c 3b2a 4fbe
000000a0: 8ad0 5a3e 51b0 c5bd 2863 683d 9a61 9f3d
000000b0: 2c8b 4cbc f7b7 55be 9445 e2bd 5005 0a3e
000000c0: 1cdc 103e e85b 423d 2b68 3dbd 9719 77bd
000000d0: 3e32 063e cb2c d2bc f4da c53c 5408 e33d
000000e0: 7366 2bbd b57e ddbc 6ea6 5a3d 62a5 afbd
000000f0: 75f3 633d 0f6b 123c f26e 413e 1e8b 0a3e
00000100: 2e4f 5abd cd47 50bd 298a 33bd 2ab6 8d3d
00000110: c8f3 2f3c 5c89 aabc eeb1 2c3e 8f93 05bc
00000120: 922f 9dbd fb08 86bd 926f 203d c25e 97bd
00000130: 9b1f fdbc 889f 9b3d 1668 473e 6929 d03d
00000140: 3718 dc3d fca2 8b3d 8013 653e c99a 0f3d
00000150: f9b5 15bc 9a86 5b3e b89e 1e3b 6c4f 143c
00000160: 315a aa3d bf17 0e3d 867e c33c ecaa 063e
00000170: 7c55 0b3e 8cf0 063d 91ae 113e 703d a53d
00000180: e18f dcbd 2a7d 3f3e 289a 293d 2d3d 353d
00000190: b0d3 ff3d 28bf 203e 7634 243e b6d3 d63d
000001a0: ead8 88bd 3189 09bd b3cd b23d 564c 0d3e
000001b0: b6fc 6e3e 11de 42be 6faf a7bd 0405 8f3c
000001c0: 8087 7c3d 56e3 20bd 1712 bd3b b139 0b3d
000001d0: 3c15 9fbd e40d c6bc 382d bbbd 6cbd c83c
000001e0: 5ce0 9cbd b613 223e ef05 383c 3065 213e
000001f0: 4b9c e5bd d6d5 183d 3c40 583c 5611 163d
00000200: 55cf 05be c0e4 9ebc 05eb 5cbd a5b7 63bc
00000210: 62d8 debd 05e8 163e 6f11 4abd 4eef c8bd
00000220: fe76 e03d 06e2 523d 96f8 bc3d f21e a73d
00000230: f08d 163d f1bf c1bc f85b d73d 3543 0bbb
00000240: 1afa 77bc f1aa a8bd b57a b43b 8473 53bd
00000250: b8a9 0fbc 9c93 bebd 48ee f03c ece1 e03d
00000260: 82d7 8b3c 1ab1 083e c751 3a3d 2778 2e3d
00000270: aca3 38bd e40f ff3c d488 9bbd 786e 473d
00000280: 899c 543d fae0 d8bd ac1e 5fbc 810a a23d
00000290: 8bb7 383d d20c 4dbd f429 1b3e 6aa1 693d
000002a0: d63e 103d 3f5d 173b ebed bcbd 84da 203e
000002b0: 380d 0f3e d66b 47bb 01e3 4f3d 8430 c13b
000002c0: cb80 ab3d fa79 683c fc1e 7fba 34f5 9cbd
000002d0: e9e9 1e3c 5cab 083d f4e6 0bbe 7e16 d93d
000002e0: f278 643d 6c41 4d3d 6995 b9bd 2e84 b23d
000002f0: 7a45 c9bc 6c5a 76bc 6a53 22bd aff4 01be
00000300: 9456 09bd 06d4 8ebb 1e0f 823c cbcd 243c
00000310: 7e3b 053d 9a08 4a3d 00ea 6d3e 34d4 063e
00000320: 2c87 903d a519 003e 505d f13d a227 7ebd
00000330: 1d15 51bd fd4f 7f3c e5a3 a6bd d886 173d
00000340: a1f0 963d 859b 443d 5e68 38be 22d3 13bd
00000350: f7fd 83bd 3d95 c9bd 863b 1d3d 48f1 823d
00000360: fdd0 edbc d01d 2bbd e45b 50be 4d9f 1abe
00000370: 6c06 223d b0e6 b23c a214 03bb 1d9e b4bd
00000380: d63e 3bbd 0eed 52be 5afc 95bc 5d8f c63c
00000390: 54fa edbb c247 9ebc a135 553d 1fc6 193d
000003a0: 028c 57be 0af0 883d e82e f0ba 5866 5d3d
000003b0: 8da3 273e fb29 613c a94a 7fbd 95c4 67bd
000003c0: d027 b0bd 024c d0bd 7a92 243d dba1 653e
000003d0: dcb2 dd3b 100a 9ab9 a7b2 3abb 00b7 25bd
000003e0: 49f0 f7ba befd 0e3d 3392 133c 46b3 aebd
000003f0: e2c0 b73d 5f6d 4c3d e305 d73c 3fbf b23a
-0.03416409 -0.08425219 -0.10813664 -0.081621185 0.030064365 -0.06562516 -0.045668047 -0.1287855
0.008966106 -0.0015687743 -0.017619852 -0.055603966 -0.013795742 0.045959692 -0.0119121075 -0.043180585
-0.0053469413 0.17278397 0.08692661 0.124925256 -0.08494444 0.028933955 0.016459549 0.13369268
0.20391572 0.16648114 -0.039961718 0.021303741 0.031351134 0.03228874 0.047087602 0.03446448
0.17160904 0.17954388 0.006149074 0.014484085 -0.064158395 0.16416344 0.008790261 -0.20230953
0.21368614 -0.0965277 0.056735188 0.07782288 -0.012484353 -0.20870958 -0.11048427 0.13478589
0.14146465 0.04745093 -0.04624192 -0.06032714 0.13105103 -0.025656125 0.024152257 0.11085573
-0.04184575 -0.027037958 0.053381376 -0.08576466 0.0556521 0.008936658 0.18889979 0.13529631
-0.053298168 -0.050849725 -0.04383293 0.06919511 0.010739274 -0.020817451 0.1686475 -0.0081528565
-0.07675089 -0.06544682 0.0391689 -0.073911205 -0.03089886 0.075987875 0.194733 0.10164148
0.10746806 0.06818196 0.2237072 0.035059724 -0.009137624 0.21438065 0.002420349 0.009052139
0.08317984 0.034690615 0.023864042 0.13151139 0.13606828 0.032944247 0.14226748 0.08068359
-0.1076963 0.1870009 0.04140678 0.044247795 0.12491548 0.1569792 0.16035637 0.104895994
-0.06681998 -0.0335781 0.0873064 0.13798651 0.23338589 -0.19030024 -0.08187758 0.017458446
0.06165266 -0.039279304 0.0057699787 0.033990566 -0.07767722 -0.024176545 -0.09139484 0.024504386
-0.07659981 0.15827832 0.011231883 0.15761256 -0.11211451 0.037313305 0.013198908 0.036637627
-0.13067372 -0.019396186 -0.05393507 -0.013898765 -0.108811155 0.14736946 -0.049333032 -0.09811269
0.10960196 0.051485084 0.092271015 0.08160199 0.036756456 -0.023651095 0.105155885 -0.0021249775
-0.015135312 -0.082357295 0.005507792 -0.051623836 -0.008768491 -0.09305498 0.029410496 0.10980591
0.017070536 0.13348809 0.045488145 0.042595055 -0.045077965 0.031135507 -0.07594457 0.048689336
0.051907096 -0.10589786 -0.013618153 0.0791216 0.045096915 -0.050061055 0.15152723 0.057038702
0.035216175 0.002309635 -0.09225067 0.15708357 0.13969886 -0.0030429265 0.050753597 0.005895676
0.08374175 0.014189238 -0.0009732095 -0.07663956 0.009699323 0.033366546 -0.1366232 0.10599993
0.055779405 0.05011122 -0.09061701 0.087166175 -0.024569262 -0.015036207 -0.03963033 -0.12690996
-0.033529833 -0.0043587713 0.015876349 0.0100588305 0.03252744 0.04932461 0.23233795 0.13166887
0.07057032 0.12509783 0.11785376 -0.062049516 -0.051045526 0.015583036 -0.08136729 0.03699383
0.07370115 0.047999877 -0.18008563 -0.036090024 -0.06444924 -0.09842918 0.038386844 0.06393677
-0.029030317 -0.04177648 -0.20347553 -0.15099831 0.039556906 0.021838516 -0.0020001312 -0.0881922
-0.045714222 -0.20598242 -0.018308807 0.024238283 -0.0072625075 -0.019321326 0.052053098 0.03754246
-0.21049502 0.06686409 -0.0018324526 0.05405268 0.16370983 0.013742919 -0.06232706 -0.05658396
-0.08601344 -0.10170747 0.040178753 0.22425024 0.0067657065 -0.00029380666 -0.0028487833 -0.040457726
-0.0018916215 0.034909956 0.009007025 -0.085302874 0.08972336 0.049908992 0.026247924 0.0013637318

network_body._body_endoder.seq_layers.0.bias f4 [128]
00000000: 85cc cf3d f5f0 5f3d c773 8bbc e851 913d
00000010: add2 8a3d 55a8 c53c 8eff b53d 5c20 d53c
00000020: 7dee e13b 147e cc3d 468a 873d 6084 c23d
00000030: c923 d73d a846 6f3d 67b8 333d ca79 703d
00000040: 3b9a 963c 92e0 fd3c 7ed8 793d 7043 103c
00000050: daba 36bc a875 ae3d 9ef2 503d 4270 313d
00000060: b9af a73c 33bf a53c 6c29 923d 7b0b c13d
00000070: 2b65 8a3d c146 623d 9f8c 623c 1e24 b33d
00000080: 3f19 953c 1579 a63c 1473 913d f5d5 033d
00000090: c9bb 593d 7c8b 2f3d 1f39 dd3d edc6 483c
000000a0: 34fd 303d 7bfb 553d 18ee 7e3d 773d 6b3d
000000b0: 5adc a83d 05cb 753d 3c1e ac3d 0926 bd3c
000000c0: 9f0d 8c3c b3ef 2d3d 28d1 763d 4a27 cbbb
000000d0: 0c46 c93d aa28 d6bc 8989 323d 8252 543d
000000e0: 3b68 943c 3858 2b3d d125 273d b56f ec3b
000000f0: 2386 5a3d 9bd9 8d3b 11de 693d abd9 593d
00000100: f0f4 783d 987b 633d dfaa 1a3d d3b2 a33d
00000110: a59b 3c3d 7d6a 833d 25cd 4b3d 7f33 db3b
00000120: a27b a33c a629 973d f5e0 b83c 26e3 a03d
00000130: 9cec 903d e296 bf3c 8ec5 0e3d 15c4 3f3b
00000140: 8e01 893d f9f3 b23d 1cbc 703d 1e1c 40bc
00000150: f759 253d 4cd0 8e3c 1761 23bb 7640 ca3d
00000160: ab63 a03d 8889 873d 8148 bb3c e6f0 a93d
00000170: c50e 263d f776 a43d d5b5 fd3c 0e88 003d
00000180: 99bd c1bc 854b 8b3d 7673 e63c 22bd 5f3d
00000190: 3cbd 883d 70e6 05bc 018c f33c ef12 a13c
000001a0: 0697 5a3d 0652 de3c e1d8 813d fdbe cd3d
000001b0: d892 993d 4370 f2bb 93fc 9a3d a3a2 523d
000001c0: 1496 c9bc 6719 59bc 1df9 913d ce9d 483d
000001d0: d9f1 133e c5bd 9e3d 8504 55bb 7c08 6f3d
000001e0: 1bb6 633d 1538 fd3d cdd9 753d 5423 6f3d
000001f0: bdbb 133d c00e 653d a391 9c3d 8088 b43d
0.10146431 0.054673154 -0.01702298 0.070957005 0.067784645 0.024128119 0.08886634 0.026016407
0.006894885 0.09984985 0.066181704 0.09497905 0.10504872 0.058416992 0.04387703 0.058709897
0.01838409 0.030990873 0.06099748 0.008805141 -0.011152947 0.08518535 0.051012628 0.043319948
0.020469533 0.020232772 0.07136807 0.09426018 0.067575775 0.055243257 0.013827472 0.08747123
0.018200515 0.020321408 0.071020275 0.032186467 0.0531576 0.042857632 0.108019106 0.012254459
0.043210223 0.052241784 0.062238783 0.057431664 0.08245154 0.060008068 0.08404204 0.023089426
0.017096339 0.042464923 0.06025806 -0.006199752 0.098278135 -0.026142437 0.043588195 0.051836498
0.018116107 0.04183218 0.04080755 0.007215465 0.05335058 0.004328919 0.057096545 0.0531861
0.060780466 0.05553779 0.03776061 0.079930924 0.04604687 0.064167954 0.049756188 0.0066894884
0.019956414 0.07380991 0.022568205 0.07855825 0.0707638 0.023387376 0.03485637 0.002926116
0.0668975 0.0873794 0.058773145 -0.011725454 0.040369 0.017433308 -0.0024929696 0.09875576
0.0783151 0.06618029 0.022861721 0.08297901 0.04054143 0.08030503 0.030970493 0.03137975
-0.023649978 0.068015136 0.028131228 0.05462373 0.066767186 -0.008172616 0.029729845 0.019662349
0.053366683 0.027138721 0.063401945 0.10046194 0.07498711 -0.0073986365 0.07567706 0.051424634
-0.024607696 -0.013250685 0.07127593 0.04897862 0.14447726 0.077510394 -0.0032503915 0.0583577
0.05559359 0.123642124 0.060022164 0.0583833 0.036067713 0.05592227 0.076449655 0.08815098

network_body._body_endoder.seq_layers.2.weight f4 [128, 128]
00000000: 82e2 a83a 9dcc a03d 663f 62bd 0c69 89bd
00000010: 2f50 733c 514c eabd 87aa 9abd 3c56 4dbd
00000020: 1922 abbd 31e6 983d 2c04 13be 3abb cebd
00000030: c85c 09be fe19 95bd f626 b6bc 4971 c53d
00000040: 0ec1 40bd 895c f23d 3f42 023d 113f c83d
00000050: fad8 d83b 4212 b83c 8450 a53c ece9 c33c
00000060: dc80 fabd b35c d3bd c037 b1bd 27bd 9cbd
00000070: f95e f5bd d620 24be c60b 41be e032 173e
00000080: 4f51 a63d 7ca0 c3ba f0ea 443d b22b 6cbe
00000090: 4d29 56be b492 343d dbc5 99bd 95fb ad3d
000000a0: 22a6 4fbd ca19 aa3d cb3d a1bd 1034 4abe
000000b0: df80 cfbd 512d d73c f587 b33d a40b 6cbc
000000c0: de0a 3cbc 1661 debd f5fd b4bd 2c06 713d
000000d0: cdfa 09be 4d53 c23a 84dc 05be 78b1 f53c
000000e0: 49cb cc3d dbcd bdbc e6c3 91bd 4c4f b63b
000000f0: 6d82 5a3d 6dc0 bd3d 0614 363e 6a01 0ebe
00000100: 0dd4 56bd b49f 80bd e4a3 1fbd fabc 613e
00000110: 0c57 3ebd 1bac cbbd ec6c cf3d f4cd d5bc
00000120: 4146 87bb 104b 30be 4de4 8fbe fb98 76be
00000130: f8b1 93bd 59e1 3d3e bab3 243d 9bea c43c
00000140: ee55 08be fbd4 2b3d 0c6f 643d 66eb 393d
00000150: 6fb1 1fbe ce7d 03be 9204 8ebd a59a 42bc
00000160: 7600 26bc 22c4 223e ce49 a13d a71b 8fbd
00000170: 148e 433e 9b97 ddbd c2c5 9abd 2b4e abbd
00000180: 4fe8 cabc 251c e6bd f93f 8ebc c2f8 5b3d
00000190: 9e49 16be 7a59 fd3d 1d63 e9bd 15bc 263d
000001a0: 72c8 efbd 44f0 d7bd 1d89 38bd bdc5 e3bc
000001b0: ce5c 6ebd f80a e7bd dddb 5d3c 396b afbd
000001c0: ebe5 1b3d 4a67 d33c cfe3 82bd f969 5f3d
000001d0: d8ba ef3c c004 a33c 8131 25be 0e44 113c
000001e0: 1205 7bbd e72e 19bd 81d4 15be 7b23 b33d
000001f0: a837 b5bd d7b7 de3c 23f6 0d3e beb7 18be
00000200: 61f5 253e b420 8f3b 13f9 5f3d d4c7 6cbd
00000210: def2 1fbc 83df 00be cc95 ae3d b581 99bd
00000220: dc4d 803d 41e8 68be f75d 9e3d 6078 073d
00000230: bbf2 883c 3673 eebc 1083 733c e7de 83bd
00000240: b1dd 67bb c819 893c c8c0 503d 2776 6dbe
00000250: d08b e23d 2b4e 823c 97b7 f23d 6071 723e
00000260: 4115 0b3e 4c31 b2bb a057 ddbb 2de2 8abd
00000270: 2b57 463d 9400 fe3d 3ebd 813c de5c 893e
00000280: 2090 ae3d d8e8 aabd 040c 8bbd 9394 1d3d
00000290: b7ce bfbd c06c 673d a890 3e3e eb02 aebc
000002a0: aa39 b9bd e8d2 e0bc 8cc6 943d 989e 9cbc
000002b0: 0651 943d b0b6 423d f972 c2bd eb3f b9bd
000002c0: 6e28 0c3e 8f0b 41bd aeeb debd c95e 2abd
000002d0: 31b8 3b3d b816 a43d 9347 c53d 48c6 40bd
000002e0: c066 de3d d8b7 1e3d f541 c03b bb9f 43bd
000002f0: 1201 5e3d fbe8 f13c 0089 883e 04ec 943d
00000300: 8d4b e23d bb54 ec3c 6373 02bc 22af 26bd
00000310: 77db 6a3d de40 0d3d ab21 083d a6a9 2e3e
00000320: 6f02 443c 0fe9 19bc f9a5 48be cfaa e9bd
00000330: 9600 5abd 4c1b 9f3e 115f e23d 301e e2bc
00000340: e0eb 293e a6d6 403e 09b0 08be 8a80 143e
00000350: 4c28 1dbe 1d1e 7fbd 8b60 053e 7d1a e8bc
00000360: f974 8e3d cfc8 dd3d 0050 36bd ef46 153e
00000370: a4e5 0d3e aeb9 183b 021e 093e 896a 003e
00000380: 5259 94bd b995 78bd e6cf 9ebd bd0d 71bd
00000390: 853f d8bd 4592 a83d 3e8a 9ebd a179 173e
000003a0: 4f8f c439 ca4b dfbd b16c 0e3d 6811 433e
000003b0: 0298 db3d fba3 5a3d 3158 8a3b f512 d63d
000003c0: 25b4 f13c 67b9 bcbd 165a b3bd 4d8c f0bc
000003d0: ff8e e2bd 4028 b2bd 96fc 323e 2166 87bd
000003e0: c6ff 193d d2ff cbbd f48f 0fbe 709c 87bd
000003f0: e3e2 40be bbc6 e8bd 2ba1 ca3d 7cf7 44bd
0.0012884887 0.07851527 -0.055236243 -0.06709489 0.01485066 -0.114403374 -0.07552057 -0.050131068
-0.08356113 0.074657805 -0.1435706 -0.100943044 -0.134143 -0.07280348 -0.022235375 0.09640748
-0.04705911 0.11834056 0.03180146 0.09777654 0.0066176625 0.022469644 0.020179994 0.023915254
-0.12231609 -0.10320415 -0.086532116 -0.076532654 -0.11981005 -0.16028151 -0.18852147 0.14765501
0.08120977 -0.0014925147 0.048075616 -0.23063543 -0.20914192 0.04408522 -0.07508441 0.08495251
-0.050695546 0.083057 -0.07873114 -0.19746423 -0.10132002 0.026266726 0.08766166 -0.014407072
-0.0114772 -0.108583614 -0.08837501 0.058843777 -0.13474579 0.0014825851 -0.13072401 0.02999185
0.09999711 -0.023169449 -0.07117443 0.005563652 0.05334704 0.09265218 0.17781076 -0.13867727
-0.05244832 -0.06280461 -0.038974658 0.22044745 -0.046469733 -0.09944936 0.10128197 -0.026099183
-0.004128248 -0.17216134 -0.28103867 -0.24081795 -0.07211679 0.18542995 0.040210463 0.02403765
-0.1331403 0.04195116 0.055769965 0.04539051 -0.1559503 -0.1284096 -0.069344655 -0.01187769
-0.010131946 0.15895131 0.07875405 -0.06987696 0.19097167 -0.10819932 -0.075572506 -0.08364519
-0.024768976 -0.11235837 -0.017364489 0.05370403 -0.1467652 0.12370582 -0.113958575 0.040706713
-0.11708154 -0.10543874 -0.045052636 -0.02780425 -0.058193974 -0.11281389 0.013541189 -0.08565373
0.038061064 0.025806088 -0.06391107 0.054544423 0.029263899 0.019899726 -0.16132165 0.008866323
-0.061284132 -0.037398245 -0.14631845 0.08747002 -0.08848506 0.027187271 0.13863425 -0.14913842
0.16206886 0.004367912 0.054680895 -0.05780776 -0.009762494 -0.12585263 0.08524665 -0.07495443
0.062648505 -0.22744848 0.07732766 0.033073783 0.016717305 -0.029107671 0.014862791 -0.064389996
-0.003537994 0.016735926 0.0509651 -0.23189603 0.11061823 0.015906414 0.11851423 0.23676062
0.13582326 -0.0054380056 -0.0067548305 -0.06781421 0.048422974 0.12402454 0.015837308 0.26828665
0.085235834 -0.08345193 -0.06789401 0.03847177 -0.093655996 0.056500196 0.1860987 -0.021241626
-0.09044202 -0.027444318 0.07264432 -0.019118592 0.072420165 0.047537506 -0.094945855 -0.090453945
0.13687298 -0.047130164 -0.10884796 -0.0415943 0.045829955 0.08012146 0.09632792 -0.047064096
0.10859442 0.038749546 0.0058672377 -0.047759753 0.05420024 0.029530039 0.26667023 0.07271579
0.110495664 0.028848996 -0.007962081 -0.040694363 0.057338204 0.03448569 0.033235233 0.17056903
0.011963471 -0.009393944 -0.19594564 -0.11409532 -0.053223215 0.31075513 0.11053289 -0.027602285
0.16593885 0.18831882 -0.13348402 0.14502159 -0.15347403 -0.062284578 0.1302511 -0.028332943
0.069559045 0.10829317 -0.044509888 0.1457784 0.13857132 0.0023304033 0.13390353 0.1254064
-0.07243599 -0.06068966 -0.07754497 -0.058850992 -0.105589904 0.08231024 -0.07741211 0.14792491
0.00037490806 -0.109031275 0.034771625 0.19049609 0.107223526 0.05337904 0.004221939 0.104528345
0.029504845 -0.0921505 -0.08757417 -0.029363776 -0.110624306 -0.08699083 0.17479166 -0.066112764
0.03759744 -0.09960903 -0.14019758 -0.06621635 -0.1883655 -0.1136603 0.098940216 -0.048087582

network_body._body_endoder.seq_layers.2.bias f4 [128]
00000000: a02f a1bc 3530 0c3c 44d3 9e3b 6b67 693d
00000010: 3a72 d63c 7a29 e33b 2722 303c 9ed4 703c
00000020: b03b 023d d5e6 163c eef0 153d a537 943a
00000030: b97e ab3d 35f5 bb3c a76b a63c 12cb f73c
00000040: ccaa 403c ce8f 8cbc ad41 973c 1e4a 70bc
00000050: 9ba6 b0bc 97b2 8dbc 94a0 bfbb 6a3d 183c
00000060: 7917 213d 9da3 713c bcb8 bbbc 2866 1e3d
00000070: 0d15 383d d984 3abb 61b2 283d ff1c 3fbd
00000080: 53f8 80bc bb61 713c 83fc 983d 689b 3d3d
00000090: badd 063b 0acf 443d cd98 103c 6eaf 7a3d
000000a0: 4522 1c3c e0f2 043c 1bda 7c3d f56b eb3c
000000b0: c756 8c3d 10ca d6ba 7d06 bfbb 60b8 d8bc
000000c0: 35b5 733c 1a5c c23d 9e58 d23b 408d bc3c
000000d0: 0c12 003c 71e5 d73c 7e0f e13c 6bd2 133d
000000e0: 7a09 b93c 183d bcbc 414c 663c b084 39bc
000000f0: e353 25bc 9ff1 4a3c 1dc4 7a3d d0bf 7b3d
00000100: 9fae 243d 13c6 e43c 93dd a3bc 1036 59bc
00000110: a988 dfbb 3043 9f3d 7458 843d 7b8d 1cbd
00000120: b4cf 0c3d bd31 05bd 9904 e13c fa6a ab3c
00000130: 7a08 333d 82e3 90ba 7d37 8f3b a2c1 273b
00000140: 7bff 9bbc ff60 8a3b b2c9 c23c 1e54 543b
00000150: fdd7 c9bb a76c 82bc 627e d1bc 1b3a 693c
00000160: b04e ea3c b08e 6f3d 3389 953c 3d9b 50bc
00000170: ddee 273d 512b ee3d 08a4 67bc 771f 54bc
00000180: 718f 84bc 785f f93b ad7e 263d ce5f d53d
00000190: 1e19 52bb 9107 d53c 10cf 013d 58a6 173c
000001a0: efc1 a73d 3c4d 493d 8738 e83a 7025 903d
000001b0: 7baf 613c b74f f8bb 4373 953c d673 3d3d
000001c0: 5f47 953d f20d 09bc 9a42 ff3c 73f3 a8bb
000001d0: e976 343d 4529 b5bb 94de d63c 6def 023d
000001e0: 6474 393c a166 b63d 307f af3d a57b 3d3d
000001f0: 4872 863b 25ea a6bc 3665 883d deaa 55bc
-0.01967603 0.008556415 0.004846962 0.056983393 0.026177514 0.0069324346 0.01075033 0.014699129
0.031795204 0.009210308 0.03660672 0.0011308087 0.0837378 0.022944072 0.020315005 0.030248199
0.011759471 -0.017158415 0.018463934 -0.014666108 -0.021563819 -0.017297072 -0.005848 0.009291986
0.039329026 0.014748481 -0.022915237 0.038671643 0.04494195 -0.002846053 0.04118574 -0.046658512
-0.01574341 0.014732773 0.07470038 0.046290785 0.0020578937 0.04804901 0.008825493 0.06120246
0.009529655 0.008114547 0.06173144 0.028738001 0.06852489 -0.0016387124 -0.005829631 -0.026455104
0.014874746 0.09490223 0.0064192554 0.023016572 0.007816803 0.026354523 0.027473208 0.036089342
0.022587527 -0.02297835 0.014056266 -0.011323139 -0.010090801 0.0123867085 0.061222184 0.061462224
0.040205594 0.02792648 -0.020003116 -0.013257518 -0.006821711 0.07776487 0.064621836 -0.038220864
0.03437777 -0.032518137 0.027468013 0.020925034 0.043709256 -0.0011054131 0.0043706284 0.0025597592
-0.019042721 0.0042229886 0.023777816 0.003239877 -0.006159781 -0.01592095 -0.02557296 0.014235045
0.028601974 0.058485687 0.018253898 -0.012732324 0.040999282 0.11629356 -0.014138229 -0.012946955
-0.01618168 0.0076102577 0.04064815 0.10418664 -0.0032058428 0.026004585 0.03169161 0.009255968
0.08191287 0.049145922 0.0017717042 0.07038391 0.013774748 -0.007577862 0.018243438 0.046253048
0.072890036 -0.008365141 0.031159688 -0.0051559745 0.044058714 -0.0055286014 0.02622918 0.031966615
0.011319254 0.08906294 0.08569181 0.046260495 0.004102979 -0.02037532 0.066599295 -0.013041226

action_model._discrete_distribution.branches.0.weight f4 [3, 128]
00000000: c879 ba3d 0d6d 9ebc cb4d 63bd a0aa 58be
00000010: b607 1ebe 1b5c 16bd 2838 8fba 8dfe 60bd
00000020: 838a 5d3d f4cb ad3d 2691 2ebe 09d2 143d
00000030: 6823 3c3c 362f 91bd 449f f5bd 7f03 1ebe
00000040: 76bc 4ebc 3dc0 a9bd ae1d c43d 815a 933c
00000050: ed90 24bd 511f 303d 6901 0fbd 9fe8 a5bc
00000060: 15ef 943d 6b10 713d 5716 acbc 178d 943c
00000070: 10fc 68bc c045 d6bb b0f4 0bbe 9b53 c53c
00000080: 0a93 bebc 4386 08bd 8460 83be b1e7 c8bc
00000090: 8c8c 833d bda0 5e3d 740a b7bd 6e08 28be
000000a0: fc6a 073c 4552 dbbc b1d0 14be f534 263d
000000b0: c44b 3ebe ecba 923d 7283 5dbc 7688 8b3d
000000c0: 9ec9 373c 3dd1 35be 95cb f1bc acc0 ebbd
000000d0: 41d3 f5bc a834 1cbe c358 94bd caeb 2ebd
000000e0: bee9 be3c 3305 393d 6489 d4bc 24d1 17bd
000000f0: 1ffc 5dbd 7866 bf3c 7343 81bd 72c8 7ebe
00000100: e8f5 fd3c 512e 8c3d 77d7 44bd a9f6 bfbd
00000110: 2eb7 97bd 070c 433d d503 7fbb 90f5 ae3d
00000120: 239a 1dbe 3427 52bd 114c d03c 8c27 31bc
00000130: a76b ddbd 0d5c 973d 5a04 473c 70a7 94bc
00000140: 8aa6 6ebd 68f5 39bc 9a9c 743d 5725 a6bd
00000150: 9d8c 913c c36a c53d 762b 16bd 4572 a1bd
00000160: 21ef 3ebd 147d b3bd fd1a 483d 74f9 8abd
00000170: bff7 f73c 9a7b 57be 772b 703d 8c30 33bc
00000180: cec5 d2bc c8eb 783d e33f a13c 4361 7dbe
00000190: 4e9e 383d 1d62 fcbd 668c b43c ecae 02be
000001a0: 704a 3cbd 63a3 45be 29d1 c3bc 9383 4bbe
000001b0: 1c4f 87bc fd11 d3bd 4ba0 543d cf71 a53c
000001c0: 0ecd 9e3d 43ad 9f3d 7158 19be d04c 36ba
000001d0: 26c9 833d b8e2 66bd 8fcd 14bd 64c8 1cbd
000001e0: 79e7 683d 2dc6 5abe d9d6 c13d c0de 023d
000001f0: 1f82 4a3d c87f 7bbd e273 74be f998 763d
00000200: c6d6 073e e14d 84bb fe5b 6dbd b662 61be
00000210: 97cd 40be facd dbbc 2089 5fbd cb96 89bc
00000220: ff81 213d 7f18 5ebd f6a5 1fbe e064 96bd
00000230: a32b 583d 746b 0fbe 3aaa 5fbd c47d 50be
00000240: 0f35 00bc 979c a5bd 09ad 81bd e445 693d
00000250: c7a7 d7bc 752f 59bd 81b8 c5bc 3d6b 2c3d
00000260: 6b57 823d e48a dabd bf3d a43c c723 d23c
00000270: 7b3a b33c 4388 80bc c30c 92bd 864d 6d3c
00000280: 555c e7bc 1686 d8bc 0e9b 69be 240d 683d
00000290: f23e 31bd 27f3 f2bb 04be cdbd e959 d5bd
000002a0: e5ac 26bd b1a1 3a3d 3628 0ebe 3480 5e3c
000002b0: c4fd d3bd 89b3 313d 9bb1 b93a 61c0 f5ba
000002c0: 401f 3abe acf7 81be d7ad ad3c aab2 c9bd
000002d0: 865b af3b 1ede 09be 52e9 91bc 8665 e73c
000002e0: 7cac 1abe 68ae 663d 40e5 5e3d e985 0abe
000002f0: 262b 1dbd 88e9 ad3c a497 0dbe ec65 7bbe
00000300: e319 4cbe 6fe6 cd3d 1b73 7abc df0e b2bd
00000310: 42ba 40bd a256 943b 06da 8b3d 918c 93bd
00000320: 2d05 68be 879a 7dbc a2af 01be 4f14 fe3c
00000330: 17be 8bbe 3978 5fbd 62a4 b1bd a217 b33c
00000340: acca 2cbd 4a8a d23c baa3 783d 9dbe 7abd
00000350: c44d 203d 8e77 603c e812 3abb d47d a3bd
00000360: 565f 4dbd 406a 2ebd 133f 2fbd 5b02 98bd
00000370: 46ca 3d3c 9d19 77be f7cb a6bc 01c6 523d
00000380: 4a79 da3c c0b1 06bd 24f6 97bd 16c1 6dbe
00000390: 61f7 4f3d 27de 28be ca1d e3bd b01f cabd
000003a0: 77b2 3ebd 1720 3bbe b28b c7bc f389 6abe
000003b0: a1ac a93c 7b49 92bd 9de6 28bd 98fc 03be
000003c0: 7b8d 343d 5017 a53d 108e 4ebd b079 0f3c
000003d0: 6522 863d 7433 aebc 6ffd 3dbd ff8d 87bd
000003e0: 2ff1 99bc a271 8fbe 30eb 963d 42e3 5cbe
000003f0: 3651 a1b9 2993 4cbd 69df 4fbe b4f2 d6bd
0.09105259 -0.019339109 -0.05549411 -0.21158838 -0.15432629 -0.036708932 -0.001092677 -0.05493026
0.054087173 0.084861666 -0.17047557 0.036333118 0.011483051 -0.07089083 -0.11993268 -0.15431021
-0.012618175 -0.0828862 0.095759735 0.017987492 -0.040177274 0.042998616 -0.034913454 -0.020252524
0.07272164 0.058853548 -0.021006746 0.018133683 -0.014220253 -0.0065390766 -0.1366756 0.024087718
-0.023263473 -0.033331167 -0.25659573 -0.024524542 0.064232916 0.05435251 -0.08937541 -0.16409466
0.008265253 -0.026772628 -0.14532734 0.040577848 -0.1858359 0.07164559 -0.013520109 0.06813137
0.011217503 -0.177556 -0.02951602 -0.115113586 -0.03000796 -0.15254462 -0.072434925 -0.042705335
0.023304816 0.045170974 -0.02594442 -0.037064686 -0.05419552 0.02336429 -0.06311693 -0.24881151
0.031001046 0.06844772 -0.048057046 -0.093732186 -0.07407986 0.047618892 -0.0038912196 0.08542931
-0.1539083 -0.05130692 0.025426896 -0.010812651 -0.10811549 0.07390604 0.012147034 -0.018146247
-0.058264293 -0.011350013 0.05971966 -0.08112591 0.017767245 0.09639504 -0.03666254 -0.07883123
-0.04661477 -0.08764091 0.048853863 -0.06785861 0.030269502 -0.21043244 0.0586352 -0.010936867
-0.025729086 0.060771734 0.019683784 -0.24744134 0.045072846 -0.12323401 0.022039603 -0.1276204
-0.045969427 -0.19300608 -0.023903446 -0.1987441 -0.016517214 -0.10306165 0.05191068 0.02019587
0.07753955 0.07796719 -0.14975144 -0.0006954195 0.064348504 -0.05636856 -0.03632885 -0.038277045
0.056861375 -0.2136466 0.09464807 0.031950712 0.0494405 -0.06140116 -0.23872331 0.06020448
0.13265523 -0.004037604 -0.05794906 -0.22010311 -0.18828426 -0.026831616 -0.054574132 -0.016795537
0.039430615 -0.05422258 -0.15590653 -0.07343459 0.05277599 -0.14005834 -0.0546057 -0.20360476
-0.00782515 -0.08086508 -0.06331832 0.05695142 -0.02632512 -0.053023774 -0.02413583 0.042094458
0.0636433 -0.106710225 0.020048974 0.025651826 0.021878472 -0.015689975 -0.0713134 0.014483815
-0.02824227 -0.026431125 -0.22813055 0.056653157 -0.04327292 -0.00741424 -0.10046008 -0.104175396
-0.04069223 0.045564357 -0.13882527 0.013580371 -0.10351136 0.04338411 0.001416731 -0.001874935
-0.18175983 -0.2538427 0.021201057 -0.098485306 0.0053514866 -0.13463637 -0.017811451 0.028246652
-0.1510486 0.05631867 0.05441785 -0.13527645 -0.038371228 0.02122952 -0.13827378 -0.24550599
-0.1993175 0.10053717 -0.015286232 -0.08694243 -0.04705263 0.004526929 0.06828694 -0.07204545
-0.22658224 -0.015478737 -0.12664655 0.031015543 -0.27293465 -0.054558013 -0.08673932 0.021861855
-0.04218547 0.025700707 0.060703017 -0.06121694 0.039136663 0.013700379 -0.0028392617 -0.07982984
-0.050139748 -0.042581797 -0.04278476 -0.07422324 0.01158387 -0.24130864 -0.02036093 0.051458362
0.026669163 -0.03288436 -0.074199945 -0.23218188 0.05077303 -0.16490994 -0.11089666 -0.09869325
-0.046556916 -0.1827396 -0.024358604 -0.22904186 0.020712199 -0.071429215 -0.041235555 -0.12889326
0.04408024 0.08061087 -0.05042845 0.00875704 0.06549529 -0.02126477 -0.04638427 -0.066188805
-0.018791763 -0.28016382 0.07369077 -0.21571067 -0.0003076882 -0.04994503 -0.20300068 -0.10495511

action_model._discrete_distribution.branches.0.bias f4 [3]
00000000: c195 b7bd 5d3d aabd 61e6 093e
-0.0896411 -0.08312485 0.13466789

action_model._discrete_distribution.branches.1.weight f4 [9, 128]
00000000: 7d29 26bd a47b 203d aab6 d1bc e992 01bc
00000010: 77f1 43bc 181b 943c 7637 c1bb ad25 a6bc
00000020: 538c ff3d f493 bd3d de46 733b a98e 983c
00000030: b51c 053d b391 6bbb 1ca0 693b d747 33bc
00000040: 9f8d 3a3c 350d 703b 4ce2 a43d 5ca1 09bc
00000050: 4137 223c f83a 793c 6363 d53c 4cef 82bd
00000060: ac78 133d 9a6b 8b3d 3903 283d 80ec 4b3d
00000070: c7f7 2fbd b308 523c ae49 183c 84f9 45bd
00000080: b35e 433c abad 0b3b ed4b b9bb 6573 0fbd
00000090: 4d92 e53d 1517 eb3d 2723 6b3c 887f 4a3b
000000a0: 9f2b ea3a 903b 11bd 64cd f9bc 6a3e f1bc
000000b0: c218 7a3b bcfc aebb 6b2b e63b 81d1 df3d
000000c0: a758 2c3d 34fc 0cbc eba6 003d 7d7d be3c
000000d0: b64a c23d ef9b 48bd 3589 573d 1602 623d
000000e0: af34 763d 09b1 efbc 37f1 3f3c 53a7 f53c
000000f0: 58ae 4abd 730e e23c 3f17 183d a1b5 6fbc
00000100: 9ad0 7d3d e0b9 e7bc 3154 933b afd8 573c
00000110: b6ab a0bc cea7 193e 8df6 7e3c 0290 b63d
00000120: 0907 5c3c f5d0 b1bc b227 3c3d 47f5 58bd
00000130: 86b1 823c 5f7b dd3d de95 313d 58d3 6fbc
00000140: 8b53 c7bc 86cf 8ebd 7a0c c63d ca64 313d
00000150: f71b 4abd af12 1f3e ca9b eb3c b71f 173d
00000160: 3649 a23d 8189 1ebc 908c a83d db5a 0e39
00000170: 1362 663d df12 143d f588 c63c e7a5 f9bc
00000180: 2e6d 6bbc 98ac 923d 268c eb3c b357 a23c
00000190: 5934 01bd f542 d6bc dd2a 493d 5dc6 7cbc
000001a0: cd1e 8a3d 190a 6c3c 3298 373c 36b4 063d
000001b0: cfb6 20bd 9fc9 77bc 82ec 543d ecdc 923d
000001c0: 3e77 6b3d ae18 e23d e709 86bc eb92 dcbc
000001d0: b9fb 123d cde8 8cbc 7ff8 433c e69b ba3c
000001e0: 8539 853d 3e05 033d 9224 1b3d 1f93 be3d
000001f0: 0af3 9c3c bfa4 5bbd d27d 05bd 59de ae3d
00000200: 1803 c13b 4113 613d 0f8c 0f3d 3066 653b
00000210: b3e5 693c dcc4 3d3c 99ff 9ebb 40eb 893c
00000220: 5079 163c 7c73 46bc 2998 0b3d 4c1e 333c
00000230: 8792 0cbc 317a 9f3c 1c96 053d 8efb ed3b
00000240: 3100 12bd bebc 89ba 63f9 da3c 8124 44bc
00000250: eaef 5bbb e03e 4fbd 6439 ed3c 0601 06bd
00000260: afc3 00bc 4f22 c63b f384 b23a 6d07 8d3c
00000270: 9cb1 163d ee96 5d3b 7113 6dbc c7e1 503c
00000280: 38ce 7ebb 21cf e53c 3bd4 153c dc4a b03b
00000290: c0cb 23bd eb64 94bc f131 b03c 967f ea3c
000002a0: d828 f6bb 2340 0b3b 24e2 7c3c 5667 59bc
000002b0: 61bb 49bc 7d5d c1bc e25f 893c db60 3fbd
000002c0: 4fa7 ef3b 640b 453b 0553 83bc e9dc 393d
000002d0: f396 11bb 16d1 07bd 756a b03c 4fd7 48bb
000002e0: a0a4 d93c d87d 733c cc16 bdbc 61c5 72bb
000002f0: 9b2d 3a3d 4934 2fbd e5b2 273c 0370 8539
00000300: 4f4a 06bd 0c82 f6bc 6dc6 c63a 6866 463c
00000310: 9cf6 2fbd 7ccd 39bc d76f d33c 1122 85bd
00000320: 31d9 483c eaa9 213d bf88 adbb da4d ef3c
00000330: fddd 81bc 2f4a 2dbc 9262 75bc 24dd a13c
00000340: 551e 4a3c 5da3 4c39 64fb 353c 4686 babc
00000350: c417 82bb e0a5 39bd 9b87 dc3c b8f9 003d
00000360: 5a91 f73a a1cd 41bc 2789 53bc 0021 8bbc
00000370: d782 d93b 48f5 d23c 4d24 c2bb 23e7 033d
00000380: 4258 4dbc e32e 8dbb 6d9b 223d 04c2 c93c
00000390: f4c1 973c 1f87 7a3a c16b 74bb 3b20 133d
000003a0: c35a 0fbd db2c 333c 7873 d83b 665c 023d
000003b0: 5340 07bd e32c 293b d87a 303c 52d0 18bb
000003c0: 14dc a13c b97a aebc 6454 d63b 0ee6 153b
000003d0: d211 883c b8d2 3abd 29ef 0cbd da84 1abc
000003e0: 4216 e53c 1c92 003d dc62 453b acbd 8ebc
000003f0: 3ee8 7fbc 9069 f9bc 19d2 6d3b e0b3 07bd
-0.04056691 0.039180413 -0.025599796 -0.007908561 -0.011959425 0.018079326 -0.005896504 -0.020281637
0.124779366 0.092567354 0.0037121098 0.018622713 0.03249808 -0.0035944998 0.003564841 -0.010942421
0.011386304 0.0036628966 0.08050975 -0.0084002875 0.009900869 0.015211813 0.026048368 -0.063932985
0.036003754 0.06807633 0.0410187 0.04978609 -0.04296091 0.012819457 0.00929491 -0.04833366
0.0119244335 0.002131323 -0.005654803 -0.03502216 0.11209545 0.11479012 0.014351643 0.0030898768
0.0017865783 -0.035457194 -0.030493446 -0.029448707 0.003816173 -0.005340187 0.007024219 0.109286316
0.042076733 -0.008605052 0.031409185 0.023253197 0.09486906 -0.048976835 0.052621085 0.05517777
0.060108837 -0.029259222 0.011715225 0.029987013 -0.049482673 0.02759478 0.037131544 -0.014630706
0.061966516 -0.028286874 0.0044961204 0.01317422 -0.019613128 0.15005419 0.015561712 0.08914186
0.013429412 -0.021706084 0.045936294 -0.05296829 0.01595379 0.10814547 0.043355815 -0.014637791
-0.024331829 -0.06973176 0.096703485 0.04330901 -0.049343076 0.15534471 0.02876081 0.03689548
0.0792412 -0.009676338 0.08229935 0.00013576022 0.056245875 0.03615081 0.024235228 -0.030474616
-0.014369292 0.07161826 0.028753351 0.019817209 -0.031544063 -0.026154974 0.049113143 -0.015428153
0.06744156 0.014406704 0.01120572 0.032886706 -0.03923684 -0.015123754 0.051983364 0.07171044
0.057486765 0.110398635 -0.016362144 -0.026925525 0.035884593 -0.017200852 0.011961102 0.022779416
0.065051116 0.03198742 0.037876673 0.09305405 0.019158859 -0.05362391 -0.032590695 0.08538503
0.0058902614 0.054950003 0.03504568 0.0035003535 0.014275956 0.011582579 -0.004852247 0.016835809
0.009184197 -0.012112495 0.034080658 0.010932516 -0.008579857 0.019467445 0.03261386 0.0072626537
-0.035644714 -0.001050852 0.026730245 -0.011971594 -0.0033559748 -0.05059707 0.02895803 -0.03271582
-0.007859155 0.0060465704 0.0013619944 0.017215455 0.036790475 0.0033811885 -0.014469967 0.012749142
-0.003888024 0.028052868 0.009144838 0.0053800177 -0.039989233 -0.018114528 0.021508189 0.02862529
-0.007512193 0.0021247945 0.0154347755 -0.013269266 -0.012312741 -0.023604149 0.016769353 -0.046723228
0.007313646 0.0030066604 -0.016030798 0.045376692 -0.0022215217 -0.033158384 0.021535138 -0.0030645912
0.026567757 0.014861546 -0.02308216 -0.0037043917 0.04545365 -0.042774472 0.010235523 0.00025451192
-0.03278571 -0.030091308 0.0015165337 0.0121093765 -0.042959794 -0.011340495 0.025810165 -0.06500638
0.012258814 0.039468683 -0.0052958424 0.029211927 -0.015852923 -0.010576769 -0.014977114 0.019758768
0.012336333 0.00019515814 0.0111072995 -0.022769105 -0.0039701182 -0.045324206 0.02692013 0.03148815
0.0018887923 -0.011828811 -0.012911118 -0.016983509 0.006637912 0.025751725 -0.0059247375 0.03220285
-0.012533249 -0.004308568 0.039699007 0.024628647 0.018525101 0.0009556878 -0.0037295672 0.03591941
-0.034998666 0.010935987 0.006605562 0.0318264 -0.03302033 0.0025814108 0.010771476 -0.0023317528
0.019758262 -0.021298753 0.006540822 0.002287272 0.01661006 -0.045611113 -0.03440777 -0.009431088
0.027964715 0.03138934 0.003011874 -0.017424427 -0.015619336 -0.030445844 0.0036288558 -0.033130527

action_model._discrete_distribution.branches.1.bias f4 [9]
00000000: 7ae9 313d e1e2 c83b 64fe 613c cdc2 c43b
00000010: ae68 863c 5f20 b0bc cdae 84bb 9d8a c9bc
00000020: 2356 6d3b
0.04343555 0.0061305617 0.013793562 0.0060046674 0.016407337 -0.02149981 -0.004049158 -0.024602229
0.0036214672

action_model._discrete_distribution.branches.2.weight f4 [225, 128]
00000000: ad51 973c 7ed2 163c b16f 0cbb 766a 8b3c
00000010: e815 1b3d 93ef 2fbc a4fc 6b3c 0572 a43d
00000020: add2 24bc 545d 8c3d 138a bc3c fbec a73c
00000030: 3c30 3a3d c835 83bc 7eec 48bc daed b7bc
00000040: 0495 4f3d 86de 48bc 0512 54bd d0bb 3c3b
00000050: 1131 40ba eaf4 043d b570 47bc 2dd9 78bb
00000060: e779 0c3d f7a5 34bd deb1 203d 036f 093d
00000070: 9906 30ba 70a2 1e3d b536 7fbc 1308 6b3c
00000080: d071 843c 8139 5d3d 07bf 643c 264b 843d
00000090: 5d84 f3bc 18ba e8bc cca2 533c 7d41 fe3c
000000a0: 131e 953c 57c1 903c e38c 133d 72ab 493d
000000b0: 16c7 4bbb b6da 10bc 82db ab3c a40d e8bc
000000c0: dc94 4bbc 9ae6 d73c 7e04 44bb 5192 9e3c
000000d0: c0f6 6d3c a833 f4bc 8b9e 883b b16d 023c
000000e0: 7fb2 e0bc 1cca a73c 7e07 df3c 6050 cf3c
000000f0: 1f12 76bc 49e5 813c 4804 af3c 4a0f 0c3c
00000100: f3f0 63bd c186 933c 3501 323c 9fb1 9dbb
00000110: aa78 4d3c 3f7d 903c 0ab6 3e3d 3633 aabb
00000120: c055 3f3b 7e3e 4e3d 6ac4 5bbd 6ab6 4e3d
00000130: b80e 943b d99a b5bc 3251 29bd 2ff6 c33c
00000140: 39fe cf3c ed1e cd3c 6715 8eba 44c3 803b
00000150: d8e3 293d 211a 893c 020a 453d d3a2 d13b
00000160: b157 7abc 999f d83c c074 0f3d f7eb 8bbb
00000170: 5367 433d 3593 813c 6376 e03c 601e 81bc
00000180: 01e4 623d 9073 143b cb75 ca3c f174 cd3b
00000190: 8805 6c3d 171b 053d cfe8 9cba 6829 223c
000001a0: b1ee 223c 57da 5fbc 04bf a3bc 1725 39bc
000001b0: a538 573d 5101 a13c c4dd 16bc dd5d 86bc
000001c0: 57b2 cb3c 033b 29bd 5f05 e63c 9570 ea3c
000001d0: a43d 3f3d 46fa a23d e735 ba38 d92c 733d
000001e0: 6402 0b3c 93d0 4d3b 0332 d53c b6e9 17bd
000001f0: a10d 9a3c d384 59bc 645c 0f3d 4b1b 7ebc
00000200: 2e9c 343b c6ed 49bc 4d46 813c c30b b83a
00000210: c3ff 4b3c 821d 4fbc 0123 583b 1cf2 bdbb
00000220: 164a fbbc 92f6 ffbc 31fc 87bc e1e0 6c3a
00000230: d64b 2ebd 36d3 dfbc b67e a43c c76e d03c
00000240: a8bb cf3c a351 dc3c 9f3a b1bb 0914 efbc
00000250: f2aa 77bb 614a 1fbd 53e1 b0ba 0546 613b
00000260: 8a2a 37bd 69e0 aebb 6a86 bebc 7d30 dbbc
00000270: 5462 383d fcb2 243b e1a4 6bbb 2aff 563b
00000280: 93be 00bd f30f 6c3c d15c 97bc b996 a3ba
00000290: 2046 edbc 63f5 5dbd e25e ae3c 0526 1f3d
000002a0: 7af7 893c 94e4 f0bc b640 093d d522 e9bc
000002b0: 0656 923c 2028 ca3c 8969 e6bc 630e 12bd
000002c0: d06e 883c df12 cebb 7f4c 11bd 7217 98bc
000002d0: 39d9 83ba 7f3a 873b 8269 26bd 43f7 11bd
000002e0: 083d 36b9 32bd b63b 664c 283c bbc2 7bbc
000002f0: 6240 52bc 96c4 4fbc b5b9 8fbb cb39 ecb9
00000300: afe4 6ebc 47fa 59bc c382 d8bb 2185 a1bc
00000310: c874 a33b 7236 53bd fff0 4bbd c2a8 b9bc
00000320: 44df b3bb ec43 a7bb 7af3 7b3b 59e6 0f3d
00000330: 964b bcbc d394 56bc 9490 5a38 5605 3fbc
00000340: 0fb0 a63c c89a d63a 5d1c 3abc c220 62b9
00000350: e3b9 ec3c a823 79bc 45c1 3ebc 62fb 303a
00000360: fac4 18bd 051c f23c 70d4 abbc d503 1e3b
00000370: 048b 20bd eb08 003c 60b2 f6bc f379 113c
00000380: e8ad aebb b72e 2abb 66b0 033d 1ddc 06bc
00000390: 5a78 523c 265e 52bb 7472 d63c b314 3fbc
000003a0: 41de f4bb 0bc6 bb3b c102 f1bc eab9 cfbc
000003b0: 3b6f d6bb 3c2f 58bc d03f 483c f3a5 99bc
000003c0: ba2c b9bc 01d3 373b 1bc5 653c 62ab 3b3b
000003d0: 3efe 03bd ff30 97bd 2b0e 043c 19f6 0f3b
000003e0: c880 82bd e92f f8bc 0326 1dbd 8abb 05bc
000003f0: 876d 69bc 65f8 7bbc f916 e8ba 1084 27bc
0.018471563 0.009205459 -0.0021428878 0.017018538 0.03786269 -0.010738271 0.014403496 0.0802956
-0.010059995 0.068537384 0.023015058 0.020498743 0.045456156 -0.016016856 -0.012263415 -0.022452284
0.05067922 -0.012260085 -0.051774997 0.0028798468 -0.000733153 0.03246013 -0.012172868 -0.0037971244
0.034295943 -0.04410359 0.039232127 0.033553135 -0.00067148503 0.03872913 -0.015577008 0.014345187
0.016167551 0.054009918 0.01396156 0.06459646 -0.029726202 -0.028409049 0.012917232 0.031037087
0.018202817 0.017670317 0.036023032 0.04923577 -0.0031094006 -0.008841207 0.020978693 -0.028326817
-0.012425628 0.026355077 -0.0029909904 0.019356878 0.014524162 -0.029809788 0.0041692904 0.007960723
-0.027428864 0.020482115 0.027225252 0.02530688 -0.015018969 0.015856402 0.021364346 0.008548567
-0.05564971 0.018008592 0.010864546 -0.004812434 0.012540976 0.017637847 0.046560325 -0.005194093
0.0029195398 0.050352566 -0.053654112 0.050466932 0.004518356 -0.022168564 -0.0413372 0.0239211
0.025389777 0.02503916 -0.0010840119 0.0039295275 0.041477054 0.016736092 0.048105247 0.006397584
-0.015279696 0.02644329 0.03502345 -0.0042700726 0.04770596 0.015817264 0.027400201 -0.015761554
0.055393223 0.0022651888 0.024714371 0.006270044 0.057622463 0.032496538 -0.0011971238 0.009897567
0.009944604 -0.013662896 -0.019988544 -0.011300347 0.052544255 0.019653948 -0.0092081465 -0.01640218
0.024865313 -0.041316044 0.028078733 0.028618136 0.046689644 0.07957892 8.879211e-05 0.059368942
0.008484457 0.0031404838 0.026024824 -0.03708812 0.018805327 -0.013276297 0.03500022 -0.015509437
0.002755891 -0.012324756 0.015780592 0.0014041591 0.012451115 -0.012641313 0.0032979848 -0.005796684
-0.030674975 -0.031245504 -0.016599746 0.0009036195 -0.04255279 -0.027322393 0.020079952 0.025443448
0.025358036 0.026894396 -0.0054085995 -0.029184358 -0.00377911 -0.038889293 -0.0013494886 0.003437401
-0.044718303 -0.0053368104 -0.023257453 -0.02675652 0.045015648 0.0025131097 -0.003595643 0.0032805898
-0.031431746 0.014408099 -0.018476875 -0.0012480832 -0.028964102 -0.054189097 0.021285478 0.038854618
0.016841639 -0.02940587 0.03350898 -0.028458992 0.017863285 0.024677336 -0.028126495 -0.03565825
0.016654402 -0.0062888707 -0.035473343 -0.018565867 -0.0010059244 0.0041268463 -0.040627964 -0.035636198
-0.00017379608 0.005576753 0.010272121 -0.015366252 -0.012832733 -0.012681147 -0.0043861517 -0.00045056487
-0.01458089 -0.0133043 -0.006607385 -0.019716801 0.0049882866 -0.051565595 -0.04979038 -0.022663478
-0.005489262 -0.0051045325 0.0038444684 0.035131786 -0.022985261 -0.013097006 5.21099e-05 -0.011658987
0.020347623 0.0016373033 -0.011359301 -0.00021565243 0.028897231 -0.015206255 -0.011642759 0.0006751326
-0.037297226 0.029554376 -0.020975322 0.002411117 -0.039195076 0.007814626 -0.030114353 0.008879173
-0.00533079 -0.0025967786 0.03215065 -0.00823119 0.012846077 -0.0032099574 0.026177622 -0.01166265
-0.007472784 0.0057303957 -0.029420258 -0.025357205 -0.0065440214 -0.013194855 0.012222245 -0.018755889
-0.022604335 0.0028049352 0.014024044 0.0028636088 -0.032224886 -0.07382392 0.0080600185 0.0021966754
-0.06372219 -0.030296283 -0.03836633 -0.008162389 -0.014247305 -0.015379046 -0.0017707042 -0.010224357

action_model._discrete_distribution.branches.2.bias f4 [225]
00000000: 21f4 bdb9 c90f 51bc 5e32 ab3b 4f4b 7dbc
00000010: 62cc ab3c 49c7 953c f405 54bc 9a49 ea3c
00000020: 8087 ad3c 6c60 9c3c 3fc8 683c 2461 823c
00000030: 6057 263d 0add 11bd 912a 2a3c 43a0 193c
00000040: 3211 07bd e603 8e3c ee4f ae3c 4a67 02bd
00000050: 556c 6cbb 78d1 4a3d c653 583d acda d23c
00000060: c019 0d3d 3ba4 c0bb 6806 613c 1fc7 8c3a
00000070: 8129 333c 022c 533c 91ce 6cbc 2532 b73c
00000080: c786 3fbc e951 273b 6baf 173c 48cc e2bc
00000090: bafc babb 5657 b33c 22d8 f53b c03c d1bb
000000a0: 47e0 653d 8201 823c ef8f 38bc 3137 ab3c
000000b0: 9645 8d3c 1068 33ba 3538 59bc f83e 2d3d
000000c0: 1ca6 523c d1cb 0bbb 28b4 f1ba 966c 64bc
000000d0: 7ba7 a03c 41d0 103d 1cab a13a 0b8e d63c
000000e0: 1d5d 45bc c1fa 10bc ff5d c4bb 21dc 10bb
000000f0: 245a b73c 0073 5d3c d37c af3c 88a7 45bc
00000100: 063a e43b 4acc 3dbc 4ea2 263c 2b00 4e3d
00000110: 3d31 3a3d 2b65 7f39 9e0a ba3a 8f81 ab3b
00000120: 1ab1 88bc 5139 d03b bf28 f73b deff 9e3b
00000130: 6c92 01bc 8623 54bd e1fb ed3c be2a f43b
00000140: ddba c83c 8c84 783c 4cd8 743c 6f24 3e3c
00000150: bbfc a0bb 1012 453c 93a8 4d3c 663c 08bc
00000160: 5805 5bbc 57fb 013c d01a d23c 2138 ad3b
00000170: 9518 a13c 2f60 dcb7 e98a 59bd 4ae3 223c
00000180: 4007 ad3c 2408 6e3c a4ac 5c39 593a b33c
00000190: 6c41 0b3b 12f0 c23c ce78 af3c 6928 8c3b
000001a0: 7f02 22bc 2634 123d 7cb7 d03c 1710 d53c
000001b0: 2db1 e83c 2e1e ec3c 2b13 82bc d2b2 6e3c
000001c0: bd56 ea3c 238e 9a3c adae 023d 6b41 9b3b
000001d0: c96e d13b a909 443c b0f6 33bd 9630 f93c
000001e0: a5a1 c6bc 4cd8 903c 078d 243d 260c 5c3c
000001f0: 7491 903c bbce be3c 0eb9 f7bb 5ae8 773c
00000200: b450 443c a753 73bc 5920 8b3c 545f f9bc
00000210: 222a 323d 40b9 a6bc d699 bf3c 8410 983c
00000220: 311f 7dbb a1af 953c c889 833c 56be c33c
00000230: dad0 ee3c 101d 07bc 9aa6 633d 09fa b23b
00000240: a1b2 60ba ac70 9e3c a1b2 95bc edbc 75bc
00000250: 83c7 e0b7 cfa7 4ebc e30d b63b d4f2 663c
00000260: dcc8 3f3c 796a fe3c 5ef2 7d3b 5f28 eb3a
00000270: 954a 7b3c b22b e23c 04ea b3bc b396 b23b
00000280: 4199 633c a4f1 53bb 4643 853c 7a55 fe3c
00000290: 3813 ac3b 149d e8bc 4b6b cb3c fb30 a13c
000002a0: 89a3 053d 5bd1 64bc 2672 f63c a192 f43b
000002b0: bead 963c 58f1 50ba 65b2 49bb 051c 1d3b
000002c0: 311c 49bc 5218 a43b 2edd 623b 99a0 c2bb
000002d0: fe5a 0f3d c9e8 853b 0f62 8c3c 8eb7 013d
000002e0: 2ed7 a83a dd7e f03c 573f 553c c973 a33b
000002f0: ca35 10bd ea70 ff3b a084 483b 2e83 7539
00000300: bff7 473c 62b6 d13c fa98 1d3d 3445 45bc
00000310: 3336 2f3b e58b 463d 88f7 083b 480e 20bc
00000320: 22b9 babb a332 df39 2241 b33b fd45 b3bb
00000330: 95b0 29b8 065e 303c ed54 543c 99cd 3d3c
00000340: 8984 aebb 1f7a ea3b 2657 ca3c 2fc9 e33b
00000350: 65ab 043b e7c6 84bc d59b 143c 3c21 c93c
00000360: d921 2dbc e633 ec3b 8d44 d83c 2439 473c
00000370: c507 74bc 1a1f e5bc f3af 593b 2e75 963a
00000380: e9e0 5b3a
-0.0003623078 -0.012760111 0.00522451 -0.0154598495 0.02097148 0.018283503 -0.012940872 0.02859955
0.021182775 0.019088946 0.014207899 0.01591546 0.04061067 -0.03561119 0.010386125 0.009376588
-0.032975383 0.017335843 0.021278348 -0.031836785 -0.0036075313 0.04951617 0.052814268 0.025739037
0.034448385 -0.005878953 0.0137344375 0.0010740495 0.010935188 0.01288891 -0.014453546 0.022362778
-0.011689848 0.0025531 0.0092581315 -0.0276853 -0.005706397 0.021892231 0.0075025717 -0.006385416
0.05612209 0.01586986 -0.011264785 0.02090034 0.017245095 -0.00068438146 -0.01325803 0.04229638
0.012856986 -0.00213312 -0.0018440532 -0.0139419045 0.01961111 0.035354856 0.001233432 0.026190778
-0.012046126 -0.008848847 -0.0059926505 -0.0022103863 0.02238185 0.013516188 0.021421826 -0.012063868
0.0069649247 -0.011584351 0.010170532 0.05029313 0.045457114 0.00024356383 0.0014193838 0.0052339504
-0.016686011 0.006354489 0.007542699 0.004852279 -0.007908445 -0.05179169 0.02905077 0.0074513843
0.024503166 0.01516832 0.014944147 0.011605366 -0.0049129403 0.012028232 0.012552398 -0.008315181
-0.013367973 0.007933459 0.02564755 0.005286232 0.019665042 -2.6270833e-05 -0.05311099 0.009941885
0.021121621 0.014528308 0.00021045149 0.021878408 0.0021248711 0.023796115 0.021419909 0.004277278
-0.00988829 0.035694264 0.025478117 0.026008649 0.028404796 0.028822985 -0.01587828 0.014569001
0.028605813 0.018866604 0.031904865 0.004738023 0.0063913804 0.011965194 -0.04393643 0.030418675
-0.024247 0.017681263 0.040173557 0.013430631 0.017647482 0.023291936 -0.007559902 0.0151310805
0.011982132 -0.014851487 0.016983198 -0.030440964 0.043497212 -0.020352006 0.023388784 0.018562563
-0.0038623328 0.018272223 0.01605691 0.02389447 0.029152323 -0.008246675 0.055578806 0.0054619354
-0.00085715397 0.019340836 -0.018273653 -0.014998657 -2.6795786e-05 -0.012613251 0.0055558546 0.014095981
0.011705603 0.03105663 0.0038749198 0.0017941109 0.015337606 0.027608726 -0.021962173 0.0054500937
0.013891519 -0.0032340074 0.01626743 0.031046618 0.0052513145 -0.028395213 0.024831435 0.019676676
0.032626662 -0.01396593 0.030083727 0.0074637686 0.018393394 -0.00079705333 -0.0030776497 0.0023973
-0.012274788 0.005007782 0.0034616697 -0.005939555 0.034998886 0.004086588 0.017136602 0.031669192
0.0012881511 0.029357368 0.01301559 0.004988168 -0.035207547 0.007795443 0.0030596629 0.00023413889
0.012205063 0.025599662 0.038475968 -0.012040425 0.0026735186 0.048473258 0.0020899493 -0.00976903
-0.005698339 0.00042571602 0.005470411 -0.0054709897 -4.0457195e-05 0.010764604 0.012959701 0.011584663
-0.005325858 0.0071556713 0.024699759 0.006951473 0.002024376 -0.016208125 0.009070356 0.02455198
-0.010567152 0.007208335 0.026399875 0.0121596195 -0.0148944305 -0.027968932 0.0033216446 0.0011479014
0.0008387701
