Experiments/Results/Experiment_2/AttackerBehavior.onnx (onnx, 208734 bytes, 11 tensors)

discrete_act_size_vector f4 [1, 2]
0	0x40400000	3.0
1	0x41100000	9.0

network_body.observation_encoder.processors.0.normalizer.running_mean f4 [246]
0	0x3fad20db	1.3525652
1	0x3f9ea0f8	1.2392874
2	0x3f90254a	1.126138
3	0x3fa55e71	1.2919446
4	0x3f893ae1	1.0721093
5	0x40b5cb1f	5.681045
6	0x3fbc0274	1.4688249
7	0x3fc62745	1.5480734
8	0x3fa61c7d	1.2977444
9	0x3fa0b787	1.2556008
10	0x3fe584bc	1.7931132
11	0x402682c9	2.6017325
12	0x3f8b37e2	1.0876429
13	0x3fbbdac7	1.467614
14	0x3f9e0275	1.23445
15	0x3fce4b12	1.611666
16	0x40a1148b	5.0337577
17	0x3ffffea6	1.9999588
18	0x3ffffea6	1.9999588
19	0x3fac80cc	1.3476806
20	0x3fa418d4	1.2820077
21	0x3f950fd2	1.1645453
22	0x3ffffea6	1.9999588
23	0x3ffffea6	1.9999588
24	0x3ffffea6	1.9999588
25	0x3ffffea6	1.9999588
26	0x4017bbb0	2.3708305
27	0x3f9e0f7c	1.2348475
28	0x3fab9428	1.3404589
29	0x3f9b8876	1.215102
30	0x3f95663c	1.1671824
31	0x3fc62c86	1.5482337
32	0x3ffffea6	1.9999588
33	0x3ffffea6	1.9999588
34	0x402449bf	2.567001
35	0x3fb63082	1.4233553
36	0x3fc15a4e	1.5105684
37	0x3ffffea6	1.9999588
38	0x3fc937a2	1.5720103
39	0x3fca71e0	1.5816002
40	0x3ffffea6	1.9999588
41	0x3f9aeeaf	1.210409
42	0x3f9b60e2	1.2138941
43	0x3f9b4812	1.2131369
44	0x3f9654d6	1.174464
45	0x3fb15e4a	1.38569
46	0x3ffa041b	1.9532503
47	0x3ffffea6	1.9999588
48	0x3ffffea6	1.9999588
49	0x4051ae8b	3.2762783
50	0x4066bbde	3.6052165
51	0x401021fb	2.252074
52	0x3ffffea6	1.9999588
53	0x40833952	4.100747
54	0x3fe7d372	1.8111403
55	0x3ffffea6	1.9999588
56	0x3fcc6a55	1.596995
57	0x3fb5a294	1.419024
58	0x3f9cd2bd	1.2251812
59	0x3f952280	1.1651154
60	0x3facd5f1	1.350279
61	0x3fc6e72a	1.5539296
62	0x3ffffea6	1.9999588
63	0x3ffffea6	1.9999588
64	0x3f84dd6f	1.0380076
65	0x3fbb2019	1.461917
66	0x3f8b3e31	1.0878354
67	0x3ffffea6	1.9999588
68	0x3f990fee	1.1957986
69	0x3f8a5658	1.08076
70	0x3ffffea6	1.9999588
71	0x3fa0104d	1.2504975
72	0x400c755c	2.194663
73	0x3fb39b38	1.4031744
74	0x3f94002d	1.1562554
75	0x3faad2f4	1.3345628
76	0x40d2ee8f	6.591621
77	0x3ffffea6	1.9999588
78	0x3ffffea6	1.9999588
79	0x3fb9cf73	1.4516433
80	0x3fa7a93d	1.3098522
81	0x3fc100a1	1.5078317
82	0x3ffffea6	1.9999588
83	0x3ff7575d	1.9323536
84	0x3fb648a4	1.4240918
85	0x3ffffea6	1.9999588
86	0x3fa39459	1.2779647
87	0x3f989e02	1.192322
88	0x3fad089b	1.3518251
89	0x3f970c5e	1.1800649
90	0x40ef9f7d	7.488219
91	0x3fb12a9d	1.384113
92	0x3ffffea6	1.9999588
93	0x3ffffea6	1.9999588
94	0x3fd4497f	1.6584929
95	0x3fa44f20	1.2836647
96	0x3f85fdfe	1.0468137
97	0x3ffffea6	1.9999588
98	0x3fb9d966	1.451947
99	0x3f9d7908	1.2302561
100	0x3ffffea6	1.9999588
101	0x3ffffea6	1.9999588
102	0x3ffffea6	1.9999588
103	0x407ffea6	3.9999175
104	0x3f9908df	1.1955832
105	0x3fa09e10	1.2548237
106	0x403ffed4	2.9999285
107	0x3ffffea6	1.9999588
108	0x3ffffea6	1.9999588
109	0x3f918e37	1.1371526
110	0x3f9a3496	1.2047298
111	0x3f930730	1.1486568
112	0x3ffffea6	1.9999588
113	0x3fca0e9a	1.5785706
114	0x401ac5c6	2.4183211
115	0x3f9a95cd	1.2076966
116	0x3f8fb751	1.1227819
117	0x3fa301b6	1.2734897
118	0x3f976ac0	1.1829453
119	0x3fb35a9d	1.4012028
120	0x4049bfad	3.152324
121	0x3ffffea6	1.9999588
122	0x3ffffea6	1.9999588
123	0x3ffffea6	1.9999588
124	0x3fcd73b8	1.605094
125	0x3fae57e9	1.3620578
126	0x3fc0de7f	1.50679
127	0x3ffffea6	1.9999588
128	0x3fa3d14c	1.2798247
129	0x3f9bbfa1	1.2167856
130	0x3fe5f8df	1.7966574
131	0x3fbdea9e	1.4837224
132	0x3fd9c0f9	1.7012016
133	0x3f937f64	1.1523252
134	0x3f8c4883	1.0959629
135	0x40c70265	6.2190423
136	0x3ffffea6	1.9999588
137	0x3ffffea6	1.9999588
138	0x3ffffea6	1.9999588
139	0x40b15ae1	5.5423436
140	0x3f99e878	1.2024069
141	0x3f9b0deb	1.2113622
142	0x3ffffea6	1.9999588
143	0x4032b796	2.7924552
144	0x3f968e2f	1.1762141
145	0x3f9dc951	1.2327062
146	0x3f9a75bf	1.2067183
147	0x3fa1c1ea	1.2637303
148	0x3f8e54b3	1.1119598
149	0x3f9d5d75	1.2294146
150	0x3f949e9d	1.1610905
151	0x3ffffea6	1.9999588
152	0x3ffffea6	1.9999588
153	0x3ffffea6	1.9999588
154	0x400e2e61	2.2215807
155	0x3f9714f3	1.1803268
156	0x3fd26138	1.6435919
157	0x3ffffea6	1.9999588
158	0x3fdda23b	1.7315134
159	0x3fbcc198	1.474658
160	0x3f972d8c	1.1810775
161	0x3fa32abc	1.2747416
162	0x3fb3c0d2	1.4043219
163	0x3f97103d	1.180183
164	0x3f92fea4	1.148396
165	0x3f999532	1.1998656
166	0x3ffffea6	1.9999588
167	0x3ffffea6	1.9999588
168	0x3ffffea6	1.9999588
169	0x3f8ca3f8	1.0987539
170	0x3fd13935	1.6345583
171	0x3f953a65	1.1658446
172	0x3ffffea6	1.9999588
173	0x40296356	2.646688
174	0x3f8a9317	1.0826138
175	0x3faf76f0	1.3708172
176	0x3f9ff8b9	1.2497779
177	0x3f9d3bec	1.2283912
178	0x3fb9c742	1.4513934
179	0x3fa6c3a9	1.3028461
180	0x40071200	2.1104736
181	0x3f9d9fcd	1.2314392
182	0x40bf6587	5.9811435
183	0x3ffffea6	1.9999588
184	0x3fadcd6e	1.3578317
185	0x3f9ed863	1.2409786
186	0x3f8e85d9	1.1134597
187	0x3ffffea6	1.9999588
188	0x3f9bcf77	1.2172688
189	0x3fa1ba3b	1.2634958
190	0x3f8a8823	1.0822796
191	0x3f8f28f2	1.118437
192	0x3fa8ccb6	1.3187473
193	0x3fcb4cba	1.588279
194	0x3f990601	1.1954957
195	0x3fa8dabb	1.3191751
196	0x3fad4d74	1.3539262
197	0x40b3b250	5.6155167
198	0x3ffffea6	1.9999588
199	0x3ffffea6	1.9999588
200	0x3ffffea6	1.9999588
201	0x3ffffea6	1.9999588
202	0x3ffffea6	1.9999588
203	0x3fc061f5	1.5029894
204	0x400ec534	2.2307863
205	0x3f90f13d	1.132362
206	0x3f9baf90	1.2162952
207	0x3f9f185d	1.242931
208	0x3f8ca9d3	1.0989326
209	0x3f8de98d	1.1086899
210	0x3fc41eeb	1.5321935
211	0x3f91d0b6	1.1391819
212	0x3f882937	1.0637578
213	0x3ffc3e1a	1.9706452
214	0x3f867e77	1.0507344
215	0x3f86b84d	1.0524994
216	0x4011492a	2.2700906
217	0x3f99c3d4	1.2012887
218	0x3f928d0d	1.1449295
219	0x3f948860	1.1604118
220	0x3ff74837	1.9318913
221	0x3f901cce	1.125879
222	0x3fa986a7	1.3244218
223	0x3f998351	1.19932
224	0x3fb08277	1.3789815
225	0x3d9da0d6	0.07696693
226	0x3e3a3c69	0.18187107
227	0x3eaff82e	0.34369034
228	0x3e6939b9	0.22775926
229	0x3ed0ec31	0.408052
230	0x3ee53be6	0.4477226
231	0x3e5c1b6d	0.21494837
232	0x3f817513	1.0113853
233	0x3e7aa7f1	0.24478127
234	0x3fba9c40	1.4578934
235	0x3fade1d1	1.3584539
236	0x3fd5920c	1.6685195
237	0x3e987d0b	0.297829
238	0x3e9d246e	0.30691856
239	0x3ed1c622	0.40971476
240	0x3ded624c	0.11591014
241	0x3eb05dbf	0.34446523
242	0x3dea1c3f	0.11431169
243	0x3ca37a8f	0.019955901
244	0x3e2615ef	0.16219305
245	0x3f34cfa4	0.70629334

network_body._body_endoder.seq_layers.0.weight f4 [128, 246]
0	0xbdeae44c	-0.114693254
1	0xbd083127	-0.03325
2	0xbdcf1c76	-0.1011285
3	0x3e13200b	0.14367692
4	0x3e21f33c	0.15815443
5	0x3d9f02b6	0.07764189
6	0x3bf5d3ef	0.007502071
7	0xbb854f9a	-0.004068327
8	0x3ce85948	0.028362885
9	0x3c38cf5a	0.011279905
10	0x3da4ffca	0.080566004
11	0xbd95a2f4	-0.073064715
12	0x3d9d7b68	0.076895535
13	0xbe14fd16	-0.1454967
14	0x3d1d53db	0.03841005
15	0x3e08b2f6	0.13349518
16	0x3d611514	0.054951742
17	0x3cbe6c2f	0.023244945
18	0xbd059e3d	-0.03262161
19	0x3d88ccdb	0.06679698
20	0xbd9ea83c	-0.07746932
21	0xbc057443	-0.008145395
22	0x3d046b0b	0.032328647
23	0x3d1a2ddb	0.037641387
24	0x3c655443	0.01399714
25	0x3e03bf4d	0.12865944
26	0xbdece0f4	-0.11566344
27	0x3d45f88a	0.04833273
28	0xbd0c3bc7	-0.034236696
29	0x3d86422b	0.06555589
30	0x3d9d0569	0.076670475
31	0xbcd4e212	-0.025986705
32	0x3d398db5	0.045301158
33	0x3e020ca1	0.1270013
34	0xbd1e1e61	-0.03860319
35	0xbdd75c0a	-0.10515602
36	0x3cc12203	0.023575788
37	0xbd9d8fb2	-0.07693423
38	0x3b863d7b	0.0040966845
39	0xbe0a4646	-0.1350337
40	0x3d83c8f8	0.06434816
41	0x3dd3753e	0.103250965
42	0xbd3709eb	-0.044687193
43	0xbcc96247	-0.024582995
44	0x3c1c2458	0.009530149
45	0xbe04c238	-0.12964714
46	0x3d389557	0.045064297
47	0x3b0baa62	0.0021311273
48	0x3d4928e7	0.049111273
49	0xbe0eebd2	-0.13957146
50	0xbd277279	-0.040880654
51	0x3bc01c8a	0.005862777
52	0x3a53c91c	0.0008078979
53	0x3d861440	0.06546831
54	0xbde3beae	-0.11120354
55	0x3d64297b	0.05570362
56	0x3dd5731f	0.10422348
57	0x3ddd4ae2	0.108052984
58	0xba9bd6c9	-0.0011889572
59	0x3d50b61e	0.05095493
60	0x3e257903	0.16159444
61	0x3ccea742	0.02522624
62	0x3d7a61cc	0.061128423
63	0x3d496b45	0.049174566
64	0x3c22abc3	0.0099286465
65	0xbc82ec48	-0.015981808
66	0x3a2fc287	0.0006704707
67	0xbd79660f	-0.060888346
68	0x3d9b7447	0.075905375
69	0x3be77ac4	0.0070641953
70	0x3de42fd4	0.11141935
71	0x3dfa05b5	0.1220812
72	0xbc6af489	-0.014340528
73	0x3cd4a7b7	0.025958879
74	0xbc990f04	-0.018683918
75	0x3c9675b3	0.01836667
76	0x3d00c9fa	0.03144262
77	0xbcaddbc2	-0.021222953
78	0xbcb5105d	-0.02210253
79	0xbe00497a	-0.12528029
80	0xbd380c07	-0.044933345
81	0xbdc83289	-0.09775264
82	0xbceb8dfd	-0.028754229
83	0xbd37052a	-0.04468266
84	0xbd9c704c	-0.076386064
85	0x3c8e7b47	0.017392768
86	0xb9f349db	-0.00046403598
87	0x3d5e8090	0.054321826
88	0x3c9ad559	0.01890056
89	0x3d850824	0.06495693
90	0x3d9478dd	0.07249615
91	0x3c811c49	0.015760558
92	0xbdb39c24	-0.08770016
93	0x3d7a1c87	0.061062362
94	0x3ba027ef	0.004887573
95	0x3e04faaf	0.12986253
96	0x3dab850b	0.08374985
97	0x3d13d005	0.036087055
98	0xbda8548a	-0.082192495
99	0x3dda8c03	0.10671236
100	0x3cf443ce	0.029817488
101	0xbd156685	-0.036474723
102	0x3d9d79d6	0.07689254
103	0xbd5a299f	-0.05326235
104	0xbd2a7759	-0.041617725
105	0x3da37e02	0.079830185
106	0x3d335fc9	0.04379252
107	0x3de0ee9a	0.1098301
108	0x3d558a05	0.05213358
109	0x3db16c16	0.08663194
110	0xbe09a1cc	-0.13440627
111	0xbd9ab7ad	-0.075545646
112	0x3cfe17c9	0.031017201
113	0xbdbf1dd7	-0.093318634
114	0xbda65af5	-0.081228174
115	0xbd4ba0dd	-0.049713958
116	0x3c225e1f	0.0099101355
117	0xbdee508f	-0.11636459
118	0x3dc4b26f	0.09604346
119	0x3d64e9ab	0.055886906
120	0x3d35767f	0.04430246
121	0x3da8fe96	0.082516834
122	0x3df68524	0.12037113
123	0x3d1957fd	0.037437428
124	0xbc660cf6	-0.014041176
125	0x3d0fc632	0.035101123
126	0xbd27158b	-0.04079203
127	0xbbba7c88	-0.005691115
128	0xbc57412b	-0.013138096
129	0x3d449d10	0.04800135
130	0x3d761f6f	0.06008857
131	0xbdc224d0	-0.09479678
132	0x39c30b40	0.0003720168
133	0x3cb8b08c	0.022545122
134	0xbd50ad9d	-0.05094682
135	0x3d2aa418	0.0416604
136	0x3d744109	0.059632335
137	0x3ddc7aaa	0.10765584
138	0x3ae71058	0.0017628772
139	0xbd60be52	-0.054869004
140	0x3c9a530a	0.018838424
141	0xbd414b39	-0.04719088
142	0x3d865612	0.06559385
143	0xbe375708	-0.17904294
144	0x3e054eed	0.13018389
145	0xbd8f77de	-0.07005285
146	0xba5f4067	-0.00085163716
147	0x3d3a0bc9	0.045421395
148	0xbe0b9d81	-0.13634302
149	0xbdde90ce	-0.10867463
150	0x3db2905c	0.087189406
151	0x3b59f1f6	0.0033255792
152	0x3d4779c3	0.048700105
153	0x3d4bcdcd	0.049756814
154	0x3d384b7f	0.044993874
155	0xbc7c2a7a	-0.015390987
156	0xbbd6d479	-0.0065560904
157	0x3d68b633	0.056814384
158	0x3c9c3fa4	0.019073315
159	0xbd83b273	-0.06430521
160	0xbd014cc7	-0.03156736
161	0xbe0ad983	-0.13559537
162	0xbda2f185	-0.079562224
163	0x3da4573d	0.08024452
164	0xbb58f984	-0.0033107707
165	0x3dcfb883	0.10142615
166	0x3d0f4a9d	0.034983266
167	0x3d2621cf	0.040559586
168	0x3dd466c4	0.103711635
169	0x3c4f1395	0.012638946
170	0xbba911fb	-0.005159614
171	0x3dbab745	0.09116987
172	0x3c7a4fba	0.015277797
173	0x3d072a4c	0.03299932
174	0x3d2e16d5	0.042502243
175	0x3d66118b	0.056169074
176	0x3db3ef0d	0.0878583
177	0xbd906991	-0.07051385
178	0x3d2a38ec	0.04155819
179	0x3d7c6f9b	0.061629873
180	0xbcfbed1e	-0.030752715
181	0x3ba63745	0.0050725066
182	0x3e0ec5c8	0.13942635
183	0xbce4df27	-0.027938439
184	0x3cb77a05	0.02239705
185	0xbc6eb50e	-0.014569534
186	0xbceb8e01	-0.028754236
187	0x3cac1839	0.021007644
188	0xbd3e34db	-0.046437126
189	0x3de49025	0.11160306
190	0x3ac3446e	0.0014897713
191	0xbdcea1c1	-0.10089446
192	0xbaab93b2	-0.0013090281
193	0xbc862103	-0.016373163
194	0x3d33cbe7	0.04389563
195	0x3dac456b	0.08411678
196	0x3c99f045	0.018791327
197	0xbca48ec9	-0.020087617
198	0x3cfd87c8	0.030948535
199	0xbb8c973d	-0.00429049
200	0x3dc00e8c	0.093777746
201	0x3d51754b	0.05113725
202	0xbc8917d8	-0.016735002
203	0x3d53d1cd	0.051713753
204	0xbd80f478	-0.06296629
205	0xbd8f9946	-0.070116565
206	0x3db0813b	0.08618399
207	0xbd8b123f	-0.067905895
208	0xbe0baf05	-0.13640983
209	0x3c8822a5	0.016618082
210	0x3d18595e	0.037194602
211	0xbd6210d4	-0.05519183
212	0xbe30cdfe	-0.1726608
213	0xbe6eebac	-0.23332089
214	0xbca1c61e	-0.01974779
215	0x3d8c6f97	0.068572216
216	0xbd2b69e8	-0.041849047
217	0xbdab4143	-0.08362057
218	0xbe600ef6	-0.21880707
219	0xbd9ac20d	-0.075565435
220	0xbb6e62c9	-0.0036374799
221	0x3b91eef4	0.0044535343
222	0xbd15c895	-0.036568243
223	0xbd612bc7	-0.05497339
224	0xbbce8e2b	-0.006303569
225	0x3c937c21	0.018003525
226	0x3b7dbda9	0.0038717783
227	0x3e17ca65	0.14823301
228	0x3c18cd28	0.009326257
229	0xbd3643c0	-0.044498205
230	0x3e534dcd	0.20635147
231	0xbd8f88ab	-0.07008489
232	0x3d15d173	0.0365767
233	0x3d5b90f5	0.05360504
234	0xbdcb5bc6	-0.09929614
235	0xbdbde3e7	-0.092719845
236	0x3d1f4ef2	0.038893647
237	0x3dc78608	0.09742361
238	0xbdeaaa81	-0.11458302
239	0x3d25cd74	0.04047914
240	0x3e074c17	0.1321262
241	0x3e458a97	0.19291149
242	0x3dd7e482	0.10541631
243	0xbe04066f	-0.12893079
244	0x3da68f3b	0.08132788
245	0x3c69d7d7	0.014272652
246	0xbe21c867	-0.15799104
247	0x3dcb9fb5	0.09942571
248	0xbd81ba69	-0.06334383
249	0x3defd240	0.11710024
250	0xbc960296	-0.01831178
251	0xbc6f4446	-0.01460368
252	0x3d837e92	0.06420626
253	0xbb7d2195	-0.0038624753
254	0xbe07f782	-0.1327801
255	0xbddc5179	-0.10757727

network_body._body_endoder.seq_layers.0.bias f4 [128]
0	0x3cddb115	0.027061978
1	0x3c74ce27	0.014941729
2	0xbaff4d50	-0.0019477997
3	0x3c2fe5fb	0.010735984
4	0xbbcdf23c	-0.00628498
5	0x3c7e4033	0.015518236
6	0x3b883574	0.0041567627
7	0x3c751f65	0.014961098
8	0x3c59310f	0.013256325
9	0x3d0763be	0.033054106
10	0x3d1e082a	0.038582005
11	0x3d051188	0.032487422
12	0x3c38c7e4	0.011278126
13	0x3c9e5003	0.019325262
14	0xbc2dc2bc	-0.01060551
15	0x3ba5b122	0.0050565163
16	0xbb52fff5	-0.003219602
17	0x3cf79c59	0.03022592
18	0x3c9a2e1b	0.018820813
19	0x3cfb549b	0.030679991
20	0x3d090f26	0.033461712
21	0x3c475b3a	0.012167746
22	0x3a87c193	0.0010357372
23	0x3cac7018	0.021049544
24	0x3d5ab44d	0.053394604
25	0x3ba7e4ba	0.005123702
26	0xbc2504b2	-0.01007192
27	0x3c7584bc	0.01498526
28	0x3cfc3191	0.030785354
29	0x3c9082e9	0.017640548
30	0xbcaea6cd	-0.021319771
31	0x3b08fc60	0.002090238
32	0x3c936a74	0.017995097
33	0x3c20ae8f	0.009807243
34	0x3c3e3ca0	0.011611134
35	0x3c7406d0	0.014894202
36	0x3d887c1e	0.066642985
37	0x3c832ded	0.01601311
38	0xbb5f5435	-0.003407729
39	0x3c2914b6	0.010319879
40	0x3c04e488	0.008111127
41	0x3abc1ab3	0.0014351219
42	0x3c96c643	0.018405085
43	0xbc17d76d	-0.00926767
44	0x3cefe87d	0.029285664
45	0x3d141d21	0.036160592
46	0xbb115047	-0.0022173093
47	0xbbc0e922	-0.0058871666
48	0xbc26cc00	-0.010180473
49	0x3c0bb2e7	0.00852654
50	0x3d1a682e	0.03769701
51	0x3afedda7	0.001944472
52	0x3ab27ce4	0.0013617543
53	0x3caeb6ef	0.021327464
54	0x3d149b65	0.03628101
55	0x38502ebb	4.9634586e-05
56	0xbc8dd6ab	-0.017314276
57	0x3caf17dc	0.021373682
58	0x3ce12a19	0.027485894
59	0x3c88289b	0.016620925
60	0x3c1c63b3	0.0095452545
61	0xbc861358	-0.016366646
62	0x3b8e7c7f	0.004348337
63	0x3d1500bd	0.036377657
64	0x3ce0693f	0.027393935
65	0x3cc97463	0.02459163
66	0x3cbd471d	0.023105199
67	0xbc19c8a3	-0.009386214
68	0xbc710430	-0.014710471
69	0x3b0d34b2	0.0021546301
70	0x3c6cd1a0	0.014454275
71	0x3d0b45d6	0.034002148
72	0x3b101da1	0.0021990316
73	0x3a261e6b	0.000633693
74	0x3c814f86	0.01578499
75	0x3d2348f7	0.039864507
76	0x3c56ada7	0.013102925
77	0x3b18e14f	0.0023327654
78	0xbc0aa325	-0.008461748
79	0x3d0612a5	0.032732625
80	0x3ce576d5	0.028010765
81	0x3c0087cf	0.007844879
82	0xbc458721	-0.012056143
83	0x3c515a0f	0.012777819
84	0x3d1d20d3	0.03836138
85	0x3c0e7f54	0.00869735
86	0xbcf566ca	-0.02995624
87	0xbc15c516	-0.009141227
88	0x3d91ada7	0.071132
89	0x3aac0b13	0.0013125859
90	0xbafd1b1b	-0.0019310446
91	0x3c63d186	0.013904935
92	0xbd1212e2	-0.03566254
93	0x3a9b09a7	0.0011828438
94	0x3cb7660c	0.022387527
95	0x3c9167e9	0.017749744
96	0x3a8e1204	0.0010839109
97	0x3c1d21b1	0.009590552
98	0x3cf6e384	0.030137785
99	0x3d3ce722	0.046118863
100	0xbb3ba868	-0.0028634313
101	0xbc5dab89	-0.013529667
102	0x3b8d24a3	0.004307346
103	0x3cb2bd97	0.02181892
104	0x3c9aded5	0.018905083
105	0x3d1c432f	0.03815001
106	0x3d146954	0.03623326
107	0xba319416	-0.00067740807
108	0x3d0b604d	0.034027386
109	0x3ba79784	0.0051144976
110	0x3d391572	0.045186467
111	0x3c4be091	0.0124436775
112	0xbd0c2373	-0.034213495
113	0xbc472508	-0.012154825
114	0x3bd3658f	0.0064513157
115	0x3c7d55b8	0.0154623315
116	0xbc56f731	-0.013120458
117	0x3d5c54c6	0.053791784
118	0xbcb2614c	-0.02177491
119	0x3c83a8f1	0.016071768
120	0xbc164c26	-0.009173429
121	0x3c033d68	0.008010246
122	0xbc849702	-0.016185287
123	0x3cda20b4	0.026626922
124	0x3d06d058	0.032913536
125	0x3c622430	0.013802573
126	0x399d0318	0.0002994768
127	0x3c63a3c7	0.013894028

network_body._body_endoder.seq_layers.2.weight f4 [128, 128]
0	0x3de969b9	0.11397118
1	0xbe3bb249	-0.18329729
2	0xbd2de4af	-0.042454418
3	0x3dba1b5c	0.0908725
4	0xbdc3a7d8	-0.09553498
5	0xbde89ccf	-0.11358034
6	0xbda5b79f	-0.080916636
7	0xbd6c12d2	-0.057635136
8	0xbdb3a947	-0.087725215
9	0xbc865b52	-0.016400967
10	0xbd2141a6	-0.039369248
11	0x3be73b9b	0.007056666
12	0xbe067f19	-0.13134421
13	0xbc92404b	-0.017852923
14	0x3d731797	0.05934867
15	0x3bba652d	0.0056883306
16	0x3d38fd83	0.045163643
17	0xbe0b4e04	-0.1360398
18	0xbda49c81	-0.08037663
19	0x3df6df3f	0.120542996
20	0x3c6ef4ea	0.014584759
21	0xbd720f98	-0.059096903
22	0xbda8db17	-0.08244913
23	0xbc36a8b0	-0.011148617
24	0x3d8e6216	0.06952302
25	0x3d2c66a7	0.042090084
26	0x3dd15c36	0.10222666
27	0xbdd9fd4c	-0.10644016
28	0x3e206308	0.15662777
29	0x3d26c379	0.04071376
30	0x3c093b51	0.008375959
31	0xbe11d91f	-0.14242981
32	0x3dd4e458	0.103951156
33	0xbd0102a6	-0.031496666
34	0xbd6ff80b	-0.05858616
35	0xbdbec532	-0.09314956
36	0x3cf9902d	0.030464256
37	0xbd6912cf	-0.056902703
38	0xbd8c03e7	-0.06836682
39	0x3dc02f79	0.09384055
40	0x3d79497f	0.060861107
41	0x3dc5d9fe	0.09660719
42	0x3cf4f036	0.029899698
43	0xbd5a37a6	-0.053275727
44	0xbd8fe140	-0.07025385
45	0x3dc4a527	0.09601813
46	0xbc92d170	-0.017922133
47	0x3db76389	0.08954532
48	0xbcd70104	-0.026245601
49	0xbddd133e	-0.10794686
50	0x3d9e6b53	0.07735314
51	0x3de0057b	0.10938545
52	0x3dc5bf79	0.09655661
53	0x3e458f50	0.1929295
54	0xbdf5522a	-0.11978562
55	0x3d8cfe11	0.06884397
56	0x3d447752	0.047965355
57	0x3d0f754c	0.035023972
58	0x3d96cc45	0.0736318
59	0x3e61121a	0.21979561
60	0xbd93aea6	-0.07211046
61	0xbad7f88d	-0.0016477272
62	0xbe242e41	-0.1603327
63	0xbd2b87a6	-0.04187741
64	0xbc7c58b2	-0.015402006
65	0x3d7ee5a9	0.06223074
66	0x3da9b365	0.0828617
67	0xbe0965f6	-0.13417801
68	0xbdcd471e	-0.1002333
69	0xbe0ae5ef	-0.13564275
70	0xbdd02daa	-0.1016496
71	0xbd807a30	-0.062733054
72	0x3e142d32	0.14470366
73	0xbd90af40	-0.07064676
74	0x3e39ce14	0.18145019
75	0x3ccc5f44	0.02494777
76	0x3bc22e28	0.0059259124
77	0xbcd781f0	-0.026307076
78	0x3bce82da	0.00630222
79	0x3e0de2f9	0.13856114
80	0x3d5d9493	0.05409677
81	0xbddcf3e7	-0.10788708
82	0x3c8d431a	0.01724391
83	0x3daf0c90	0.08547318
84	0xbe1de92e	-0.15420982
85	0x3d38e96a	0.045144476
86	0xbc3b8349	-0.011444875
87	0x3da31255	0.07962481
88	0x3d918c8f	0.071068875
89	0x3c595f67	0.013267375
90	0x3dc8bd22	0.09801699
91	0x3dcce30e	0.10004245
92	0x3d6f26ba	0.058386542
93	0x3dce2c2a	0.100670174
94	0x3d91448d	0.07093153
95	0xbd1b636d	-0.037936617
96	0x3d9f1613	0.07767882
97	0x3da711e5	0.0815771
98	0xbb220657	-0.0024723017
99	0x3d94ac26	0.07259397
100	0xbdf2b1a3	-0.11850288
101	0x3e3a4dbb	0.18193714
102	0x3d8d3e8b	0.06896695
103	0x3e1d19c4	0.1534186
104	0x3d6551e6	0.055986308
105	0xbe0098f1	-0.12558343
106	0x3deae065	0.11468581
107	0xbcfb71b9	-0.030693876
108	0x3d8c2c7f	0.068444245
109	0xbdafb463	-0.08579328
110	0x3d4f034a	0.050540246
111	0xbe143e44	-0.14476877
112	0x3c98a725	0.018634388
113	0x3ca3ddde	0.020003255
114	0x3dc4438b	0.09583195
115	0xbe019002	-0.12652591
116	0xbcab87b4	-0.020938732
117	0x3daa6478	0.08319944
118	0xbbf4bdd4	-0.0074689183
119	0x3e497320	0.19672823
120	0x3d41a224	0.04727377
121	0xba8c1606	-0.0010687716
122	0x3c910f54	0.017707504
123	0x3d2103e5	0.039310355
124	0x3caae17b	0.02085947
125	0xbdaac899	-0.08339042
126	0x3d82c5eb	0.06385406
127	0xbd3f20a5	-0.04666199
128	0xbd768c06	-0.06019213
129	0xbcb0ed5b	-0.021597555
130	0xbcde40d3	-0.02713052
131	0xbcb8190d	-0.022472883
132	0x3df7eb2d	0.12105403
133	0x3da819d9	0.08208055
134	0xbb824af3	-0.00397622
135	0xbd605894	-0.054771975
136	0xbe06a0bf	-0.13147257
137	0xbd1bbc55	-0.038021404
138	0xbd6bb994	-0.057550028
139	0xbe057f1f	-0.13036774
140	0x3e10d006	0.14141855
141	0xbdacc2e9	-0.08435614
142	0x3bd940ce	0.00663004
143	0x3d8f01db	0.06982776
144	0x3d823abe	0.063588604
145	0xbdee4add	-0.11635373
146	0xbd906acf	-0.07051622
147	0x3e787592	0.242636
148	0xbcd506ef	-0.026004283
149	0x3d1258da	0.035729267
150	0xbd42899c	-0.047494516
151	0xbd745fdc	-0.05966173
152	0xbd80359e	-0.06260227
153	0xbcd325fe	-0.025774952
154	0xbd537500	-0.05162525
155	0x3cb19cd2	0.021681223
156	0xbe1289ae	-0.14310333
157	0xbc58fd23	-0.013243946
158	0xbd1722e2	-0.0368985
159	0xbadca3fa	-0.0016833537
160	0x3d0dee40	0.03465104
161	0xbe1e1590	-0.15437913
162	0xbbfe57c8	-0.007761929
163	0x3dde03b9	0.10840554
164	0x3c852b5e	0.01625603
165	0xbe004a8a	-0.12528434
166	0xbda2cf1e	-0.07949661
167	0xbdc81340	-0.09769297
168	0x3bce39f2	0.0062935287
169	0x3e3d7cff	0.18504713
170	0x3cccb51c	0.024988703
171	0xbb1ce125	-0.0023937908
172	0xbd9ed3c8	-0.07755238
173	0x3d4786ce	0.048712544
174	0x3de8d34e	0.11368428
175	0xbd4dec44	-0.05027415
176	0x3c57b976	0.013166776
177	0xbc9f383d	-0.019435996
178	0x3d9e7b44	0.07738355
179	0x3dfe1f68	0.12408334
180	0x3c9f4f15	0.019446889
181	0x3dfd902c	0.12381014
182	0x3ddbbc8b	0.10729321
183	0x3cfb984c	0.03071227
184	0xbd2ce582	-0.042211063
185	0x3ddef8e9	0.108873196
186	0x3dd1629c	0.10223886
187	0xbe16da9a	-0.14731827
188	0xbd8859d9	-0.06657762
189	0x3e14592e	0.14487144
190	0xbdba7697	-0.091046505
191	0x3dcdeabf	0.1005454
192	0x3da96d77	0.08272832
193	0x3dbc6bb8	0.09200233
194	0x3dbc8b73	0.09206285
195	0xbd1877af	-0.037223514
196	0x3c8af406	0.016962063
197	0x3d82a383	0.06378844
198	0xbd1c0216	-0.038087927
199	0x3d2bfe3d	0.041990507
200	0xbac54901	-0.0015051664
201	0x3dbe0c91	0.092797406
202	0xbdfbe970	-0.12300384
203	0x3e31ba5c	0.17356247
204	0x3d6b1317	0.057391252
205	0x3dbb2274	0.09137431
206	0xbcdcaf64	-0.026939102
207	0xbcb2b7a0	-0.021816075
208	0xbd9cf810	-0.07664502
209	0x3e2744e3	0.16334872
210	0xbdc5b1fa	-0.09653087
211	0x3c3c4ab0	0.011492416
212	0x3c1d731e	0.009609966
213	0xbd2cc036	-0.042175494
214	0xbc5200c4	-0.012817565
215	0xbd5c0917	-0.053719606
216	0xbdcdf089	-0.10055644
217	0x3d1316a1	0.035910252
218	0xbde1d19c	-0.11026308
219	0x38d7c873	0.000102893355
220	0xbdfc5638	-0.123211324
221	0x3d302e7e	0.04301309
222	0xbdc1568a	-0.09440334
223	0x3dfc1fcf	0.123107545
224	0x3d151dd7	0.03640541
225	0x3d2088d9	0.039193008
226	0xbc9b921a	-0.018990565
227	0x3e004dbe	0.12529656
228	0x3e10d5b3	0.1414402
229	0x3d5eddab	0.054410618
230	0xbd88e37a	-0.06684013
231	0xbcd23cc5	-0.025663743
232	0xbddce396	-0.10785596
233	0x3c279a08	0.010229595
234	0xbd2f3d71	-0.042783204
235	0x3d9bcc6d	0.076073505
236	0xbd7e4571	-0.062077943
237	0x3dfb5396	0.12271802
238	0x3e2e9d06	0.17052087
239	0xbd7ec056	-0.062195145
240	0xbc1e943a	-0.009678895
241	0xbce7798c	-0.0282562
242	0xbdf953a1	-0.12174154
243	0x3c626cd6	0.013819894
244	0xbdccceca	-0.100003794
245	0x3e380f56	0.179746
246	0x3e3124cb	0.17299192
247	0xbc6a795a	-0.014311159
248	0xbac34071	-0.0014896524
249	0x3d5daf4c	0.054122254
250	0xbd29398b	-0.041314643
251	0x3caeb68c	0.02132728
252	0x3c51232a	0.012764731
253	0xbdaf2085	-0.085511245
254	0x3e02a463	0.12758021
255	0xbde21846	-0.11039786

network_body._body_endoder.seq_layers.2.bias f4 [128]
0	0x3b70aba3	0.0036723397
1	0x3c38e039	0.011283928
2	0x3ba46202	0.0050165663
3	0x3ce9ede6	0.028555822
4	0x3b74a5fd	0.0037330382
5	0x3ce5cab0	0.02805075
6	0x3ce52bcc	0.027974986
7	0x3c9982c7	0.018739117
8	0x3cd41dbc	0.025893085
9	0xbaa53034	-0.0012602867
10	0xbc3b1136	-0.011417678
11	0x3ce60ebb	0.028083196
12	0xbb2371ae	-0.0024939585
13	0x3c33b575	0.010968556
14	0xbc1f5ed1	-0.009727196
15	0xbd070ab5	-0.032969195
16	0x3cea3450	0.028589398
17	0xbc1ae368	-0.009453632
18	0x3bf5eaef	0.007504813
19	0x3cd34275	0.025788525
20	0x3b118da1	0.0022209662
21	0x3d115571	0.035481874
22	0x3cac6fde	0.021049436
23	0x3ce770dd	0.02825206
24	0x3cd5c524	0.02609498
25	0xbc2c11e5	-0.010502313
26	0x3c98b4cd	0.0186409
27	0x3ba99c2b	0.0051760874
28	0x3c8907fe	0.016727444
29	0x3c733f26	0.014846599
30	0x3abde08a	0.0014486474
31	0x3bdc4caa	0.0067230063
32	0xbb7ff1aa	-0.0039053955
33	0x3c24f746	0.01006872
34	0x3cde4f0a	0.027137298
35	0x3d1cb17f	0.03825521
36	0x3b49e961	0.003080927
37	0x3ce21c9a	0.027601529
38	0x3ba5b414	0.0050568674
39	0x3b8c631f	0.004284277
40	0x3cd8a335	0.02644501
41	0x3ce01e45	0.027358184
42	0x3c8a9b12	0.016919646
43	0x3ceea834	0.02913294
44	0xbcbc050e	-0.022951629
45	0x3cffd9fc	0.031231873
46	0x3d0b67de	0.034034602
47	0xbc3266a4	-0.010888729
48	0xbb0f201b	-0.0021839205
49	0x3cf4ec2d	0.029897774
50	0x3c8f4453	0.017488634
51	0xbb01d2ac	-0.0019809408
52	0xbd19a178	-0.037507504
53	0xba54a941	-0.0008112379
54	0xbaaa3da2	-0.0012988339
55	0xbcbdf446	-0.023187768
56	0xbb1be2a2	-0.0023786207
57	0x3bd25db1	0.0064198603
58	0xbc39bd40	-0.011336625
59	0x3ba5a65f	0.0050552334
60	0x3bf7023a	0.007538107
61	0xbb05ce7c	-0.0020417264
62	0x3c93814d	0.018005991
63	0xbbfaddd9	-0.007655841
64	0x3bd1347e	0.0063844314
65	0x3c8219d2	0.015881453
66	0x3c35af78	0.011089198
67	0xbb323124	-0.0027189935
68	0x3c77c4d9	0.015122616
69	0x3c4d1a79	0.012518519
70	0x3d92292b	0.071367584
71	0x3c4abd9d	0.012374309
72	0xbb7cebfd	-0.0038592808
73	0x3bb7ea39	0.0056126383
74	0x3b7fdecb	0.0039042707
75	0xbcef654d	-0.029223109
76	0x3c8a415e	0.016876873
77	0x3a7bfee8	0.0009612874
78	0x3c4c9230	0.012486026
79	0x3d2bf140	0.04197812
80	0x3c0cd01d	0.00859454
81	0x3c43365c	0.011914816
82	0x3caea3b4	0.021318294
83	0x3b5810e8	0.0032969061
84	0x3cfb8dc1	0.030707242
85	0x3c1012cb	0.008793543
86	0x3d0b021c	0.03393756
87	0x3ccceac6	0.025014292
88	0x3cfdef2e	0.030997839
89	0x3cc9fc55	0.024656454
90	0x3c9a631f	0.018846093
91	0x3c4237b5	0.011854102
92	0x3c848b9c	0.016179852
93	0x3c3387dc	0.010957684
94	0x3d04f6cc	0.032461926
95	0x3d016603	0.031591427
96	0x3d242cdd	0.040081847
97	0x3c9248a1	0.017856898
98	0x3c9a66ad	0.018847788
99	0xbc181e22	-0.009284528
100	0xb8278850	-3.9942854e-05
101	0x3c07d342	0.008290114
102	0xbbdcfba2	-0.006743864
103	0x3b5b5281	0.0033465924
104	0xbc46dcc6	-0.012137597
105	0x3cc10e1e	0.023566302
106	0xbc840237	-0.016114337
107	0x3a828cf0	0.0009960216
108	0xbb929325	-0.0044731074
109	0x3b9813a3	0.0046410128
110	0x3c6ce45e	0.014458744
111	0x3c9e8d31	0.019354435
112	0x3c9a1595	0.01880912
113	0x3b67bc97	0.003536021
114	0xbc72c759	-0.014818036
115	0xbb2df512	-0.0026543778
116	0xba84a68d	-0.0010120437
117	0x3d09b971	0.033624116
118	0x3bb47347	0.005506906
119	0x3c078312	0.008270996
120	0x3c44b288	0.012005456
121	0x3bed65fb	0.007244823
122	0x3c9171cf	0.017754463
123	0x3c865e87	0.016402496
124	0xbb5e7dbf	-0.0033949462
125	0xbc17cf59	-0.009265744
126	0x3d3ab7b7	0.04558536
127	0xbc321d69	-0.01087127

action_model._discrete_distribution.branches.0.weight f4 [3, 128]
0	0xbd2025f0	-0.03909868
1	0x3d50249e	0.05081617
2	0x3d40bd13	0.047055315
3	0xbc1bc205	-0.009506707
4	0xbc4744e2	-0.012162419
5	0x3c6dfcc2	0.014525594
6	0x3cc2585d	0.023723776
7	0xb9e62c89	-0.000439022
8	0x3c1489fc	0.009066101
9	0x3d3163bd	0.04330801
10	0x3ca0d4ad	0.019632662
11	0xbcbe18ce	-0.023205187
12	0xbc0ced38	-0.008601479
13	0x3c11b5bc	0.0088934265
14	0x3b7228dd	0.0036950626
15	0x3d4f4366	0.050601386
16	0xbcf9f3b4	-0.030511715
17	0x3ca0fdf1	0.019652339
18	0xbcc3b3f7	-0.023889525
19	0x3a804060	0.000978481
20	0x3d1a91f3	0.037736844
21	0xbc639544	-0.013890568
22	0xbc41c77c	-0.011827346
23	0xbd6308d3	-0.055428337
24	0xbc8a327b	-0.016869774
25	0x3c6fc094	0.014633317
26	0x3ae480a9	0.0017433363
27	0xba06416f	-0.00051214447
28	0x3d1a8013	0.037719797
29	0x3cf97e92	0.030455861
30	0x3c99f251	0.018792303
31	0xbc27a925	-0.010233198
32	0x3d5e4610	0.054266036
33	0x3c41b4ef	0.011822923
34	0xbc35f809	-0.0111064995
35	0xbd5c319a	-0.05375824
36	0xbc3df6b2	-0.011594461
37	0xbd009ff3	-0.03140254
38	0x3ca759e5	0.020428607
39	0x3cd2c049	0.025726454
40	0xbcc4654e	-0.023974087
41	0xbd18ee11	-0.037336413
42	0x3d0af67e	0.03392648
43	0x3ba6832a	0.005081554
44	0x3c7749d9	0.01509329
45	0xbaef1342	-0.0018239992
46	0x3ba20469	0.0049443734
47	0xbcb0e2e8	-0.021592572
48	0x3cdc3f9d	0.026885802
49	0x3ce34e16	0.027747195
50	0xbcf6a7d5	-0.030109325
51	0x3d0807c0	0.033210516
52	0x3c780bf8	0.015139572
53	0x3d373dc8	0.044736654
54	0x3d45f4cd	0.048329163
55	0xba8b53be	-0.0010629816
56	0xbc949e5b	-0.018141916
57	0xbbef9a36	-0.0073120845
58	0x3d426b98	0.04746589
59	0x3d559952	0.05214817
60	0x3cb27dd9	0.021788524
61	0x3caae5ed	0.02086159
62	0xbd3e4b6f	-0.046458658
63	0x3d0afeb5	0.033934314
64	0xbd3b1b0e	-0.0456801
65	0x3d342ad0	0.04398614
66	0xbc93fbc8	-0.018064395
67	0x3d5c91c2	0.053849943
68	0x3d128d0b	0.03577904
69	0xbcd8c3ca	-0.026460547
70	0xbdb6ca98	-0.089253604
71	0x3c0afdf9	0.008483403
72	0x3c9d5b33	0.019208526
73	0x3b97345b	0.0046143956
74	0x3d842b10	0.06453526
75	0x3c8984cf	0.01678696
76	0xbcbf8f30	-0.023383707
77	0x3c4a992e	0.012365622
78	0xbc002d10	-0.007823244
79	0xbdb5384f	-0.08848631
80	0xbd17c9f4	-0.037057832
81	0xbb7df19f	-0.0038748754
82	0xbd071909	-0.03298286
83	0xbd0f89a6	-0.03504338
84	0xbd999958	-0.07499951
85	0xb9e44f1a	-0.00043546484
86	0x3d5a7b78	0.053340405
87	0xbc14e4c1	-0.009087742
88	0xbd38fd82	-0.04516364
89	0xbd331a3b	-0.043726187
90	0x3ca17cda	0.019712854
91	0x3ca6ab81	0.020345451
92	0x3bafdd8c	0.0053669866
93	0x3cab849f	0.020937262
94	0xbbba65a8	-0.005688388
95	0x3c8a175e	0.016856845
96	0xbcc9445e	-0.024568733
97	0xbce16d6c	-0.027517997
98	0x3ce71fab	0.028213343
99	0x3d6d9269	0.058000956
100	0x3d4c8e2e	0.04994028
101	0x3d1605b6	0.03662654
102	0x3d1162d7	0.03549465
103	0xbb852506	-0.0040632514
104	0x3c9c6d30	0.019095033
105	0x3a7281f4	0.0009250932
106	0x3c67763e	0.014127312
107	0xbc9451b8	-0.018105373
108	0x3d313e48	0.043272287
109	0x3c753794	0.014966864
110	0xbd077f0a	-0.03308014
111	0xbc1698ab	-0.009191672
112	0x3d18579f	0.037192937
113	0xbc36cc36	-0.011157086
114	0x3d24a3bb	0.040195208
115	0x3d436cd1	0.047711197
116	0xbd4ef8c9	-0.05053023
117	0x3c844ca4	0.016149826
118	0x3c813657	0.015772982
119	0xbc85052f	-0.016237823
120	0x3c8504a8	0.016237572
121	0x3c9ec103	0.019379145
122	0x3d39bb04	0.045344368
123	0x3bfbb0eb	0.0076810024
124	0x3c9ea51d	0.019365842
125	0xbc11b97c	-0.008894321
126	0xbd989fed	-0.074523784
127	0x3c8bda6f	0.01707193
128	0xba371773	-0.000698439
129	0xbce65e29	-0.028121071
130	0xbcde9ced	-0.027174437
131	0xbd26a2f2	-0.04068274
132	0xbce6c476	-0.028169852
133	0xbc11231a	-0.0088584665
134	0xbc9842e2	-0.01858658
135	0xbd46a444	-0.0484965
136	0xbd243252	-0.04008705
137	0xbcc07148	-0.023491517
138	0x3c1f4f8a	0.009723553
139	0xbd06f022	-0.032943852
140	0x3bc24647	0.005928788
141	0xbd2ff644	-0.042959467
142	0x3c9c9f41	0.019118907
143	0xbd8a17b3	-0.067428015
144	0xbb255cb7	-0.0025232264
145	0x3c17c5ec	0.009263497
146	0x3d231266	0.039812468
147	0x3d03b1b6	0.0321519
148	0xbc4e27fd	-0.012582776
149	0x3b93663d	0.0044982717
150	0xbc1b85ab	-0.009492318
151	0xbc3e5340	-0.011616528
152	0x3d408512	0.047001906
153	0xbce6d467	-0.028177453
154	0xb74c52aa	-1.2178594e-05
155	0xbc91f481	-0.017816784
156	0xbd379581	-0.044820312
157	0xbc47e597	-0.012200735
158	0xbd00e8f1	-0.03147215
159	0x3b9ad0e9	0.004724611
160	0xbd46450f	-0.048405703
161	0xbc0d8549	-0.008637735
162	0x3cd76772	0.026294444
163	0x3c9bd9af	0.019024698
164	0xbd0e4f6e	-0.03474372
165	0x3ccb20fc	0.024796002
166	0x3c22ee16	0.009944459
167	0x3c9bd510	0.019022495
168	0xbbe8dd6b	-0.007106473
169	0x3a16d794	0.00057541695
170	0xbd2501c6	-0.040284894
171	0x39e8721a	0.000443355
172	0xbb6d1b1f	-0.0036179496
173	0x3cc91b44	0.024549134
174	0x3d14f5c6	0.0363672
175	0x3bd83638	0.0065982603
176	0xbcc42ddf	-0.023947654
177	0xbcdff602	-0.027338985
178	0xbcbe71d7	-0.023247642
179	0xbd83bc0b	-0.06432351
180	0xbc9c52fd	-0.01908254
181	0xbd61711f	-0.05503952
182	0xbb639ba7	-0.0034730227
183	0x3c8112e0	0.01575607
184	0x3d1fe241	0.039034132
185	0x3c829268	0.015938953
186	0x3ca7aa10	0.020466834
187	0xbd36ce70	-0.044630468
188	0x3ae5c83f	0.0017530991
189	0xbc3c58ca	-0.011495778
190	0x3c2df2f8	0.01061701
191	0x3bf96442	0.0076108286
192	0x3d02861f	0.03186619
193	0xbd14b9e7	-0.036310103
194	0x3d043882	0.032280453
195	0xbc6adc7b	-0.014334793
196	0xbd0f2fac	-0.034957573
197	0xbb4e8306	-0.0031511202
198	0x3db8d6d8	0.09025353
199	0x3d72a2d6	0.059237324
200	0xbd06526a	-0.03279344
201	0x3d5671e2	0.0523547
202	0xbd6b9715	-0.05751713
203	0x3cfc38b8	0.030788764
204	0x3c7b8753	0.015352088
205	0xbd24e3d6	-0.040256344
206	0x3b328bb6	0.0027243919
207	0x3dbe68d9	0.09297342
208	0x3b367dd8	0.0027846005
209	0x3c078a14	0.0082726665
210	0x3c3dd0bb	0.01158541
211	0x3ce79a33	0.02827177
212	0xbc7a65df	-0.015283077
213	0xbc9ac09f	-0.018890677
214	0xbb2033b3	-0.0024444878
215	0xbc1d19c8	-0.009588666
216	0xbc9b30d5	-0.018944183
217	0xbba35390	-0.0049843267
218	0xbcf77d2e	-0.030211058
219	0x3c15383d	0.0091076465
220	0x3c087f70	0.008331165
221	0x3c19e3fc	0.009392735
222	0xbcd33eec	-0.02578684
223	0x3b511b0e	0.0031906995
224	0x3c89145e	0.016733345
225	0x3caff08d	0.021477008
226	0xbd909afd	-0.07060812
227	0xbd6c763f	-0.057729956
228	0xbd2046b5	-0.03912993
229	0xbd930f8d	-0.071807005
230	0xbc044695	-0.008073469
231	0x3bb51a8e	0.005526847
232	0x3cb7dd1f	0.022444306
233	0x3cf51334	0.029916383
234	0xbb785bad	-0.003789644
235	0x3bfec868	0.007775355
236	0xbc77763b	-0.015103872
237	0xbd8583ce	-0.065192804
238	0x3cd7dc16	0.026350062
239	0xbd5f5df7	-0.05453297
240	0xbc56bcb7	-0.013106517
241	0xbb48c3d3	-0.0030634298
242	0xbd0643e8	-0.032779604
243	0xbbf8f6f2	-0.0075977976
244	0x3d6e0264	0.05810775
245	0x3b69107d	0.0035562806
246	0x3b9058e9	0.00440513
247	0xbc05812c	-0.008148473
248	0xbc8f2cd0	-0.017477423
249	0xbc875aad	-0.01652273
250	0xbd322a47	-0.04349735
251	0xbc3fb434	-0.011700679
252	0x3b9163bc	0.004436938
253	0xbcc1611c	-0.023605876
254	0x3d11f250	0.035631478
255	0xbcc4f3ff	-0.024042128

action_model._discrete_distribution.branches.0.bias f4 [3]
0	0x3c305294	0.010761876
1	0xbc50eee1	-0.012752266
2	0x3bc57913	0.006026396

action_model._discrete_distribution.branches.1.weight f4 [9, 128]
0	0xbd755552	-0.05989582
1	0xbd55735c	-0.05211197
2	0x3d2a6f2f	0.04160994
3	0xbc77c331	-0.015122221
4	0xbd1a695b	-0.03769813
5	0xbbf1fb46	-0.0073846905
6	0x3da744fc	0.081674546
7	0xbcc05343	-0.023477202
8	0x3cf59c51	0.029981764
9	0x3cbc4e29	0.022986488
10	0x3c35dc0c	0.011099827
11	0xbd90e8b8	-0.070756376
12	0x3ccbf518	0.024897143
13	0x3cbcf731	0.023067089
14	0xbd5f8c81	-0.054577354
15	0xbcb592ff	-0.02216482
16	0x3cb62577	0.022234662
17	0xbcbf2748	-0.02333416
18	0x3ccf703c	0.025322072
19	0x3d4e8689	0.05042127
20	0x3cc3b4fe	0.023890015
21	0xbd077c22	-0.033077367
22	0xbd756878	-0.059914082
23	0x3a6e7fe0	0.00090980344
24	0x3c826666	0.015917968
25	0x3c07c990	0.008287802
26	0xbd284243	-0.041078817
27	0xbd35dd8d	-0.04440074
28	0x3c14d958	0.009085022
29	0x3d488b2c	0.04896085
30	0x3cdd8705	0.027041921
31	0xba9cbde8	-0.0011958452
32	0xbd23044a	-0.039799012
33	0xbcf012db	-0.029305866
34	0x3bb99acf	0.0056642066
35	0x3d17a7cf	0.03702527
36	0x3d02ead3	0.031962227
37	0x3d01d52e	0.031697445
38	0x3d264ba9	0.0405995
39	0xbd49b89a	-0.049248315
40	0xbbb52a9f	-0.0055287625
41	0x3c0d5618	0.008626483
42	0x3ca3cdc0	0.01999557
43	0x3cc54215	0.024079362
44	0xbaa40bfe	-0.0012515781
45	0x3d3d0e47	0.046156194
46	0xbcbf9624	-0.023387022
47	0x3d5bee15	0.05369385
48	0x3d309f57	0.04312071
49	0xbd173765	-0.036918063
50	0xbd4f5462	-0.050617583
51	0xbd264920	-0.04059708
52	0x3a14e545	0.0005679916
53	0xbd0fbc3a	-0.035091616
54	0x3dab67fb	0.08369442
55	0xbcfa5b07	-0.030560983
56	0x3d133426	0.035938405
57	0x3b91b3f4	0.004446501
58	0xbcc61886	-0.024181616
59	0x3c3dbd74	0.011580814
60	0xbd8cd3f6	-0.06876366
61	0xbd3910e6	-0.04518213
62	0x3c867ef1	0.016417952
63	0xbcefee45	-0.02928842
64	0xbd53eb81	-0.051738266
65	0xbdbd4778	-0.09242147
66	0xbd4a6a3c	-0.04941772
67	0x3c5664aa	0.013085524
68	0xbdd33927	-0.10313635
69	0xbd0dfb92	-0.034663744
70	0xbce6d66f	-0.028178422
71	0xbdf1f60b	-0.11814507
72	0x3b8161cf	0.0039484273
73	0x3d18ed78	0.037335843
74	0x3c3b8b20	0.011446744
75	0xbc32d091	-0.010913984
76	0xbc378f29	-0.011203566
77	0x3c583f73	0.013198721
78	0x3d026697	0.03183612
79	0xbd201e2a	-0.039091267
80	0xbd0f8c19	-0.035045717
81	0xbd94351b	-0.072366916
82	0x3aa50f14	0.0012592995
83	0x3d0c7ff6	0.03430172
84	0x3ad44051	0.0016193484
85	0xbc05c913	-0.008165616
86	0xbcc21943	-0.023693686
87	0xbdb95940	-0.09050226
88	0x3cff2504	0.03114558
89	0xbd883763	-0.06651189
90	0x3c1192f1	0.008885131
91	0xbcaa679a	-0.020801354
92	0x3d9168c6	0.07100062
93	0x3d1c9275	0.03822561
94	0xbd1c5296	-0.038164698
95	0x3d9c46ac	0.07630667
96	0x3d0345bf	0.032048937
97	0x3cd12256	0.025529068
98	0xbda71609	-0.081585
99	0xbd51db82	-0.05123473
100	0x3c19b6b0	0.009381935
101	0xbcdaea53	-0.026723063
102	0xbb10e28a	-0.0022107684
103	0x3b764863	0.0037579767
104	0x3d06dd39	0.032925818
105	0x3cebe970	0.028797835
106	0x3c281021	0.010257752
107	0x3d07788b	0.033073943
108	0xbc4d3271	-0.012524233
109	0xbb072693	-0.0020622357
110	0x3d7328fe	0.059365265
111	0xbd874ce6	-0.06606464
112	0x3ca610a3	0.020271605
113	0x3d571926	0.052514218
114	0x3cc1c397	0.023652835
115	0xbdafe264	-0.085881025
116	0x3d198ad8	0.037485927
117	0x3c9d4416	0.019197505
118	0x3cd9d121	0.026588978
119	0xbbcc2dcb	-0.006231045
120	0x3cdf769b	0.027278235
121	0x3d31f16b	0.043443125
122	0xbcacd96c	-0.021099769
123	0x3ca64bc5	0.020299802
124	0xbcb81483	-0.022470718
125	0xbca310c5	-0.019905457
126	0xbcf6a772	-0.030109141
127	0xbd47f006	-0.04881289
128	0xbbf36506	-0.0074278144
129	0x3d2e9eb2	0.042631812
130	0xbc7f40e3	-0.015579435
131	0x3cffef7e	0.031242128
132	0x3d20991f	0.039208528
133	0xbd9b61e9	-0.07587034
134	0xbd26b6df	-0.040701743
135	0xbc056c57	-0.008143506
136	0x3b8077a6	0.003920513
137	0xbd795142	-0.06086851
138	0x3d387db6	0.045041762
139	0xbc57afbc	-0.013164457
140	0xbd1ae63f	-0.037817236
141	0xbcc5663a	-0.024096597
142	0x3d894422	0.067024484
143	0xbce2547d	-0.027628178
144	0x3d2f4bec	0.042797014
145	0xbc373158	-0.011181198
146	0xbd609a72	-0.05483479
147	0x3ca1aea0	0.019736588
148	0x3d1b157b	0.037862282
149	0xbce9673f	-0.028491614
150	0xbbddec9e	-0.0067725917
151	0x3ce6d1f3	0.028176283
152	0x3c3e9ce6	0.011634087
153	0x3c39ee4d	0.011348319
154	0x3d053dad	0.03252952
155	0xbd15c1a2	-0.036561616
156	0x3d123f72	0.035705037
157	0xbcc32482	-0.02382112
158	0x3d02fc81	0.031979088
159	0x3cc636a9	0.024195986
160	0x3c2d9ceb	0.010596494
161	0x3d444dc5	0.04792573
162	0x3cf01124	0.029305048
163	0x3d7313e9	0.05934516
164	0x3cb3034c	0.021852158
165	0xbc757d23	-0.014983448
166	0x3b56ba99	0.003276503
167	0x39960546	0.00028614159
168	0xbbdffa62	-0.006835268
169	0xbc2a6828	-0.010400809
170	0x3cf61d5c	0.030043297
171	0xbcd74c99	-0.026281642
172	0x3d3a0c22	0.045421727
173	0x3d15df17	0.03658971
174	0xbcd7cecf	-0.026343731
175	0xbb4e7e29	-0.0031508303
176	0x3c41eacb	0.011835764
177	0xbc5a5561	-0.01332602
178	0x3d55eca1	0.05222762
179	0xbd229114	-0.03968914
180	0x3bf1a0f9	0.0073739258
181	0x3bb0c76f	0.005394868
182	0x3cbd17b1	0.023082586
183	0x3c92fc03	0.017942434
184	0x3d13b3a6	0.036059998
185	0x3cc10484	0.023561724
186	0xbd144f63	-0.03620852
187	0xbb9ba69a	-0.004750085
188	0xbd261367	-0.040545847
189	0x3cbd0148	0.0230719
190	0xbd2f4387	-0.04278901
191	0xbc2fdcbb	-0.010733779
192	0x3d185eef	0.03719991
193	0xbd33994d	-0.04384737
194	0x3c9c5887	0.019085182
195	0xbc7e1007	-0.015506751
196	0xbce28265	-0.027650068
197	0xbd3cc999	-0.046090696
198	0xbcf56346	-0.029954564
199	0x3cccef59	0.025016474
200	0xbc5cf4c9	-0.013486096
201	0xbd6c487a	-0.057686307
202	0xbd007ae9	-0.031367216
203	0x3d7a279b	0.061072927
204	0xbd4539f8	-0.048150986
205	0xbd00cf76	-0.03144785
206	0xbd42ab88	-0.047526866
207	0x3c8f5b61	0.017499628
208	0x3cd6b993	0.026211536
209	0x3d690b12	0.056895323
210	0x3caf90a8	0.021431282
211	0x3d16c25a	0.03680644
212	0x3cfa792e	0.030575361
213	0xbbdbf103	-0.0067120804
214	0xbd06b582	-0.032887943
215	0xbce1b64c	-0.027552746
216	0x3ca7293c	0.020405404
217	0x3d7a8fa9	0.06117216
218	0xbc72b6f0	-0.0148141235
219	0x3bdc7fe2	0.006729112
220	0x3ba8bef5	0.005149717
221	0x3c79da24	0.015249763
222	0xbb4f26db	-0.0031608853
223	0x3d48b128	0.048997074
224	0x3c2ee590	0.010674849
225	0xbd878f0d	-0.06619082
226	0xbc182a57	-0.009287438
227	0x3c9a0414	0.018800773
228	0x3c5db689	0.013532289
229	0xbd05a0ee	-0.032624178
230	0xbc9532df	-0.018212734
231	0xbd570a1d	-0.05249988
232	0x3aab88a3	0.0013086986
233	0xbc3ca5d9	-0.011514151
234	0x3cadf438	0.021234617
235	0xbba9ec5c	-0.005185647
236	0x3a273d0d	0.00063796417
237	0x3d3f96f2	0.046774812
238	0x3c845abd	0.016156549
239	0xbabfc8a4	-0.0014631939
240	0x3ca86532	0.020556066
241	0xbcde7f49	-0.027160304
242	0x3c2c6c94	0.010523934
243	0x3b7cb7e0	0.0038561746
244	0xbce9cd3e	-0.02854025
245	0x3bb3c996	0.0054866774
246	0xbd5483f3	-0.05188365
247	0xbda001e8	-0.078128636
248	0x3c6f202e	0.014595075
249	0xbc72b811	-0.014814393
250	0xbc8a22db	-0.016862324
251	0xbc17ff5f	-0.009277194
252	0x3cc4bff6	0.024017315
253	0x3bfbdb4b	0.007686054
254	0x3d49ef59	0.049300525
255	0x3c13019b	0.008972551

action_model._discrete_distribution.branches.1.bias f4 [9]
0	0x3c271433	0.010197687
1	0xbbae6bb0	-0.005322896
2	0xbc328fc5	-0.010898535
3	0x3d279595	0.040914137
4	0x3be22438	0.0069012903
5	0xbc708af8	-0.01468157
6	0xbb8cbefe	-0.004295229
7	0x3c3760c3	0.011192503
8	0xbc930340	-0.017945886

onnx::Div_68 f4 [246]
0	0x3fce50ac	1.6118369
1	0x3fab5765	1.3386046
2	0x3f7c3f04	0.98533654
3	0x3fbd61f8	1.4795523
4	0x3f405e3d	0.75143796
5	0x40707b52	3.7575269
6	0x3fee4a78	1.8616476
7	0x3fff3f00	1.9941101
8	0x3fbfc41a	1.498172
9	0x3fb21fe1	1.3915979
10	0x4016c59c	2.355811
11	0x4048230a	3.1271386
12	0x3f546c52	0.82977784
13	0x3fece1fb	1.8506464
14	0x3fabeacd	1.343103
15	0x40055fed	2.0839798
16	0x4075e55e	3.8421245
17	0x3a395c8f	0.0007070982
18	0x3a395c8f	0.0007070982
19	0x3fcf0514	1.6173425
20	0x3fbb0de1	1.461361
21	0x3f905552	1.1276038
22	0x3a395c8f	0.0007070982
23	0x3a395c8f	0.0007070982
24	0x3a395c8f	0.0007070982
25	0x3a395c8f	0.0007070982
26	0x403e5f73	2.9745758
27	0x3fab1fc2	1.3369067
28	0x3fcbc6ff	1.5920104
29	0x3fa4f0da	1.2886002
30	0x3f912938	1.1340704
31	0x3ffe4489	1.9864665
32	0x3a395c8f	0.0007070982
33	0x3a395c8f	0.0007070982
34	0x4047a669	3.1195319
35	0x3fe39b9c	1.7781863
36	0x3ff65b93	1.9246696
37	0x3a395c8f	0.0007070982
38	0x400182e3	2.0236137
39	0x40029314	2.040227
40	0x3a395c8f	0.0007070982
41	0x3fa274fe	1.2691953
42	0x3fa44e67	1.2836426
43	0x3fa3ffcf	1.2812442
44	0x3f944f32	1.1586668
45	0x3fd86c55	1.690806
46	0x40237a87	2.5543535
47	0x3a395c8f	0.0007070982
48	0x3a395c8f	0.0007070982
49	0x4061848d	3.5237153
50	0x406c89ce	3.695911
51	0x40378e81	2.8680727
52	0x3a395c8f	0.0007070982
53	0x4070d9b5	3.7632878
54	0x40182861	2.3774645
55	0x3a395c8f	0.0007070982
56	0x400569ef	2.0845907
57	0x3fe2979f	1.7702521
58	0x3fa76f52	1.3080847
59	0x3f907df4	1.1288438
60	0x3fcfbfef	1.6230448
61	0x3ffdc444	1.982552
62	0x3a395c8f	0.0007070982
63	0x3a395c8f	0.0007070982
64	0x3f0b22a7	0.5434975
65	0x3fec37dc	1.8454547
66	0x3f532b2b	0.82487744
67	0x3a395c8f	0.0007070982
68	0x3f9c5034	1.2211976
69	0x3f4c680f	0.7984628
70	0x3a395c8f	0.0007070982
71	0x3fb1b343	1.3882831
72	0x40333fcc	2.8007689
73	0x3fdd675b	1.7297167
74	0x3f8ce628	1.1007738
75	0x3fcb098c	1.5862288
76	0x405ec6b9	3.480879
77	0x3a395c8f	0.0007070982
78	0x3a395c8f	0.0007070982
79	0x3fe7450d	1.8067948
80	0x3fc39250	1.5279026
81	0x3ff5b802	1.919678
82	0x3a395c8f	0.0007070982
83	0x40217aa7	2.523111
84	0x3fe1eb7d	1.764999
85	0x3a395c8f	0.0007070982
86	0x3fb9392a	1.447057
87	0x3f9abe89	1.2089397
88	0x3fcf4312	1.6192343
89	0x3f95a2e9	1.1690341
90	0x40350b20	2.828804
91	0x3fd81c24	1.6883588
92	0x3a395c8f	0.0007070982
93	0x3a395c8f	0.0007070982
94	0x400b2bbc	2.1745443
95	0x3fbc1cca	1.4696286
96	0x3f1c88fa	0.6114651
97	0x3a395c8f	0.0007070982
98	0x3fe8cba1	1.8187143
99	0x3fa96f8b	1.3237165
100	0x3a395c8f	0.0007070982
101	0x3a395c8f	0.0007070982
102	0x3a395c8f	0.0007070982
103	0x3aaae505	0.0013038224
104	0x3f9cde0b	1.2255262
105	0x3fb31615	1.3991114
106	0x3a8311f3	0.0009999856
107	0x3a395c8f	0.0007070982
108	0x3a395c8f	0.0007070982
109	0x3f832746	1.024636
110	0x3fa0a0cd	1.2549073
111	0x3f89a4a1	1.0753366
112	0x3a395c8f	0.0007070982
113	0x40037be9	2.0544379
114	0x404034af	3.0032156
115	0x3fa1cf3d	1.2641369
116	0x3f7a07c4	0.976681
117	0x3fb89765	1.4421202
118	0x3f97a49e	1.1847112
119	0x3fdbe7fc	1.7180171
120	0x4060050a	3.5003076
121	0x3a395c8f	0.0007070982
122	0x3a395c8f	0.0007070982
123	0x3a395c8f	0.0007070982
124	0x4005fa6f	2.0934103
125	0x3fd181e0	1.636776
126	0x3ff6496a	1.9241154
127	0x3a395c8f	0.0007070982
128	0x3fba5e9c	1.4560122
129	0x3fa4862c	1.2853446
130	0x4017d2a4	2.3722315
131	0x3ff21c69	1.891492
132	0x400e5994	2.2242174
133	0x3f8bb8d3	1.0915779
134	0x3f5cfa6d	0.8631962
135	0x4069f5a8	3.6556187
136	0x3a395c8f	0.0007070982
137	0x3a395c8f	0.0007070982
138	0x3a395c8f	0.0007070982
139	0x4074eff0	3.8271446
140	0x3f9fb43b	1.2476877
141	0x3fa22a57	1.2669171
142	0x3a395c8f	0.0007070982
143	0x404f9915	3.2437184
144	0x3f95dbbf	1.1707686
145	0x3fab2491	1.3370534
146	0x3f9ff8f3	1.2497848
147	0x3fb3f778	1.4059896
148	0x3f6eec37	0.93329185
149	0x3fa97249	1.3238002
150	0x3f8e32dc	1.1109271
151	0x3a395c8f	0.0007070982
152	0x3a395c8f	0.0007070982
153	0x3a395c8f	0.0007070982
154	0x40356d42	2.8347936
155	0x3f9663ab	1.1749166
156	0x40098ac6	2.149095
157	0x3a395c8f	0.0007070982
158	0x401089d2	2.258412
159	0x3fef8b33	1.8714355
160	0x3f97cf61	1.1860162
161	0x3fb92231	1.4463559
162	0x3fe004d2	1.7501471
163	0x3f96ef35	1.179175
164	0x3f89d3ea	1.0767796
165	0x3f9ecc0a	1.2406018
166	0x3a395c8f	0.0007070982
167	0x3a395c8f	0.0007070982
168	0x3a395c8f	0.0007070982
169	0x3f5f40b3	0.872081
170	0x4008a213	2.1348922
171	0x3f8f924c	1.1216521
172	0x3a395c8f	0.0007070982
173	0x404c79be	3.1949306
174	0x3f4cf6a4	0.80063844
175	0x3fd5e239	1.6709663
176	0x3fb02e5c	1.3764148
177	0x3fa9d46b	1.326795
178	0x3feac14c	1.834024
179	0x3fc1b673	1.5133804
180	0x402e65d0	2.7249641
181	0x3fab6c80	1.3392487
182	0x406bb00c	3.68262
183	0x3a395c8f	0.0007070982
184	0x3fd0bf5c	1.6308398
185	0x3fac89c1	1.3479539
186	0x3f6ffd86	0.9374622
187	0x3a395c8f	0.0007070982
188	0x3fa49239	1.2857124
189	0x3fb3a86c	1.4035773
190	0x3f4d6e3f	0.8024635
191	0x3f76ccae	0.96406066
192	0x3fc56b12	1.54233
193	0x40042c61	2.0652087
194	0x3f9e1039	1.2348701
195	0x3fc6e513	1.5538658
196	0x3fd08ed4	1.6293588
197	0x40751a68	3.8297367
198	0x3a395c8f	0.0007070982
199	0x3a395c8f	0.0007070982
200	0x3a395c8f	0.0007070982
201	0x3a395c8f	0.0007070982
202	0x3a395c8f	0.0007070982
203	0x3ff54762	1.9162409
204	0x403477ed	2.8198197
205	0x3f80bf86	1.0058448
206	0x3fa4872b	1.285375
207	0x3faedde8	1.366147
208	0x3f600058	0.87500525
209	0x3f69e589	0.9136587
210	0x3ffbf64b	1.9684538
211	0x3f84f2af	1.0386561
212	0x3f3277f0	0.6971426
213	0x40255659	2.5833952
214	0x3f2190fd	0.6311186
215	0x3f23e007	0.64013714
216	0x40389600	2.8841553
217	0x3f9f0020	1.2421913
218	0x3f8896fd	1.0671078
219	0x3f8ead30	1.1146603
220	0x40219f9c	2.5253668
221	0x3f7c4fc1	0.98559195
222	0x3fc78dbf	1.5590132
223	0x3f9de73e	1.2336195
224	0x3fd71095	1.6801935
225	0x3ead70aa	0.33875018
226	0x3f0f61cf	0.5600862
227	0x3f5dd1c1	0.86648184
228	0x3f07a3f4	0.5298455
229	0x3f3d9268	0.74051523
230	0x3f4ddae3	0.8041212
231	0x3ef69391	0.4815946
232	0x3f925ba5	1.1434218
233	0x3f07cbc2	0.53045285
234	0x403333a9	2.800028
235	0x4029e0ab	2.6543376
236	0x4049a6c8	3.1508045
237	0x3f2ff40e	0.6873177
238	0x3f33d4c7	0.7024655
239	0x3f653b05	0.8954318
240	0x3ecb96df	0.39763543
241	0x3f53c2d1	0.8271914
242	0x3ece253e	0.4026279
243	0x3d9fd6e6	0.078046605
244	0x3e0c2f49	0.13689913
245	0x3e8e73a8	0.27822614
