Experiments/Results/Experiment_5/AttackerBehavior.onnx (onnx, 208734 bytes, 11 tensors)

discrete_act_size_vector f4 [1, 2]
3.0 9.0
00000000: 0000 4040 0000 1041

network_body.observation_encoder.processors.0.normalizer.running_mean f4 [246]
1.2170341 1.5944264 1.2891169 1.376505 1.236706 2.059494 1.2913799 1.3520552
1.2380044 1.339092 1.8374627 1.2125407 1.1880964 1.4002523 1.5082804 1.1912851
1.29256 1.462163 1.6991503 1.6465236 1.6789377 1.6323825 1.6367613 1.6438409
1.6506336 1.8191295 1.9267716 1.738866 2.5093257 1.2132231 1.3151754 1.3426719
1.5114993 1.5113455 1.496138 2.058493 1.7106153 1.6127845 1.4608796 1.51121
1.6782899 1.7629825 1.4684492 1.5276262 1.183924 1.3114306 1.3102717 1.589799
1.5952061 1.6023421 1.7208762 1.8812144 1.6141335 1.8532833 2.423174 2.2532783
1.8468543 1.5673686 1.2882018 1.1582569 1.3403239 1.8185883 1.7462102 1.5429211
1.7125381 1.5716747 1.5726993 1.703752 1.5527041 1.5083635 1.5418698 1.6492782
1.4801173 2.0694745 1.5812955 2.3742194 1.211283 1.4551744 1.74728 1.4993196
1.4801244 1.5003074 1.6303192 1.6159174 1.6056533 1.6353912 1.4887851 1.4925082
1.5366166 1.4266123 1.4143338 2.2176526 2.0410752 2.7462633 1.5746844 1.4651115
1.5585383 1.5775427 1.7206992 1.5739275 1.7436645 1.6499267 1.8207022 1.4078476
1.3253713 3.2895825 2.9999285 1.9643723 1.9275856 1.6317588 1.5796849 1.9096639
1.6352701 1.8390757 2.3459382 1.4954958 2.1150544 1.4774182 1.2930485 1.2617534
3.617272 1.9999586 2.9415596 2.9951332 1.5788878 1.9672449 1.4712231 1.7624935
1.5073977 1.5002503 1.6358513 2.4131145 1.5960054 1.662927 1.3344029 3.483186
1.9724458 2.1767774 2.5710876 2.868139 1.9096996 1.7518232 1.5121926 1.820076
1.9127948 1.6034312 1.5389186 1.4620923 1.5437695 1.630792 4.9023895 1.9892749
2.825401 1.8976487 1.6452401 1.5800287 2.1994302 1.9242634 1.6376952 1.5578538
1.9907852 2.4314613 1.7435567 1.3993229 1.3101883 4.6099725 1.9151022 1.5742681
1.5581295 1.5225241 1.6356344 1.6036528 1.6254606 1.5798197 1.6814789 1.4787815
1.6844313 1.4794108 2.5967236 1.3562782 3.7381089 1.8877571 2.028494 1.5363277
1.6740208 1.4437143 1.5741204 1.4998225 1.7789035 2.4035876 1.6428381 1.5952349
2.2780592 1.7866809 1.3741537 1.9613655 1.8910477 2.0023344 2.1000528 1.9070877
1.6441609 1.593526 2.0929449 1.5925465 1.7432501 1.6332291 1.6850061 1.6709912
2.1478395 1.1353109 1.534622 2.6361568 3.3716333 1.2618647 2.2161453 1.6108487
1.273746 1.3264524 2.0277653 1.3212252 1.4729038 1.3586452 1.858154 1.6049751
1.3637263 0.5786713 0.20586821 0.2276812 1.91184 0.4011259 0.8396374 0.2430077
0.23696657 0.29874524 0.66124374 0.8238973 0.729813 0.75264376 0.2912741 0.43303895
0.08111747 0.087589994 0.09495229 0.025368616 0.27028227 0.59780586
00000000: c6c7 9b3f 2a16 cc3f c801 a53f 5131 b03f
00000010: 624c 9e3f c0ce 0340 f04b a53f 2510 ad3f
00000020: ee76 9e3f 5e67 ab3f fa31 eb3f 8934 9b3f
00000030: 8b13 983f 783b b33f 550f c13f 087c 983f
00000040: 9b72 a53f 2828 bb3f c27d d93f 49c1 d23f
00000050: 6ee7 d63f e9f1 d03f 6581 d13f 6169 d23f
00000060: f647 d33f 3cd9 e83f 74a0 f63f 2993 de3f
00000070: cb98 2040 e54a 9b3f ab57 a83f acdc ab3f
00000080: cf78 c13f c573 c13f 7381 bf3f 59be 0340
00000090: 71f5 da3f b96f ce3f 1afe ba3f 546f c13f
000000a0: 34d2 d63f 69a9 e13f 25f6 bb3f 4189 c33f
000000b0: d28a 973f f5dc a73f fcb6 a73f 897e cb3f
000000c0: b72f cc3f 8c19 cd3f ac45 dc3f a2cb f03f
000000d0: ed9b ce3f 6338 ed3f 4815 1b40 b635 1040
000000e0: b965 ec3f 899f c83f cce3 a43f c341 943f
000000f0: bc8f ab3f 80c7 e83f d183 df3f 707e c53f
00000100: 7334 db3f a32c c93f 364e c93f 8c14 da3f
00000110: 02bf c63f 0e12 c13f fd5b c53f 8c1b d33f
00000120: 7c74 bd3f 4572 0440 e467 ca3f 36f3 1740
00000130: 520b 9b3f 2843 ba3f dfa6 df3f b4e9 bf3f
00000140: b774 bd3f 130a c03f 4dae d03f 62d6 ce3f
00000150: 0c86 cd3f 8054 d13f 8390 be3f 820a bf3f
00000160: daaf c43f 3b9b b63f e408 b53f 05ee 0d40
00000170: faa0 0240 c7c2 2f40 428f c93f c688 bb3f
00000180: 2f7e c73f ebec c93f df3f dc3f 7576 c93f
00000190: 6630 df3f cc30 d33f c50c e93f 5a34 b43f
000001a0: c4a5 a93f 8588 5240 d4fe 3f40 8d70 fb3f
000001b0: 20bb f63f 79dd d03f 1d33 ca3f de6f f43f
000001c0: 8850 d13f d566 eb3f da23 1640 686c bf3f
000001d0: 0d5d 0740 0a1c bd3f 9d82 a53f 2381 a13f
000001e0: 6281 6740 a5fe ff3f 8342 3c40 43b0 3f40
000001f0: ff18 ca3f aece fb3f 0a51 bc3f 6399 e13f
00000200: 68f2 c03f 3408 c03f 9363 d13f 7870 1a40
00000210: e849 cc3f cbda d43f b7cd aa3f 85ec 5e40
00000220: 1b79 fc3f 5250 0b40 b38c 2440 978f 3740
00000230: 0971 f43f be3b e03f 878f c13f 40f8 e83f
00000240: 76d6 f43f 3c3d cd3f 49fb c43f d725 bb3f
00000250: 3d9a c53f cbbd d03f 60e0 9c40 8fa0 fe3f
00000260: 5fd3 3440 27e6 f23f 3a97 d23f 613e ca3f
00000270: 77c3 0c40 434e f63f ff9f d13f c167 c73f
00000280: 0dd2 fe3f 109d 1b40 de2c df3f 031d b33f
00000290: 40b4 a73f e584 9340 1222 f53f 9e81 c93f
000002a0: ca70 c73f 12e2 c23f 785c d13f 7f44 cd3f
000002b0: 180f d03f 8837 ca3f b33a d73f b648 bd3f
000002c0: 729b d73f 555d bd3f b830 2640 869a ad3f
000002d0: 2d3d 6f40 06a2 f13f d8d2 0140 63a6 c43f
000002e0: 5046 d63f a1cb b83f c77c c93f 2ffa bf3f
000002f0: 1cb3 e33f 61d4 1940 8548 d23f a830 cc3f
00000300: b9cb 1140 f6b1 e43f 45e4 af3f 060e fb3f
00000310: da0d f23f 3f26 0040 4467 0640 731b f43f
00000320: dd73 d23f a9f8 cb3f cff2 0540 90d8 cb3f
00000330: d222 df3f a70d d13f 48ae d73f 0ae3 d53f
00000340: 3476 0940 de51 913f 7e6e c43f cbb6 2840
00000350: d7c8 5740 c884 a13f 53d5 0d40 4a30 ce3f
00000360: 1c0a a33f 31c9 a93f e8c6 0140 e81d a93f
00000370: 1d88 bc3f 16e8 ad3f fed7 ed3f d36f cd3f
00000380: 958e ae3f cd23 143f 1ecf 523e 4325 693e
00000390: 2cb7 f43f 6060 cd3e 7af2 563f 03d7 783e
000003a0: 5da7 723e 23f5 983e 4547 293f efea 523f
000003b0: 06d5 3a3f 43ad 403f e121 953e 48b7 dd3e
000003c0: eb20 a63d 6262 b33d 5976 c23d d8d1 cf3c
000003d0: 7062 8a3e ce09 193f

network_body._body_endoder.seq_layers.0.weight f4 [128, 246]
-0.007398219 0.055792578 -0.023415554 -0.08162824 0.030375646 0.016680658 0.08250244 -0.032237418
-0.008843904 -0.11662365 0.01440166 -0.0060956697 0.038360447 0.02981685 0.0422917 0.011829127
-0.018618567 -0.10081513 -0.09449263 0.10880009 -0.023851445 0.04781586 -0.05595055 -0.0563715
0.10577321 0.09069836 0.06631974 -0.13940606 -0.048937783 -0.0021247296 0.095464446 -0.0058744117
-0.02120358 0.034407735 -0.072495714 0.015181319 0.038197085 0.07143998 0.05470551 0.017569881
0.061582558 0.107821174 -0.048455168 -0.014483692 0.022619942 -0.0009769568 -0.09435182 -0.10310131
0.11482667 -0.07588622 -0.033813756 -0.010140926 -0.0048389626 0.031205112 0.039802514 -0.031625904
-0.06140149 0.030434687 -0.054420307 0.06637651 -0.09726454 0.032254662 -0.026943043 0.020321704
-0.07337005 0.04669477 -0.032043297 -0.075561866 -0.021752713 0.024365727 0.090935625 -0.008338837
0.012740319 -0.012044191 -0.09461652 0.07696007 0.07772197 0.103385575 -0.027999422 -0.04896638
-0.0010758017 -0.05239909 -0.038222376 -0.06850049 -0.0004024677 -0.07199023 -0.041847114 -0.07108563
-0.060454745 0.07850739 -0.08231446 -0.06076001 -0.04312509 0.043816295 -0.08551243 -0.07355798
-0.05378426 0.03961435 0.07881731 -0.0036438818 0.0922489 -0.02778575 -0.029379735 -0.069831535
0.051235843 0.09608006 -0.0450001 -0.032909136 -0.04139718 0.07885999 -0.07165176 0.012181245
0.03937982 0.021660112 0.13161708 0.04081925 -0.09008233 0.08616636 -0.042313024 -0.069023125
-0.05973548 -0.008661391 -0.07880259 -0.10186669 -0.089810126 0.028441131 -0.0026318377 0.041168243
-0.0030768248 -0.11574264 -0.08777971 0.040669218 0.080587156 0.039239697 -0.045980103 -0.039778728
-0.035507575 0.011781254 -0.11941795 -0.055703636 0.046323672 -0.06101084 0.043099135 -0.023503635
-0.05297323 0.029969972 0.07742063 0.035839457 0.12023004 -0.11312303 -0.0122053465 -0.01587285
0.08467485 0.008020767 0.071940415 0.007331371 -0.06842754 -0.038099617 -0.0015399761 0.14806582
-0.0041836957 -0.02215898 0.081667446 -0.012287786 -0.023186374 -0.06594128 -0.13019663 -0.012295062
0.03514848 -0.10281547 0.14078768 -0.0013746776 0.008721491 0.06616449 0.021985067 0.027654856
0.0046353987 0.09573182 -0.0014229525 -0.1343474 -0.05019291 0.005909503 0.048558444 0.0877505
-0.10666708 0.12512602 -0.06791984 -0.056776304 0.07601466 0.064196005 0.027766183 -0.028553689
0.01439228 0.017677106 0.039740987 0.046721205 0.09394492 -0.060330715 -0.052639812 -0.118544176
-0.04361727 -0.047205765 -0.044464774 -0.0031980185 0.076401845 -0.005095076 -0.11410535 -0.070905864
0.053781375 0.00594017 0.00092323474 -0.034753162 -0.0014613481 -0.050991982 0.009474099 -0.10314283
-0.04793316 -0.04537401 0.008191041 0.13803743 0.14991835 -0.059470635 -0.16079836 -0.08125604
0.05892201 0.016432038 0.0775337 -0.122251265 0.03094753 -0.05352074 -0.035195548 -0.108898595
-0.10412279 0.009391911 0.030055158 0.0075534103 -0.13089406 -0.12963377 -0.017718934 -0.08046585
-0.009127573 -0.043010954 0.006059977 0.40623167 -0.06900977 0.19320343 -0.13615273 -0.03713451
0.10934718 0.057379436 -0.15998186 -0.14216277 0.011601151 -0.005909847 0.020314468 -0.07903972
00000000: c26c f2bb c286 643d fad1 bfbc b52c a7bd
00000010: 59d6 f83c e0a5 883c 0af7 a83d 620b 04bd
00000020: 06e6 10bc 61d8 eebd f1f4 6b3c 2fbe c7bb
00000030: d81f 1d3d 7742 f43c 103a 2d3d f4ce 413c
00000040: f785 98bc 2a78 cebd 5a85 c1bd 95d2 de3d
00000050: 1b64 c3bc 90da 433d 672c 65bd cde5 66bd
00000060: a09f d83d 10c0 b93d a5d2 873d 76c0 0ebe
00000070: fc72 48bd 0c3f 0bbb dd82 c33d 237e c0bb
00000080: 21b3 adbc 20ef 0c3d a278 94bd 11bb 783c
00000090: 8c74 1c3d 204f 923d e312 603d b6ee 8f3c
000000a0: fe3d 7c3d 59d1 dc3d ed78 46bd 024d 6dbc
000000b0: 754d b93c 3b0d 80ba 873b c1bd c826 d3bd
000000c0: 3f2a eb3d 3c6a 9bbd 4b80 0abd 2026 26bc
000000d0: 2990 9ebb dda1 ff3c f607 233d 2a8a 01bd
000000e0: 2180 7bbd 2a52 f93c d4e7 5ebd 68f0 873d
000000f0: a232 c7bd 771d 043d a8b7 dcbc b479 a63c
00000100: 0943 96bd 0443 3f3d d53f 03bd 2ec0 9abd
00000110: bf32 b2bc a29a c73c 753c ba3d 9e9f 08bc
00000120: c5bc 503c 0055 45bc 4ec6 c1bd 3e9d 9d3d
00000130: b22c 9f3d d1bb d33d 0b5f e5bc f990 48bd
00000140: ea01 8dba 6ea0 56bd 118f 1cbd fc49 8cbd
00000150: 4d02 d3b9 9d6f 93bd e167 2bbd 5895 91bd
00000160: 659f 77bd 7cc8 a03d 7c94 a8bd 7ddf 78bd
00000170: efa3 30bd b778 333d 2421 afbd 91a5 96bd
00000180: e24c 5cbd a842 223d f86a a13d 31ce 6ebb
00000190: feec bc3d f19e e3bc c5ad f0bc d603 8fbd
000001a0: addc 513d 9fc5 c43d 0652 38bd bbcb 06bd
000001b0: 1790 29bd 5981 a13d 28be 92bd d893 473c
000001c0: bc4c 213d 8c70 b13c a1c6 063e 1632 273d
000001d0: 167d b8bd fd77 b03d 6c50 2dbd ff5b 8dbd
000001e0: 31ad 74bd 82e8 0dbc 4163 a1bd 7c9f d0bd
000001f0: 5fee b7bd 60fd e83c e97a 2cbb 08a0 283d
00000200: 8ea4 49bb 7a0a edbd d9c5 b3bd c494 263d
00000210: e10a a53d ceb9 203d a255 3cbd 05ef 22bd
00000220: 6470 11bd 2906 413c 6691 f4bd 7f29 64bd
00000230: e4bd 3d3d 81e6 79bd b888 303d b28a c0bc
00000240: 75fa 58bd 9683 f53c b58e 9e3d 65cc 123d
00000250: 2b3b f63d 0cad e7bd eff8 47bc c707 82bc
00000260: 026a ad3d 8969 033c 7f55 933d ff3b f03b
00000270: bd23 8cbd 580e 1cbd 06d9 c9ba 919e 173e
00000280: 6217 89bb c086 b5bc 4341 a73d b652 49bc
00000290: 5af1 bdbc 390c 87bd 4452 05be 3a71 49bc
000002a0: daf7 0f3d eb90 d2bd a52a 103e 872e b4ba
000002b0: 96e4 0e3c 4081 873d 071a b43c 708c e23c
000002c0: 8be4 973b 0b0f c43d 5d82 baba 5d92 09be
000002d0: 1597 4dbd 81a4 c13b 38e5 463d 89b6 b33d
000002e0: 4574 dabd 0921 003e 8f19 8bbd 458e 68bd
000002f0: 93ad 9b3d 3279 833d e875 e33c 6de9 e9bc
00000300: 99cd 6b3c 94cf 903c 72c7 223d bc5e 3f3d
00000310: 3266 c03d 571d 77bd d89c 57bd 4ac7 f2bd
00000320: 06a8 32bd d55a 41bd b220 36bd d995 51bb
00000330: 9278 9c3d 98f4 a6bb 11b0 e9bd 1837 91bd
00000340: dc49 5c3d c2a5 c23b 3c05 723a 5559 0ebd
00000350: b58a bfba f8dc 50bd 4039 1b3c 8c3c d3bd
00000360: 9055 44bd 19da 39bd b733 063c af59 0d3e
00000370: 3284 193e 7b97 73bd 53a8 24be 9169 a6bd
00000380: 3558 713d 7b9c 863c fdc9 9e3d df5e fabd
00000390: ad85 fd3c 9038 5bbd 3529 10bd 3a06 dfbd
000003a0: 543e d5bd 88e0 193c 3c36 f63c 9982 f73b
000003b0: 1809 06be b7be 04be 4c27 91bc 48cb a4bd
000003c0: d18b 15bc 412c 30bd c692 c63b 99fd cf3e
000003d0: ff54 8dbd 1fd7 453e 9f6b 0bbe 5b1a 18bd
000003e0: 6af1 df3d b306 6b3d 49d2 23be 1e93 11be
000003f0: c112 3e3c 64a7 c1bb 876a a63c 94df a1bd

network_body._body_endoder.seq_layers.0.bias f4 [128]
-0.0009813595 0.06179146 0.002003576 0.050020576 0.05667808 -0.050425068 0.028865164 -0.021291576
-0.01725928 -0.012702709 -0.0052969106 0.028597828 -0.0072645666 0.008358392 -0.011905359 0.052543785
-0.044673495 -0.015334372 0.030923223 0.017327318 0.00011242831 0.020596942 -0.029056361 -0.017313803
0.03926508 0.052800428 0.003445322 0.033322297 -0.021320611 0.035092898 0.00849183 0.035067305
0.008522719 0.03418317 -0.011065298 0.013214264 0.023364393 0.04154724 0.039951712 0.08610634
0.030264927 0.0036316693 -0.010309561 0.0054586492 -0.0047532585 -0.0040480606 0.05134115 0.045805775
0.08285309 0.032574628 0.054908197 0.056252144 0.031118926 0.026453264 0.06951539 0.0044278717
-0.01344198 0.010960558 -0.021762673 0.07667732 -0.009057085 0.024183614 -0.0038228936 0.07071615
0.0014735452 -0.009128772 0.052005038 0.018722998 0.039953776 -0.014188799 0.064223066 -0.009460357
0.08158744 0.018827824 0.06417377 0.033517703 0.06658671 -0.0037564137 -0.004278112 0.015435866
0.03188689 0.04989995 0.07574667 0.029965824 -0.010338289 0.04599574 0.0106432615 -0.015218264
0.008550335 0.045122407 -0.013932972 0.023267834 0.0072074155 0.057497717 0.050577845 -0.008103238
0.016683534 0.045556504 0.01584488 -0.004157628 0.022893213 -0.020493986 -0.017834142 0.012867071
0.021882134 0.020340113 0.071550325 0.043993913 -0.056719836 -0.01822014 0.027937278 0.020082742
0.04439726 0.018541029 0.017494483 0.021469174 -0.020668227 0.01576353 0.039285503 0.03119841
0.05333424 0.00557737 0.07963369 0.015332608 0.024743106 0.025380926 -0.0059853164 0.033998434
00000000: f6a0 80ba 0b19 7d3d 6d4e 033b 60e2 4c3d
00000010: 4627 683d 848a 4ebd a376 ec3c ac6b aebc
00000020: 5563 8dbc 061f 50bc b591 adbb fe45 ea3c
00000030: 9a0b eebb a3f1 083c b20e 43bc 2738 573d
00000040: 8efb 36bd 053d 7bbc b352 fd3c 05f2 8d3c
00000050: 7dc7 eb38 ebba a83c 9b07 eebc add5 8dbc
00000060: 6cd4 203d 4345 583d e9ca 613b f67c 083d
00000070: 90a8 aebc 92bd 0f3d 5121 0b3c bca2 0f3d
00000080: e0a2 0b3c a703 0c3d 394b 35bc a480 583c
00000090: af66 bf3c 702d 2a3d 68a4 233d 8558 b03d
000000a0: 27ee f73c 4d01 6e3b 6fe9 28bc 78de b23b
000000b0: 39c1 9bbb 98a5 84bb 194b 523d d69e 3b3d
000000c0: e1ae a93d f96c 053d 6be7 603d a668 663d
000000d0: 1eed fe3c 84b4 d83c 165e 8e3d ae17 913b
000000e0: c03b 5cbc ea93 333c a247 b2bc 0009 9d3d
000000f0: 2b64 14bc b71c c63c 8389 7abb a1d3 903d
00000100: f923 c13a d890 15bc 3c03 553d f960 993c
00000110: 92a6 233d 2378 68bc 6287 833d 9dff 1abc
00000120: 5117 a73d cf3c 9a3c 8a6d 833d dc49 093d
00000130: 9d5e 883d 2a2e 76bb 682f 8cbb b7e6 7c3c
00000140: d49b 023d e463 4c3d 1221 9b3d e37a f53c
00000150: ed61 29bc 0766 3c3d 1361 2e3c 0756 79bc
00000160: b416 0c3c 46d2 383d 1f47 64bc 2f9c be3c
00000170: 2f2c ec3b ba82 6b3d b72a 4f3d 72c3 04bc
00000180: e8ab 883c 7599 3a3d 1fcd 813c b63c 88bb
00000190: 8c8a bb3c 01e3 a7bc e818 92bc 68d0 523c
000001a0: 2942 b33c 4fa0 a63c fa88 923d f632 343d
000001b0: 0f53 68bd 6742 95bc b8dc e43c 9084 a43c
000001c0: e7d9 353d 5be3 973c 9750 8f3c 1fe0 af3c
000001d0: 6a50 a9bc 8522 813c d6e9 203d cf93 ff3c
000001e0: 0175 5a3d 5fc2 b63b fd16 a33d 9e35 7b3c
000001f0: 0eb2 ca3c a9eb cf3c 7920 c4bb f141 0b3d

network_body._body_endoder.seq_layers.2.weight f4 [128, 128]
0.083664924 0.08290889 -0.0068986528 0.049803592 -0.050638873 -0.13947248 0.12941258 -0.12436394
0.03842215 0.0075367913 0.08751466 -0.025449034 0.07660629 0.23094666 -0.15614843 0.14385545
0.08916528 -0.069610134 0.11992711 0.044760033 -0.023976633 -0.107605994 3.622094e-05 -0.24057636
0.011959482 0.09511446 0.005525634 -0.12360376 -0.07761194 0.07195889 -0.080084845 0.023969743
-0.13182618 -0.06748709 -0.021708816 -0.17649436 -0.10448001 0.040940683 0.20045124 0.1275009
-0.04761116 0.1278223 0.15228792 0.068437956 -0.046089336 -0.051809926 0.10819088 0.0605784
0.15555245 0.21611005 -0.017271323 0.03814598 0.16259602 -0.03439957 0.00046881483 0.05991795
-0.007343419 0.013180793 0.020092208 0.057380404 -0.15656842 0.050500814 0.08343911 0.01841366
0.021853901 -0.11647452 0.14774112 0.003823651 -0.15423022 -0.026884457 -0.06242761 -0.107435554
0.05398542 -0.12174437 0.03840068 0.016067948 0.2286483 0.00949529 -0.0008355109 0.03628568
-0.0942635 -0.0012356914 -0.08596928 -0.074969366 0.23673879 -0.014125277 -0.0060151666 -0.10329456
-0.032021746 0.026589662 -0.12681471 -0.122479565 0.12789717 -0.053426184 0.05090608 0.056272313
0.036109038 0.21464218 -0.043823604 0.07862914 -0.10790227 -0.05960105 -0.09289656 0.05965873
0.17246312 0.0012870478 0.0935891 0.040057965 0.039290518 -0.00155115 0.120450266 0.006573063
0.16112229 0.12105097 -0.041758657 -0.08310514 0.028120734 -0.07430125 -0.15685284 -0.054371133
0.042014353 -0.06355161 0.044069536 -0.039274827 -0.095736876 0.23477907 0.019599047 0.18844217
-0.062098563 0.029721031 -0.00038406055 0.010680742 0.0046776636 0.07345298 -0.10988336 -0.060506687
0.046681646 0.11331169 -0.03683871 0.11168824 0.10265863 -0.072910234 -0.09224821 -0.011413354
0.04630165 -0.007828386 0.18219627 -0.019204138 -0.07570568 -0.049725387 0.12014166 0.029345708
-0.114740275 0.08741482 0.08175635 -0.14696181 -0.11378297 -0.03214705 0.06786729 -0.04883434
0.12105447 -0.16356833 -0.039516456 0.08128681 0.06922157 0.14832908 -0.22172506 0.10444127
0.06651396 -0.0156142395 0.088550664 -0.021400705 0.04017581 0.15998583 -0.023510685 0.08189114
-0.07173475 -0.17571665 0.03591795 0.02790031 0.14619727 0.14858173 0.18785113 -0.093844324
0.08163549 -0.0068893274 -0.0052762097 -0.07681876 -0.08537564 -0.018735787 -0.097602576 0.19569074
0.105903365 -0.044235457 0.03000966 0.1935257 -0.05814876 -0.15398936 -0.085265815 -0.06617076
-0.09799032 -0.0639911 0.014215378 -0.15334983 -0.006551263 0.022072455 0.036959052 0.016209062
0.04573402 0.08553064 0.07263546 -0.036128115 -0.09857282 0.1287032 0.033879615 0.09342443
-0.013510775 -0.020486701 -0.13967796 -0.13145544 -0.09552797 0.108782545 0.0889407 0.013476617
0.07629781 0.049978618 0.15952277 0.20452775 -0.07431339 -0.03845394 -0.11832352 -0.01685627
-0.040574607 -0.08136745 0.019428447 0.008919118 -0.042991336 0.023465436 0.06472587 -0.124265686
-0.0022651176 0.003984326 -0.053639285 -0.12744667 -0.015242101 0.014949137 0.12924132 -0.071763545
-0.099370584 0.053537473 0.016089814 -0.111586384 -0.16288519 0.10892335 0.0074347877 -0.07091384
00000000: 8458 ab3d 23cc a93d 180e e2bb dafe 4b3d
00000010: b56a 4fbd e0d1 0ebe bb84 043e 85b2 febd
00000020: 8b60 1d3d 30f7 f63b e33a b33d 7e7a d0bc
00000030: c2e3 9c3d 487d 6c3e 60e5 1fbe d84e 133e
00000040: 499c b63d c28f 8ebd 589c f53d 4c56 373d
00000050: a56a c4bc 8860 dcbd f0eb 1738 a659 76be
00000060: b4f1 433c 5fcb c23d 6110 b53b f823 fdbd
00000070: 02f3 9ebd 2f5f 933d 8603 a4bd 325c c43c
00000080: 71fd 06be ac36 8abd b0d6 b1bc f0ba 34be
00000090: 9ef9 d5bd 6bb1 273d 1743 4d3e 998f 023e
000000a0: eb03 43bd d9e3 023e 5df1 1b3e 3329 8c3d
000000b0: 2cc8 3cbd a536 54bd 2e93 dd3d 0e21 783d
000000c0: 2449 1f3e f44b 5d3e 977c 8dbc f63e 1c3d
000000d0: 927f 263e 90e6 0cbd 43cb f539 866c 753d
000000e0: 10a1 f0bb 41f4 573c 6a98 a43c b707 6b3d
000000f0: 7953 20be f1d9 4e3d 20e2 aa3d 3ed8 963c
00000100: f406 b33c 318a eebd 7349 173e 3896 7a3b
00000110: 87ee 1dbe cb3c dcbc 18b4 7fbd 2c07 dcbd
00000120: d11f 5d3d 1d55 f9bd 084a 1d3d eea0 833c
00000130: c822 6a3e 2292 1b3c 3006 5bba 4ba0 143d
00000140: 390d c1bd ecf6 a1ba a910 b0bd 8a89 99bd
00000150: a76b 723e b56d 67bc e01a c5bb 198c d3bd
00000160: 3c29 03bd 90d2 d93c b7db 01be 91d6 fabd
00000170: 7af7 023e 6ad5 5abd e582 503d cc7d 663d
00000180: 12e7 133d 29cb 5b3e 6180 33bd 5108 a13d
00000190: defb dcbd 3b20 74bd 8d40 bebd b65c 743d
000001a0: 2c9a 303e 28b2 a83a a4ab bf3d d213 243d
000001b0: 18ef 203d f54f cbba a1ae f63d d962 d73b
000001c0: 3efd 243e 92e9 f73d 200b 2bbd 0733 aabd
000001d0: 745d e63c 412b 98bd 089e 20be 44b4 5ebd
000001e0: 3e17 2c3d 5927 82bd 4282 343d a4de 20bd
000001f0: b211 c4bd ed69 703e 2e8e a03c fcf6 403e
00000200: 105b 7ebd 8579 f33c bc5b c9b9 47fe 2e3c
00000210: 1647 993b 846e 963d 870a e1bd dcd5 77bd
00000220: 4135 3f3d f60f e83d 30e4 16bd cebc e43d
00000230: b03e d23d f651 95bd a1ec bcbd 14ff 3abc
00000240: cda6 3d3d a142 00bc a991 3a3e ff51 9dbc
00000250: 940b 9bbd d9ac 4bbd d50c f63d 6966 f03c
00000260: f3fc eabd 8b06 b33d e06f a73d 287d 16be
00000270: 0c07 e9bd a0ac 03bd 01fe 8a3d 8406 48bd
00000280: 68eb f73d 757e 27be 02dc 21bd b379 a63d
00000290: 0ac4 8d3d 94e3 173e e50b 63be 4ee5 d53d
000002a0: 7938 883d ded2 7fbc 0d5a b53d 8850 afbc
000002b0: 648f 243d 53d3 233e 7b99 c0bc 8bb6 a73d
000002c0: abe9 92bd 11ef 33be b31e 133d 318f e43c
000002d0: bdb4 153e cf25 183e 0c5c 403e 7431 c0bd
000002e0: 8230 a73d debf e1bb 0ee4 acbb 2753 9dbd
000002f0: 6cd9 aebd cb7b 99bc dce3 c7bd 2763 483e
00000300: dde3 d83d 3d30 35bd d2d6 f53c 9a2b 463e
00000310: 652d 6ebd 63af 1dbe d89f aebd 8984 87bd
00000320: 26af c8bd c40d 83bd 9ee7 683c bd07 1dbe
00000330: faab d6bb 4bd1 b43c 6062 173d dec8 843c
00000340: 9953 3b3d b02a af3d e6c1 943d 13fb 13bd
00000350: 8ce0 c9bd c6ca 033e 5ac5 0a3d 4f55 bf3d
00000360: 4c5c 5dbc bad3 a7bc bd07 0fbe 419c 06be
00000370: 2ba4 c3bd 62c9 de3d 8b26 b63d 07cd 5c3c
00000380: 0742 9c3d 61b6 4c3d f059 233e b96f 513e
00000390: 9e31 98bd e181 1dbd 9a53 f2bd 2916 8abc
000003a0: 8f31 26bd faa3 a6bd 6828 9f3c 7e21 123c
000003b0: af17 30bd 963a c03c ff8e 843d 027f febd
000003c0: 5e72 14bb f38e 823b deb4 5bbd 6181 02be
000003d0: 01ba 79bc 3aed 743c d657 043e c4f8 92bd
000003e0: ce82 cbbd 1c4a 5b3d c9ce 833c 6787 e4bd
000003f0: 60cb 26be 3513 df3d 859f f33b 463b 91bd

network_body._body_endoder.seq_layers.2.bias f4 [128]
0.044569336 0.03850444 -0.03915989 0.0016131023 -0.006223785 -0.005611642 -0.032679267 -0.0038275928
0.023309533 0.0064952616 0.008838615 -0.025589088 0.010215337 0.025784424 0.066698596 0.025443522
-0.018079452 0.0385114 0.06800178 -0.00839634 0.035427265 0.022955192 0.033261746 0.030470926
-0.00814165 -0.015845235 0.0072438554 0.022812635 0.010741161 0.05178983 0.029299788 -0.007868505
0.012877982 0.03701939 0.058589887 -0.003607926 0.05142421 -0.03752053 0.07437903 -0.07263017
-0.00051991147 0.020350892 0.0022671276 0.029352982 0.034619413 0.0020023233 -0.0021112002 -0.0258234
0.007817435 -0.010295108 0.0075826375 0.041320674 -0.010968941 0.004516087 0.08929117 0.023701759
0.016587067 -0.020300366 0.038571212 0.037216578 0.047358327 -0.0012872895 -0.024960177 0.027885882
0.05787835 -0.009916589 0.040934883 0.066452004 -0.004375274 0.05071521 0.011740747 0.04187775
-0.014022127 0.004807177 0.0066999397 0.073126025 -0.027444443 -0.0053884713 0.00023269789 0.036339734
0.06486339 0.012945846 0.006620218 0.054943204 0.045005165 0.022418322 0.050552618 0.034352526
0.012959735 0.037831422 0.017350633 0.009681438 0.016484326 -0.012244575 0.024696812 0.03687159
0.0499952 0.036048938 0.0001720146 0.017531648 0.037297294 -0.012305163 0.0105652185 0.028905148
-0.015815519 -0.007253602 -0.01641175 0.02829383 0.008932853 0.04374377 -0.022883056 -0.0030790244
-0.008147776 -0.00063779147 0.027448677 -0.007746387 -0.0003613429 0.02483093 0.015910286 0.018854843
0.028319787 -0.006582265 0.018390372 0.004611606 0.02196765 0.00294532 -0.021177761 0.0682574
00000000: 568e 363d d5b6 1d3d 1f66 20bd bb6e d33a
00000010: e5f0 cbbb dde1 b7bb b2da 05bd 5ad8 7abb
00000020: a2f3 be3c 34d6 d43b d7cf 103c 35a0 d1bc
00000030: 3b5e 273c db39 d33c 4699 883d ef6e d03c
00000040: 5c1b 94bc 21be 1d3d 8444 8b3d cd90 09bc
00000050: 2e1c 113d 870c bc3c 783d 083d 2a9e f93c
00000060: 8e64 05bc decd 81bc dd5d ed3b 90e1 ba3c
00000070: b2fb 2f3c 9321 543d 1c06 f03c e7ea 00bc
00000080: 2cfe 523c a5a1 173d f3fb 6f3d f472 6cbb
00000090: 31a2 523d 21af 19bd 0854 983d 20bf 94bd
000000a0: ab4a 08ba eab6 a63c 1794 143b aa75 f03c
000000b0: 16cd 0d3d 6939 033b 105c 0abb 988b d3bc
000000c0: b314 003c d0ac 28bc c677 f83b de3f 293d
000000d0: 13b7 33bc affb 933b 4ade b63d 312a c23c
000000e0: 9ae1 873c f44c a6bc d9fc 1d3d 6970 183d
000000f0: cefa 413d 45ba a8ba 4979 ccbc ef70 e43c
00000100: d911 6d3d 3079 22bc 56ab 273d fd17 883d
00000110: 755e 8fbb c1ba 4f3d 435c 403c 0188 2b3d
00000120: 10bd 65bc 8685 9d3b 2b8b db3b 19c3 953d
00000130: 2bd3 e0bc c691 b0bb 5d00 7439 f9d8 143d
00000140: 19d7 843d d01a 543c 6aee d83b 200c 613d
00000150: 5657 383d a1a6 b73c 4310 4f3d 3cb5 0c3d
00000160: 1155 543c 1ff5 1a3d ea22 8e3c e59e 1e3c
00000170: 230a 873c 789d 48bc f850 ca3c aa06 173d
00000180: c4c7 4c3d 0da8 133d d15e 3439 889e 8f3c
00000190: 0cc5 183d 989b 49bc bd19 2d3c 7dca ec3c
000001a0: 8c8f 81bc a0af edbb ef71 86bc 76c8 e73c
000001b0: 1a5b 123c ab2c 333d 3f75 bbbc 75c9 49bb
000001c0: 407e 05bc 7631 27ba 0cdc e03c 67d5 fdbb
000001d0: a072 bdb9 3c6a cb3c 4a56 823c 7975 9a3c
000001e0: e6fe e73c 0ab0 d7bb 68a7 963c f41c 973b
000001f0: 80f5 b33c 4506 413b fc7c adbc 89ca 8b3d

action_model._discrete_distribution.branches.0.weight f4 [3, 128]
-0.028865036 -0.022486478 -0.007614311 0.0128547745 -0.0098018395 0.032284804 -0.01825263 0.02048482
0.011669313 0.016212752 0.015693875 0.021767 -0.0053619947 -0.0069098207 -0.010514355 0.008046812
0.00029621058 0.06196581 -0.022581939 0.021039 0.04892715 -0.021964729 0.02257787 -0.020954974
0.015642304 -0.019152123 -0.033053987 0.0038156426 0.024276095 0.011967475 -0.039137848 -0.031856436
0.005163291 -0.00676335 -0.0040245387 0.029729515 -0.080277905 0.009077063 -0.060938835 0.017850442
-0.00063579367 -0.010241053 -0.018327272 -0.03190144 0.028100511 0.04312387 -0.005062044 0.015740946
-0.0025429993 0.038315307 0.014784772 0.03063183 -0.019127605 0.00076598086 0.034805212 0.037953448
-0.06441649 0.040589347 0.025344474 -0.05694294 -0.00256851 0.012611532 0.027799373 0.033332407
-0.03959051 4.1336094e-05 0.029344324 -0.03056413 0.03893487 -0.0049414365 -0.0140805235 -0.03126065
0.00052618573 0.00977678 0.05812248 -0.005320214 -0.0146861505 0.029322175 0.03221473 0.031159533
-0.017729329 -0.007216803 0.035086095 0.036200456 0.023817344 0.00461032 -0.037007086 -0.015370213
0.041651223 -0.043439846 -0.015433556 0.001385091 0.0058178892 0.027080568 0.0014144166 -0.04034537
0.0038361035 -0.017517617 0.008748725 -0.035914972 -0.008880322 0.028881757 -0.0045593074 0.029304674
0.027061544 -0.0121148 0.0071742022 0.06441221 -0.008689659 0.046264797 0.038109135 0.017489012
-0.011451504 0.021648683 0.05087397 -0.03239527 -0.026249807 -0.007365404 0.005758736 0.0012394143
-0.025083119 -0.023135567 0.049099766 0.042571817 -0.012205012 0.028455762 -0.0058572288 -0.040963594
-0.0320194 0.01394348 0.0054217204 -0.026323838 -0.022093538 -0.03381625 0.0058746953 0.0070149284
0.010026751 0.0065311426 0.026452182 -0.032290254 -0.036659837 0.034517083 0.03903242 -0.040555067
0.016501728 -0.021668518 0.059279993 -0.02404444 -0.005959399 0.041817848 -0.021963695 0.01887162
0.03164087 0.0058069187 0.012123871 -0.014843837 -0.008104084 -0.0051806867 0.02779972 -0.011466818
0.012680484 0.016250549 0.010573337 -0.039331384 0.058930613 -0.0060487925 0.06812946 -0.010203159
-0.050404433 0.005667264 0.020220917 0.022430465 0.019382466 -0.033041645 0.012328356 0.0067329477
-0.0654213 -0.021846374 0.00833492 0.0039091427 0.002220021 0.0026601786 0.0011795283 0.032028925
0.038796388 -0.04631998 0.0017973732 0.021004314 -0.0061766766 -0.03745934 -0.0061168796 -0.021553654
0.046922904 -0.00954745 -0.0067822626 0.021643955 0.009883394 -0.022329422 0.0023241926 0.04142801
-0.0032865189 0.00543049 -0.021992203 0.034376062 -0.034652926 -0.016649155 -0.012471157 -0.015267413
0.02414965 0.0024958479 0.00781562 -0.04185422 -0.047336392 0.051017344 -0.015804084 0.020329488
-0.0117611885 0.0475444 0.061847303 0.012677232 -0.005993377 -0.0073934225 0.031678494 0.054228682
-0.0031426917 0.013883557 -0.017548272 -0.0011160726 0.005489729 -0.031554606 0.053068794 -0.04334425
-0.024360882 0.012882878 -0.022484517 -0.03140848 -0.026538845 -0.0042748805 0.014697577 -0.047651432
-0.06421712 0.0071620927 -0.023073899 0.005835661 0.013109688 0.011673422 -0.014453763 0.037559744
-0.021094833 0.042331308 -0.059600268 -0.016418803 0.026375242 0.034664903 0.0080331005 -0.00059878966
00000000: 5e76 ecbc 9035 b8bc 7881 f9bb d59c 523c
00000010: e597 20bc 123d 043d 8a86 95bc c8cf a73c
00000020: a530 3f3c 9bd0 843c 7190 803c b550 b23c
00000030: acb3 afbb c76b e2bb 6744 2cbc c7d6 033c
00000040: b64c 9b39 dccf 7d3d c2fd b8bc fb59 ac3c
00000050: d667 483d 60ef b3bc 3af5 b83c c4a9 abbc
00000060: 4a24 803c eae4 9cbc 9e63 07bd dc0f 7a3b
00000070: a9de c63c 3a13 443c 024f 20bd e57b 02bd
00000080: d330 a93b 189f ddbb 47e0 83bb 508b f33c
00000090: be68 a4bd f6b7 143c 009b 79bd 173b 923c
000000a0: 64ab 26ba 17ca 27bc 1323 96bc 16ab 02bd
000000b0: 0b33 e63c a8a2 303d 81df a5bb 28f3 803c
000000c0: 73a8 26bb 83f0 1c3d d43b 723c 9bef fa3c
000000d0: 7fb1 9cbc 1bcc 483a e98f 0e3d 1375 1b3d
000000e0: cbec 83bd 0441 263d 379f cf3c 003d 69bd
000000f0: 7254 28bb 99a0 4e3c 83bb e33c 9087 083d
00000100: a929 22bd 4b60 2d38 8263 f03c a061 fabc
00000110: 2c7a 1f3d c6eb a1bb ffb1 66bc 2b0b 00bd
00000120: baef 093a ca2e 203c d611 6e3d 3155 aebb
00000130: 2e9e 70bc 0f35 f03c 98f3 033d 4742 ff3c
00000140: 193d 91bc ee7a ecbb 70b6 0f3d ee46 143d
00000150: 971c c33c 2b12 973b be94 17bd 59d3 7bbc
00000160: 799a 2a3d fbed 31bd 07dd 7cbc f18b b53a
00000170: fea3 be3b 11d8 dd3c f263 b93a 3041 25bd
00000180: 2367 7b3b 1b81 8fbc d056 0f3c 941b 13bd
00000190: c57e 11bc 6f99 ec3c 3e66 95bb 5b10 f03c
000001a0: 2cb0 dd3c 277d 46bc 9215 eb3b 8cea 833d
000001b0: 125f 0ebc 2880 3d3d 5318 1c3d 1e45 8f3c
000001c0: 179f 3bbc 9458 b13c 3961 503d e7b0 04bd
000001d0: d609 d7bc 7d59 f1bb c7b3 bc3b d873 a23a
000001e0: 1d7b cdbc cd86 bdbc d61c 493d c95f 2e3d
000001f0: 88f7 47bc 0f1c e93c ffed bfbb 71c9 27bd
00000200: c626 03bd 3273 643c b0a8 b13b 17a5 d7bc
00000210: 82fd b4bc e882 0abd 8480 c03b 7cdd e53b
00000220: 3e47 243c 3203 d63b 3fb2 d83c c942 04bd
00000230: a028 16bd c961 0d3d 75e0 1f3d 121d 26bd
00000240: a22e 873c 2d82 b1bc 94cf 723d d8f8 c4bc
00000250: 1047 c3bb 3149 2b3d 35ed b3bc a898 9a3c
00000260: db99 013d f747 be3b 33a3 463c 9133 73bc
00000270: fec6 04bc c0c2 a9bb 3dbc e33c 52df 3bbc
00000280: cec1 4f3c df1f 853c ca3b 2d3c f219 21bd
00000290: 3a61 713d f334 c6bb 7587 8b3d 272b 27bc
000002a0: e174 4ebd 75b4 b93b 56a6 a53c 18c0 b73c
000002b0: fac7 9e3c ad56 07bd dffc 493c 0fa0 dc3b
000002c0: 9afb 85bd 2bf7 b2bc 308f 083c 4418 803b
000002d0: c67d 113b 6456 2e3b 679a 9a3a c330 033d
000002e0: f6e8 1e3d 05ba 3dbd d695 eb3a 3d11 ac3c
000002f0: b865 cabb f76e 19bd 1b70 c8bb 4a91 b0bc
00000300: 3b32 403d e86c 1cbc be3d debb aa4e b13c
00000310: f6ed 213c 31ec b6bc 7b51 183b 6bb0 293d
00000320: a362 57bb 40f2 b13b fe28 b4bc eacd 0c3d
00000330: 3af0 0dbd cf63 88bc d353 4cbc 2c24 7abc
00000340: 7dd5 c53c 6191 233b 160d 003c 556f 2bbd
00000350: cee3 41bd 90f7 503d 9177 81bc 078a a63c
00000360: 00b2 40bc ebbd 423d 9953 7d3d 2ab4 4f3c
00000370: 1764 c4bb 8644 f2bb 4fc1 013d e51e 5e3d
00000380: 9ef5 4dbb dc77 633c 65c1 8fbc 2f49 92ba
00000390: 2fe3 b33b 673f 01bd aa5e 593d be89 31bd
000003a0: 7990 c7bc b512 533c 7331 b8bc 2ea6 00bd
000003b0: fe67 d9bc 4c14 8cbb 1bce 703c 262e 43bd
000003c0: 4484 83bd fdaf ea3b 7905 bdbc 1339 bf3b
000003d0: 04ca 563c e141 3f3c 7acf 6cbc 3fd8 193d
000003e0: 12cf acbc 9863 2d3d 691f 74bd ba80 86bc
000003f0: e410 d83c c9fc 0d3d 449d 033c 18f8 1cba

action_model._discrete_distribution.branches.0.bias f4 [3]
-0.016095608 -0.0047268067 0.024627656
00000000: f0da 83bc 54e3 9abb f0bf c93c

action_model._discrete_distribution.branches.1.weight f4 [9, 128]
-0.00091022474 -0.037662745 0.00896684 0.058306452 0.034147013 0.03266331 0.04921522 -0.064289235
-0.034986444 0.002370803 -0.054798294 0.024152925 -0.024074322 0.029647416 0.019934332 0.013913172
0.03668412 0.00097256637 -0.07458903 -0.044057954 -0.044337053 0.024992626 -0.00702762 -0.038063675
0.0038858242 -0.004714204 -0.0029781803 -0.040575624 -0.049378775 -0.05803558 0.020793585 -0.035725147
0.043355748 -0.026374519 -0.030054405 -0.00012741942 0.029344501 0.02992267 -0.048453026 0.03831025
-0.0033027572 0.03079669 0.061084397 -0.07116062 -0.05401474 -0.0051976163 0.025323335 0.03642927
0.014619649 0.038396373 -0.11342281 -0.079992585 0.018683229 0.04415839 -0.085602395 -0.050526902
0.011984614 -0.003273765 -0.04303349 -0.08158785 -0.0573712 -0.0014324287 0.016602669 -0.06459171
-0.0021059122 0.012399271 -0.020584809 -0.057241205 -0.004340239 -0.055129852 -0.051081948 -0.05671682
0.005053406 -0.031893503 -0.02660632 -0.010614542 -0.027763773 0.035239816 -0.06305241 -0.07082166
-0.104181744 -0.05571357 -0.041531414 -0.08852205 -0.03224257 0.07040886 0.04724811 -0.01828659
-0.015988728 -0.021370709 0.03941542 0.0025467076 -0.03146089 0.04877732 0.047968037 -0.049318157
0.005384632 0.0043153004 0.043227874 0.00066037674 -0.09544809 -0.0015813996 -0.050258934 -0.029630743
0.008462866 0.036097493 -0.0029952282 -0.014943431 0.020500535 -0.029382406 0.05303187 0.03539531
0.010511921 -0.047408264 -0.049396805 0.024522636 0.006804916 0.012397683 -0.06331936 0.013908128
-0.0113095185 -0.02505926 0.020999592 0.037218574 0.0042795246 0.014711635 -0.044669792 0.0026162271
0.09252005 0.024616163 -0.019316386 -0.029640447 -0.04178745 -0.05118363 -0.0063408073 -0.017430298
-0.00804957 0.038085207 0.014928538 0.01331747 0.037541926 -0.009641673 0.053331383 0.011584389
-0.028045079 0.018118965 0.038163383 -0.009070688 0.05684656 0.009366505 0.10153609 0.020695973
-0.015685504 0.0076111103 -0.018026777 0.014018784 0.03255384 0.07315369 0.03546649 0.008871777
-0.042337917 -0.029725723 0.051174033 -0.01960601 -0.028649911 -0.034519464 0.06522159 -0.06694002
0.008551145 0.018055126 0.002373217 0.049787164 0.06245042 0.026314389 -0.029064788 -0.049475674
-0.031369664 -0.0019082066 0.040648635 0.07126428 0.034745026 0.06496853 0.050604735 0.02571264
0.011563638 -0.046214946 0.070278466 0.018034115 0.053872865 -0.014019916 -0.080275185 0.05793614
-0.028072182 0.0185565 0.025485577 0.06341389 0.02796281 0.106979325 -0.018548055 -0.0007640003
-0.056841016 0.008091166 0.04898338 0.07902075 -0.018711874 -0.034470778 0.0031777385 0.07965596
0.041245177 -0.04421418 -0.0028983436 0.04182803 0.06761054 0.045878436 0.013506878 0.04818861
0.020071302 0.038858544 0.060907602 -0.012359696 0.07853098 -0.007875039 -0.010051183 0.04759536
0.062993385 -0.014351068 -0.0011519958 -0.0009827482 0.016420258 0.0012589586 -0.014084677 0.028325157
0.04144746 -0.0061995923 -0.026500426 0.06349522 -0.005560968 0.06604117 -0.012106991 0.008129464
0.03543409 -0.007883462 0.057268742 -0.023455314 0.034772977 0.01615432 0.047412187 -0.04017582
0.03796267 -0.012238459 0.026995523 0.01766832 0.04548395 -0.070241354 -0.024632258 0.006336372
00000000: 269c 6eba 4044 1abd a7e9 123c bfd2 6e3d
00000010: bddd 0b3d f7c9 053d e695 493d 13aa 83bd
00000020: f24d 0fbd 795f 1b3b 2d74 60bd 5bdc c53c
00000030: 8337 c5bc 23df f23c 534d a33c 13f4 633c
00000040: 1642 163d d3f3 7e3a 22c2 98bd 1d76 34bd
00000050: c59a 35bd 56bd cc3c f347 e6bb a8e8 1bbd
00000060: 50a9 7e3b 9c79 9abb 932d 43bb a032 26bd
00000070: 6641 4abd b7b6 6dbd 4f57 aa3c 8854 12bd
00000080: cc95 313d 600f d8bc a834 f6bc e49b 05b9
00000090: e163 f03c 6320 f53c ae76 46bd 35eb 1c3d
000000a0: 1273 58bb 5749 fc3c a233 7a3d a9bc 91bd
000000b0: 8f3e 5dbd c450 aabb e272 cf3c dc36 153d
000000c0: 4187 6f3c 8445 1d3d 384a e8bd 27d3 a3bd
000000d0: 920d 993c 6edf 343d 4f50 afbd 4cf5 4ebd
000000e0: 1d5b 443c aa8c 56bb e343 30bd 8817 a7bd
000000f0: 10fe 6abd 55c0 bbba 5202 883c a948 84bd
00000100: 5803 0abb 5026 4b3c 79a1 a8bc c175 6abd
00000110: 9038 8ebb d7cf 61bd 4e3b 51bd e54f 68bd
00000120: 0b97 a53b c3a2 02bd 7ff5 d9bc 9ee8 2dbc
00000130: da70 e3bc a057 103d 9f21 81bd f20a 91bd
00000140: 3d5d d5bd ea33 64bd d81c 2abd 0c4b b5bd
00000150: c910 04bd 8532 903d 3c87 413d c2cd 95bc
00000160: cbfa 82bc a011 afbc 1072 213d aae6 263b
00000170: 22dd 00bd baca 473d 227a 443d d601 4abd
00000180: 9171 b03b 5d67 8d3b b60f 313d 221d 2d3a
00000190: 4a7a c3bd f746 cfba 50dc 4dbd 2cbc f2bc
000001a0: d5a7 0a3c f7da 133d 974b 44bb 4bd5 74bc
000001b0: bdf0 a73c 5fb3 f0bc f237 593d acfa 103d
000001c0: 313a 2c3c 2b2f 42bd 4e54 4abd b2e3 c83c
000001d0: c6fb de3b a71f 4b3c 95ad 81bd ebde 633c
000001e0: 8f4b 39bc 1449 cdbc 5607 ac3c 8172 183d
000001f0: 413b 8c3b 1209 713c acf7 36bd 0275 2b3b
00000200: 277b bd3d d6a7 c93c 663d 9ebc 86d0 f2bc
00000210: 5129 2bbd eda5 51bd 8cc6 cfbb fcc9 8ebc
00000220: 58e2 03bc 3cff 1b3d d496 743c 8531 5a3c
00000230: 90c5 193d 1cf8 1dbc 0272 5a3d 73cc 3d3c
00000240: cbbe e5bc 396e 943c 3551 1c3d 399d 14bc
00000250: f0d7 683d f875 193c 27f2 cf3d 9a8a a93c
00000260: e37e 80bc 9f66 f93b e4ac 93bc 0baf 653c
00000270: 2d57 053d 9ad1 953d 4f45 113d ee5a 113c
00000280: 866a 2dbd 5c83 f3bc dd9b 513d c89c a0bc
00000290: 38b3 eabc 4864 0dbd e692 853d d917 89bd
000002a0: 1a1a 0c3c 58e8 933c f987 1b3b a0ed 4b3d
000002b0: 03cc 7f3d 4691 d73c 4719 eebc 01a7 4abd
000002c0: 7a7d 00bd ca1c faba 2f7f 263d 02f3 913d
000002d0: cd50 0e3d 380e 853d e946 4f3d 50a3 d23c
000002e0: 6a75 3d3c e24b 3dbd 28ee 8f3d 48bc 933c
000002f0: cba9 5c3d cab3 65bc 5167 a4bd 724e 6d3d
00000300: a2f7 e5bc cd03 983c 21c7 d03c 24df 813d
00000310: 4312 e53c fa17 db3d 17f2 97bc 3147 48ba
00000320: 20d2 68bd cf90 043c cca2 483d a2d5 a13d
00000330: a549 99bc 3b31 0dbd 9b41 503b aa22 a33d
00000340: b4f0 283d ee19 35bd 23f2 3dbb de53 2b3d
00000350: 6577 8a3d 07eb 3b3d f44b 5d3c 6b61 453d
00000360: 926c a43c 232a 1f3d 407a 793d 5380 4abc
00000370: dad4 a03d 4f06 01bc b8ad 24bc 5af3 423d
00000380: ad02 813d be20 6bbc 91fe 96ba 8fcf 80ba
00000390: c783 863c a403 a53a 6bc3 66bc 290a e83c
000003a0: d0c4 293d f325 cbbb 6c17 d9bc c809 823d
000003b0: c838 b6bb 9840 873d 675c 46bc 7231 053c
000003c0: 5623 113d a329 01bc a192 6a3d 5c25 c0bc
000003d0: 1c6e 0e3d 1156 843c 4833 423d 678f 24bd
000003e0: bf7e 1b3d d183 48bc b725 dd3c 27bd 903c
000003f0: 614d 3a3d b3da 8fbd 97c9 c9bc 57a1 cf3b

action_model._discrete_distribution.branches.1.bias f4 [9]
-0.022971965 0.045448087 0.030762471 -0.056142632 0.034181256 -0.02338865 -0.030413263 0.0046777506
0.010299847
00000000: b42f bcbc c627 3a3d 9401 fc3c d1f5 65bd
00000010: a501 0c3d 8e99 bfbc 3c25 f9bc d147 993b
00000020: b1c0 283c

onnx::Div_68 f4 [246]
1.3140076 2.1509507 1.5112311 1.7467163 1.3787878 2.8221755 1.5187955 1.6763554
1.3797045 1.6450164 2.5361738 1.305469 1.2247509 1.7858505 1.9925873 1.2276644
1.5260202 1.3482547 1.5109599 1.2245322 1.293654 1.1659018 1.1735077 1.2026223
1.2350779 1.6465027 1.868662 1.4748538 2.2656698 1.3050009 1.5883387 1.6522224
1.446281 1.3608948 1.2526137 2.3760982 1.7678562 1.5514545 1.1472759 1.3083003
1.7234415 1.8863996 1.1839886 1.9262599 1.2154515 1.5727563 1.5737983 1.6173539
1.5745968 1.5285139 1.80577 2.0996 1.5466926 2.0309076 2.83216 2.6221213
2.0504184 1.4529921 1.3556105 1.1333544 1.6492107 2.5099454 1.910128 1.4155957
1.781206 1.4713902 1.4535476 1.7427045 1.4050752 1.294043 1.3929123 1.6343201
1.1989897 2.7488494 2.15837 3.1604137 1.3026956 1.1636714 1.8637698 1.2565545
1.2188778 1.2504343 1.5862614 1.5811825 1.5615436 1.6195626 1.228495 1.2355976
1.9223671 1.838335 1.8126938 3.0071127 2.3518302 3.1209157 1.4696925 1.1558791
1.4105469 1.4560336 1.7882836 1.4710544 1.8450813 1.6464496 1.9786229 1.6635216
1.6166904 3.863474 0.0009999797 2.2095678 2.1615193 1.5918308 1.4855884 2.122162
1.5975468 2.0159185 2.7317948 1.2439631 2.4462404 1.1937761 1.3497441 1.4519314
4.009924 0.00070709427 3.2153907 3.2888877 1.4326198 2.2338293 1.1571151 1.8828368
1.2810994 1.2705148 1.6083018 2.8195868 1.516878 2.154258 1.6296024 3.9319704
0.33874354 2.4042232 2.9215064 3.1945403 2.1220284 1.8503625 1.2801571 1.9710968
2.1428988 1.5518018 1.3633219 1.1451601 1.9345227 2.2308068 4.3542824 0.74657285
3.0980058 2.0865993 1.586842 1.4571205 2.5477855 2.1625104 1.6063988 1.4234613
2.2600317 2.8178842 1.8563467 1.6343634 1.564874 4.3410554 0.5821792 1.1917266
1.3308656 1.2742964 1.589124 1.532689 1.5681891 1.4684098 1.7249913 1.2042193
1.7265724 1.2064044 3.2647655 1.6832606 4.068423 0.6735267 2.1372952 1.2589129
1.6633053 1.0621789 1.4588125 1.2439953 1.9206419 2.8091164 1.6331998 1.5255553
2.6727426 2.3767085 1.7289088 2.715848 0.87279075 1.1069962 1.9299178 1.7399918
1.1611677 1.0069163 2.135114 1.0297891 1.4671806 1.1786058 1.3548496 1.314954
1.7361802 1.0469831 2.0558465 3.4118714 3.8800554 1.4472535 3.014339 2.1927242
1.4786451 1.6179433 2.7968793 1.6089272 1.9348038 1.6878339 2.57165 2.1853929
1.6994796 1.1906759 0.73996085 0.7270566 2.367167 0.7565732 1.0839164 0.49274775
0.4916978 0.5542482 1.7849346 2.2327266 1.9693358 1.6789436 0.7406155 0.9495773
0.30844414 0.33599588 0.34912556 0.08044089 0.20490775 0.32860327
00000000: 6731 a83f 2da9 0940 0570 c13f 6694 df3f
00000010: 1e7c b03f 869e 3440 e467 c23f d092 d63f
00000020: 289a b03f e68f d23f ac50 2240 9c19 a73f
00000030: a3c4 9c3f c096 e43f 1a0d ff3f 1b24 9d3f
00000040: a154 c33f 9c93 ac3f 2267 c13f 79bd 9c3f
00000050: 7496 a53f 453c 953f 8035 963f 87ef 993f
00000060: 0817 9e3f 9ac0 d23f 5130 ef3f 02c8 bc3f
00000070: bc00 1140 450a a73f af4e cb3f 067c d33f
00000080: bc1f b93f cd31 ae3f a555 a03f fe11 1840
00000090: 1d49 e23f 1096 c63f f0d9 923f 6276 a73f
000000a0: bb99 dc3f 8b75 f13f f08c 973f af8f f63f
000000b0: ea93 9b3f 1450 c93f 3972 c93f 7405 cf3f
000000c0: 638c c93f 58a6 c33f 7923 e73f d95f 0640
000000d0: 06fa c53f 64fa 0140 1c42 3540 d6d0 2740
000000e0: 0e3a 0340 a5fb b93f a584 ad3f c211 913f
000000f0: 5619 d33f f2a2 2040 137f f43f 3d32 b53f
00000100: 8ffe e33f 8456 bc3f d90d ba3f f110 df3f
00000110: 81d9 b33f 33a3 a53f f34a b23f 6731 d13f
00000120: 7f78 993f 26ed 2f40 bc22 0a40 3844 4a40
00000130: bbbe a63f 2ff3 943f 0290 ee3f c7d6 a03f
00000140: 3004 9c3f 3b0e a03f 9d0a cb3f 3064 ca3f
00000150: a9e0 c73f d44d cf3f 533f 9d3f 1028 9e3f
00000160: 2010 f63f 904e eb3f 5a06 e83f 8974 4040
00000170: 6384 1640 15bd 4740 e21e bc3f d9f3 933f
00000180: cd8c b43f 4f5f ba3f 7ae6 e43f 834b bc3f
00000190: a02b ec3f dcbe d23f 8443 fd3f 47ee d43f
000001a0: b6ef ce3f 2843 7740 c011 833a 8f69 0d40
000001b0: 5556 0a40 1dc1 cb3f c327 be3f 81d1 0740
000001c0: 6a7c cc3f cf04 0140 bad5 2e40 2f3a 9f3f
000001d0: 348f 1c40 a8cd 983f 6ac4 ac3f e3d8 b93f
000001e0: 4c51 8040 4b5c 393a f6c8 4d40 237d 5240
000001f0: 1660 b73f 0ff7 0e40 591c 943f cc00 f13f
00000200: 11fb a33f 3ba0 a23f d5dc cd3f 1c74 3440
00000210: 0f29 c23f 5ddf 0940 d096 d03f 67a5 7b40
00000220: cb6f ad3e cbde 1940 f6f9 3a40 5973 4c40
00000230: 50cf 0740 aed8 ec3f 30dc a33f e64c fc3f
00000240: 4125 0940 71a1 c63f 5581 ae3f 9b94 923f
00000250: 719e f73f 8ac5 0e40 4856 8b40 661f 3f3f
00000260: ba45 4640 d88a 0540 a31d cb3f ed82 ba3f
00000270: eb0e 2340 9266 0a40 7a9e cd3f fb33 b63f
00000280: 5ca4 1040 3758 3440 c59c ed3f d232 d13f
00000290: cb4d c83f ede9 8a40 b209 153f 7f8a 983f
000002a0: ce59 aa3f 251c a33f 6a68 cb3f 272f c43f
000002b0: 6cba c83f daf4 bb3f 84cc dc3f dc23 9a3f
000002c0: 5300 dd3f 766b 9a3f ebf1 5040 1575 d73f
000002d0: 8530 8240 3f6c 2c3f 72c9 0840 0f24 a13f
000002e0: 30e7 d43f 7af5 873f 5eba ba3f 3d3b 9f3f
000002f0: 98d7 f53f 90c8 3340 b10c d13f 6545 c33f
00000300: 370e 2b40 fe1b 1840 e24c dd3f 74d0 2d40
00000310: 376f 5f3f 0db2 8d3f 8c07 f73f 0db8 de3f
00000320: 25a1 943f a2e2 803f b5a5 0840 21d0 833f
00000330: 93cc bb3f 8edc 963f b66b ad3f 6a50 a83f
00000340: 273b de3f 8b03 863f fd92 0340 1a5c 5a40
00000350: d452 7840 9a3f b93f eeea 4040 9855 0c40
00000360: 3e44 bd3f c418 cf3f 1200 3340 54f1 cd3f
00000370: a7a7 f73f f10a d83f ea95 2440 7add 0b40
00000380: 8c88 d93f 1168 983f 136e 3d3f 6220 3a3f
00000390: aa7f 1740 c8ae 413f c6bd 8a3f 6f49 fc3e
000003a0: d0bf fb3e 36e3 0d3f bd78 e43f fee4 0e40
000003b0: 3213 fc3f a0e7 d63f fa98 3d3f 7f17 733f
000003c0: 64ec 9d3e a707 ac3e 96c0 b23e 31be a43d
000003d0: 56d3 513e b03e a83e
